Training_Nets_Python/models/pytorch/MATLAB_net_5p_SD.pt (torch_old, 589712 bytes, 14 tensors)

c1.weight f4 [2, 1, 32]
00000000: 6786 1cc0 3840 81bf 4bf7 743d 817c a43d
00000010: 35d6 bcbc 196c a6bd c44d 0fbe 8ba8 2dbe
00000020: 9393 3bbe 2aa9 4dbe 049c 5ebe 0aab 66be
00000030: e425 75be ee7c 81be 9bff 83be f127 92be
00000040: 0752 93be ae2b 97be 3e65 9bbe fd59 a0be
00000050: 8e15 9cbe a60b a2be dc8a 9abe cdde a1be
00000060: 183f 95be 56d4 b1be e6aa 9abe 5c40 87be
00000070: cc03 30be a169 16bd 193e 27bf 5f22 c9bf
00000080: 970b f3be 1de6 6cbe f56d 3ebd e87e 293d
00000090: 54d9 d9bb 061e 48bc f515 4cbc c550 cebc
000000a0: 066c 8ebc 9ea1 eabc b7ab d3bc b091 c6bc
000000b0: 0ac4 d5bc e8c8 6abc d8ab 24bd 6bd6 d3bc
000000c0: 501a 6bbd 8c4e 78bd c07b 66bd 23fd 83bd
000000d0: c3d4 59bd c790 94bd d9ba ad3b 0d82 e2bd
000000e0: 1fd9 88bc 15dd efbd ce84 75be 27dc d8be
000000f0: 5916 a8be a468 b2be 6c91 313e d4ad 943f
-2.4457033 -1.0097723 0.05980615 0.0803156 -0.02305136 -0.08126087 -0.13994509 -0.16958825
-0.18318014 -0.20084062 -0.21739203 -0.22526184 -0.23940235 -0.25290626 -0.2578095 -0.28546098
-0.2877352 -0.29525512 -0.3035068 -0.31318656 -0.30485195 -0.31649512 -0.30184066 -0.31615296
-0.291497 -0.34732312 -0.3020851 -0.2641629 -0.17188948 -0.03672183 -0.6532913 -1.5713614
-0.4746978 -0.23134656 -0.046491582 0.041380793 -0.006648222 -0.012214189 -0.012456407 -0.025184998
-0.017385494 -0.028641518 -0.025838716 -0.024239391 -0.026094455 -0.014330126 -0.040202945 -0.025859078
-0.05739814 -0.060621783 -0.05627036 -0.06444766 -0.05318142 -0.072541766 0.005301815 -0.110599615
-0.016705094 -0.1171209 -0.23976442 -0.42355463 -0.3282955 -0.3484546 0.1734063 1.1615548

c1.bias f4 [2]
00000000: 91e8 9abf 4e64 4b3e
-1.2102224 0.19862482

c2.weight f4 [2, 2, 16]
00000000: dbde 4f40 3b67 1440 bd90 c23f bcba 993f
00000010: 40f4 d13e 2e66 00be c6ba 6cbf 4318 c2bf
00000020: 4ca5 14c0 c4dd 37c0 7b3b 4cc0 fd5e 42c0
00000030: 00cb 39c0 2745 08c0 565c d0bf 0986 3bbf
00000040: 9ec4 8c3f c4af 7b3f 92a6 083f 2df6 8b3e
00000050: c699 0a3e 11c6 7e3c 6d04 c6bc 128f 16be
00000060: ff5f 70be 8d60 b5be ed57 d4be 2ee1 1fbf
00000070: 0e58 8bbf 3d46 adbf bdc6 cebf 7a51 e0bf
00000080: ee51 913f 53b1 c23f 35aa ba3f a05e 923f
00000090: c2ad 573f 8c76 0e3f 2259 963e 409e d5bd
000000a0: d57d 04bf 336c b5be 49ce 78be 93df 2ebe
000000b0: b880 49bf cea0 2fbf 20eb 83bf 6921 23bf
000000c0: d714 a83f 5876 7e3f a6d0 653f c92f 7c3f
000000d0: 0539 673f 59a9 453f 4bad 2f3f c366 603f
000000e0: a699 563f cbc0 133e 60dc b2be d371 ddbe
000000f0: d79a 6ebe e5e4 56bf 010c a2bf 8c9d d6bf
3.247977 2.3188007 1.5200421 1.2010112 0.4100666 -0.12538978 -0.92472494 -1.5163654
-2.322589 -2.8729105 -3.1911304 -3.0370476 -2.9030151 -2.1292207 -1.6278179 -0.73251396
1.0997503 0.9831507 0.53379166 0.27336255 0.13535222 0.015550152 -0.024172032 -0.14703014
-0.2347412 -0.35425225 -0.41473332 -0.6245297 -1.0886247 -1.353706 -1.61544 -1.7524865
1.1353128 1.5210365 1.4583193 1.1435127 0.8424951 0.5564964 0.29364878 -0.104305744
-0.51754504 -0.35434112 -0.24297442 -0.17077474 -0.78712034 -0.68604743 -1.030613 -0.63722855
1.313136 0.9939933 0.897715 0.98510414 0.9032138 0.7721153 0.686238 0.876568
0.838282 0.14429013 -0.34933758 -0.43250903 -0.23301254 -0.83943015 -1.2659913 -1.676683

c2.bias f4 [2]
00000000: 7a82 8bbe f0a5 23c0
-0.27247983 -2.557003

linear_sigmoid_stack.0.weight f4 [320, 234]
00000000: 3192 0740 b08c c03f 2127 863f 86e7 e33e
00000010: ddb5 063c d107 0bbf c60a 8abf 0a13 adbf
00000020: 344a bebf 8c3a a8bf 666f 90bf 8a5b 89bf
00000030: 45ea 62bf 058d 60bf 773a 50bf fbab 13bf
00000040: 69aa eebe 679b f3be d169 ebbe f1f9 c7be
00000050: 521d 0fbe fbc7 a53e a463 553f f9b4 a93f
00000060: fc47 c33f bd4e cb3f d609 ac3f c033 8d3f
00000070: ed2c 7e3f 06ab 753f 08fd 683f 486d 983e
00000080: c640 d6be fa50 b2bf 76e4 04c0 6f4a 36c0
00000090: 4f60 3cc0 f2ca 34c0 ba49 17c0 6334 febf
000000a0: 59ab ccbf 8b09 64bf 83d9 57bb ae9d 833f
000000b0: a274 ee3f a088 1540 506a 1b40 e327 0840
000000c0: f966 cd3f 317b 913f 471c fd3e e84e 2ebe
000000d0: 340f 2dbf d32c 8dbf c035 a7bf 10ba 9dbf
000000e0: 901c 8dbf ce58 33bf e907 b2be fa99 cdbd
000000f0: cf3c 263e 707c 573e 92c3 2f3f 7ae9 5b3f
00000100: 8f6f 3d3f 94eb f33e 490e c03d 4f20 62be
00000110: 1e42 d0be 8d01 fbbe 16de e0be 2745 92be
00000120: 5ef9 cebd bf9e 6fbd e84e 363d 1e6d 993e
00000130: 6a67 c23e 7526 e53e f96c 0a3f 193b d33e
00000140: abd5 c53e 3a7a 8a3e 9035 893e 81b8 7e3d
00000150: 76ca 733d 2597 473e 26e9 d23e f848 0b3f
00000160: 68ad c43e baf7 a93e f8bb b33d 9273 e63c
00000170: ef8f 13be de9b 3cbd 0729 8c3c 220d 063d
00000180: 90c7 643d a5f5 543d a506 9e3d 71d9 263e
00000190: dc13 d03d 0244 f73d 9d5c fd3d cbd1 e93d
000001a0: 659f 3a3e f25f 123e 3a31 c43d 4907 033b
000001b0: f2cc 273d 0eac 4cbd 4141 c73d 36b2 3b3e
000001c0: ef60 4d3e bcb0 1e3e c215 d7bc b7b2 f5bd
000001d0: f695 4abe 7d79 2ebe 65cb 16be 517c d2bd
000001e0: 4a93 ea3d db22 463e 5226 4a3d 2857 663c
000001f0: 2e72 babc 4e61 093e 96e6 b33d 597a 373e
00000200: 0abe 863e 2021 353e 7dc0 d43d dcad 263d
00000210: ba38 a1bd c962 f3bd 218a 19bd 7052 a83d
00000220: 26c1 23bc 9fc1 32bd 3902 27bd b9c5 50bd
00000230: 1207 8d3d c17f 553e dc97 643e 657a 0f3e
00000240: 3b42 303e 8bc0 053e 0574 d03d aacd 0d3e
00000250: 4625 173e ef9a 1a3e fc64 1b3e d3f8 5a3e
00000260: ed03 0a3e 058b 113e dac6 873e 3ae8 673e
00000270: ee46 c43d 1dc4 443c 2062 6a3d 337a 523e
00000280: 287e 463e 29d9 173e 9d64 7d3e 9b0a a43d
00000290: 7f6b ffbd 3cde d5bd 8c58 c8bc fa80 b2bd
000002a0: c59e a9bc 3563 8a3d 030a 713e 3877 9a3e
000002b0: 71f0 0a3e 54a7 3d3e 8ce4 993d f5d6 6b3c
000002c0: 8662 893d d793 d13d 54cf 383e 5f6c 143e
000002d0: 4295 2a3e 4ff3 df3d cb82 883e 74c6 243e
000002e0: 29af 353e 6de8 2f3e 6c24 a83c 2532 1fbc
000002f0: cc75 5dbb a95a 033d ca96 b83d 4065 1c3e
00000300: 8df6 ed3d b33f c13c 1a6f 5ebc 492a 81bc
00000310: b6e8 72bd 9437 8b3d 406c 8f3e 44eb 843e
00000320: 8a1f 7a3e ae2a 3f3e 2b7e c33d cfce f5bd
00000330: b103 e7bd 3f93 efbd be37 8b3c 26b0 b5bc
00000340: 3890 9d3c c0e8 623d 30dc 123e c5cc 803d
00000350: 6147 4a3d 1152 a5bc 2607 3ebd 8350 283e
00000360: c495 793d 34bf 1b3e 4dd4 fe3d 9749 37ba
00000370: 09ed 16bd 1d9e 28be 64c3 2fbe 6391 89bc
00000380: e36f 613d fc28 a43e 2a9d a33e 0a9c 1c3d
00000390: 46ce 03be 8421 55be e9c5 b5be 9c0d 4bbe
000003a0: 4668 083f 376a 0140 3c7d 3abe ac9f e3bd
000003b0: 364d 4bbd f91e 0bbd 6ab4 533d acc3 a83d
000003c0: bbbc b23d ba4a e4bd 0ce9 81be 3b84 98bd
000003d0: 39d0 bbbd 6d51 36bc 0e8b fa3c 8c87 01be
000003e0: 2f1c 70bd de92 803b 899d 493d bbba 78bd
000003f0: 0c92 33be f7b4 28bc 77be bbbc a201 86bb
2.1182978 1.5042934 1.0480691 0.44512576 0.0082220705 -0.543088 -1.0784538 -1.3521435
-1.4866395 -1.3142867 -1.1283996 -1.073106 -0.88638717 -0.8771518 -0.8133921 -0.57684296
-0.46614388 -0.475795 -0.4597917 -0.39057878 -0.13976029 0.32379135 0.83355165 1.3258353
1.5256343 1.5883404 1.3440502 1.1031418 0.992873 0.95964086 0.91011095 0.29770875
-0.41846293 -1.3930962 -2.0764441 -2.848293 -2.9433782 -2.8248868 -2.363875 -1.9859737
-1.5989791 -0.8907706 -0.0032936044 1.0282495 1.8629344 2.336464 2.4283638 2.1274345
1.604705 1.136572 0.49435636 -0.17022288 -0.67601323 -1.1029304 -1.3063278 -1.2322407
-1.1024342 -0.7005738 -0.3477166 -0.10039134 0.16234134 0.21043563 0.6865779 0.8590313
0.7399835 0.4764067 0.09377725 -0.22082637 -0.40675443 -0.4902462 -0.43919438 -0.28568384
-0.10106157 -0.058501 0.044508845 0.29966062 0.37969524 0.44755903 0.5407253 0.41256025
0.38639578 0.27046376 0.26798677 0.062187675 0.059519254 0.19491251 0.41193503 0.54408216
0.38413548 0.33196813 0.087760866 0.02813128 -0.14410375 -0.046047084 0.017109407 0.03272737
0.05585438 0.051992077 0.07716111 0.16293885 0.10160038 0.12073518 0.1237118 0.11416968
0.18224867 0.14294413 0.09579702 0.0019993356 0.040966935 -0.04996877 0.09729243 0.18329701
0.20056508 0.15497106 -0.026255492 -0.11996978 -0.19783768 -0.17038532 -0.14726026 -0.10277618
0.114538744 0.19349234 0.04935295 0.014058866 -0.022759523 0.13416025 0.08784215 0.17917766
0.26316863 0.17688417 0.10388277 0.04069315 -0.07872148 -0.11884076 -0.037485246 0.08218849
-0.009994781 -0.043641683 -0.040773604 -0.050969813 0.06886114 0.20849515 0.22323555 0.14011534
0.17212765 0.1306173 0.10178379 0.13847986 0.14760312 0.15098165 0.15175241 0.21383981
0.1347806 0.14213188 0.265189 0.22647181 0.09583841 0.012009648 0.057222486 0.20554428
0.19384062 0.14828934 0.24745412 0.08009835 -0.12471675 -0.104427785 -0.024456285 -0.087160066
-0.02070559 0.067572035 0.23538975 0.30169082 0.13568284 0.18520862 0.07514295 0.0143945115
0.06708245 0.10233276 0.1804784 0.14494465 0.166585 0.10935079 0.26662287 0.16091329
0.177426 0.17178507 0.02052518 -0.009716545 -0.0033792136 0.032068882 0.09013136 0.15272999
0.116192915 0.023589944 -0.013576293 -0.015767233 -0.05930396 0.0679771 0.28012276 0.25960743
0.24426094 0.18668625 0.09545549 -0.12002336 -0.11280001 -0.11698007 0.016994353 -0.02217872
0.019233808 0.05539775 0.14341807 0.06289057 0.04938448 -0.020180734 -0.046393536 0.16436963
0.060933843 0.15209657 0.12442837 -0.0006991862 -0.036847148 -0.16466565 -0.1716438 -0.016792959
0.055038344 0.3206252 0.31955844 0.038234748 -0.12871656 -0.20813566 -0.35502556 -0.1982941
0.5328411 2.0221078 -0.18211836 -0.11114439 -0.04963418 -0.033965085 0.051685728 0.082404464
0.08727404 -0.111470655 -0.25373113 -0.07447096 -0.09170575 -0.011127812 0.030583885 -0.12649363
-0.058620628 0.003923758 0.049222503 -0.060724955 -0.17536181 -0.010297052 -0.02291797 -0.00408955

linear_sigmoid_stack.0.bias f4 [320]
00000000: 45b8 b4c0 5832 7bbf 36a3 34c0 8586 81bf
00000010: aa37 16bf f53b 1ac0 bccc c23f 2e72 17bf
00000020: 6349 2cc0 bd91 cbc0 190e 98bf 842f c9bd
00000030: 5a74 d53d 1aa9 70c0 d993 7f3c 37fb b6bf
00000040: c48d 53c0 55bd 0ec0 0308 df3c 906a 9ebf
00000050: 9f08 bf3f 6c0f 5740 8474 32bf 69a1 68c0
00000060: 26ae 2cc0 80df b43f 08fc ec3e f2c3 3ec0
00000070: abef ca3f 2134 34c0 07f2 16c0 855b 993f
00000080: e323 64bf 1600 4c40 2c19 63c0 1d36 71c0
00000090: f32f cc3d bf06 4dbf 83e4 453e 3389 d8bd
000000a0: 019b 1dc0 8787 963f f995 2940 204b 3ec0
000000b0: 9f7f 383f 32e0 4bbe e8dd 5abf 6f6b 25c0
000000c0: f952 13be f98b 5dbf f3c9 513f 9992 5140
000000d0: 219e ee3f a1a1 d9be 5155 1d3f f42d d33f
000000e0: e237 43c0 e751 6e3e 5bfa 9c3f 7668 de3f
000000f0: cee4 b43e d8d0 98bf 325c 23c0 7c63 c1bf
00000100: d3b5 12c0 4a3b 6540 7537 d7be 9c0a afc0
00000110: bbd8 4ac0 ffad 25bf 989f cbbd 2030 5440
00000120: a68f 26c0 e842 7dc0 d4e3 dbbf ce45 27bf
00000130: d3a9 bebf 90fa 1ac0 3165 a7bf 48d6 31c0
00000140: 5105 68bf d646 e6bf 1aa6 d63e 0138 d2c0
00000150: 406a 9e3f d151 543b 1a3c e7bf 9126 5fbf
00000160: 3127 36bf 36c5 56c0 7616 ed3d 2ee7 893e
00000170: 9812 09c0 e6c9 4dc0 2ea5 933e 4748 79bf
00000180: 6b78 28c0 b650 02c0 98f6 f6bf 3649 b23e
00000190: 9ec5 9bc0 a2cd b4bf 4d68 b23f b2ec 27bf
000001a0: 6c52 ab40 550e da3f 4274 6ec0 1d31 1cc0
000001b0: 6bcf 1940 f642 00c0 95d1 f1c0 4873 65bd
000001c0: 346b a4be 4216 9cc0 4868 193f fe40 85c0
000001d0: 1298 8a3f f858 03c0 6794 15c0 b382 58c0
000001e0: d594 41be a32a 20c0 2533 30c0 6864 cbbf
000001f0: b89e cdbe 0743 8640 370f 4dc0 d056 d9bf
00000200: 81d4 9abf ca9b 2dc0 062c 2b40 5ae9 e5bf
00000210: 8ed7 2f3d 6f3f 82bf c5b5 69bf d900 db40
00000220: a062 1140 0e68 2ac0 8e27 babe 31ba 17bf
00000230: 3ca7 83bf 5f8b e83e 65e1 0440 c310 4f3f
00000240: 32e8 88bf 58e9 ddbd 466c 473d c498 c63e
00000250: 4178 30bf 2c3f 1840 ccb5 d43d 29a7 4e3f
00000260: 2497 85bf 543d f73e 1f5d 25c0 b647 cdbe
00000270: 51ad 2240 588b 13c0 225e 0d3f 33fe 66c0
00000280: 8b5f 4140 16f6 333f 1b79 0040 5587 65c0
00000290: f4d1 84be c91f 26be 8962 93bf feb0 c83f
000002a0: 7727 3d40 50c5 e4bf f59a 58bf 4e79 c93f
000002b0: ac69 3abf 945d f13f fe94 0cc0 db3c 16c0
000002c0: cea5 b3be 856b acbf 3901 e7bf 6c70 02c0
000002d0: c0c5 1fbf 5c62 6dbe e033 9b3f c09f 45c0
000002e0: 3938 803f 541c 5cbf 7608 eabf f5cf 2dbe
000002f0: 8160 91be 1f11 01bf 1866 d5bf dc34 bbbe
00000300: fc22 7c40 c5d0 3cbf aa23 b7bf dadd a0c0
00000310: 02d6 babf b59a f2bf 9d8e 62be 57b8 16bf
00000320: a62a 3bc0 0013 4abf 7988 7b40 8522 953f
00000330: 8e81 a1bf a814 31c0 cd4b 91be 9053 fcbf
00000340: 6c3e 75bf 93b7 44c0 54d5 7d3e bffd 893f
00000350: 42d0 b83e e6a4 02c0 e6d3 a53f d151 18c0
00000360: fbdc 833d 4e23 40c0 759d 0abf 5861 d1bf
00000370: d9f2 1dc0 9b20 3cbf 11fb fb3f 2bcf bd3f
00000380: e3c1 3040 f5cc 03c0 c327 c0bf a792 45bf
00000390: d487 c3bf cd6f aa3e 2fff 40c0 76f2 2740
000003a0: b0e2 d43f 0b4a a1bf 8a2f 8cbf 1e3a 09c0
000003b0: b01d f6bf 5a88 10be b2c5 b6bf 47a4 17bf
000003c0: 3756 44c0 72d1 8bbf 1ad7 ed3e 8f5a 5ec0
000003d0: 0e88 fd3f 4673 83c0 4640 8e3f 91e7 04c0
000003e0: 8cff 9fc0 fc6b b2be d25d 04c0 02c9 adbf
000003f0: 0a3e 24bf 5510 babf b700 63bd 6b28 58c0
-5.647494 -0.98123693 -2.8224616 -1.0119177 -0.58678687 -2.4099095 1.521873 -0.591586
-2.6919792 -6.3615403 -1.1879302 -0.09823516 0.10422583 -3.7603211 0.0155992145 -1.4295415
-3.3055277 -2.230306 0.0272255 -1.237627 1.4924506 3.3603163 -0.6970904 -3.6348517
-2.6981292 1.4130707 0.46286035 -2.9807096 1.5854391 -2.8156817 -2.3585222 1.1981055
-0.8911726 3.1875052 -3.5484114 -3.7689278 0.09970083 -0.8008842 0.19325452 -0.10573044
-2.4625857 1.176011 2.6497786 -2.9733353 0.72069734 -0.19909742 -0.8549485 -2.5846822
-0.1438712 -0.86541706 0.81948775 3.2745726 1.8642007 -0.42506126 0.6145831 1.6498399
-3.0502858 0.23273431 1.2263902 1.7375629 0.35330814 -1.1938734 -2.5525022 -1.5108485
-2.2923477 3.5817437 -0.42034498 -5.470045 -3.1694782 -0.6471862 -0.099425495 3.3154373
-2.6025176 -3.9572086 -1.7178903 -0.6534089 -1.4895576 -2.4215431 -1.3077756 -2.7787037
-0.9063311 -1.7990367 0.419236 -6.5693364 1.2376175 0.00323974 -1.8065217 -0.8716822
-0.7115355 -3.3557868 0.1157655 0.2693419 -2.1417599 -3.215448 0.2883696 -0.9737591
-2.6323497 -2.0361762 -1.9294004 0.3482148 -4.867873 -1.4125254 1.393808 -0.65595543
5.3538113 1.7035624 -3.7258458 -2.4404976 2.4032848 -2.004087 -7.5568337 -0.056018144
-0.3211304 -4.877717 0.59924746 -4.1641836 1.0827658 -2.0523052 -2.3371828 -3.3829772
-0.18904431 -2.5026023 -2.7531216 -1.5890017 -0.40160155 4.195682 -3.2040536 -1.6979618
-1.2096101 -2.7126336 2.674562 -1.7961838 0.04293018 -1.0175608 -0.91292983 6.8438535
2.2716446 -2.662601 -0.36358303 -0.5926848 -1.0285411 0.45418832 2.076257 0.8088495
-1.069586 -0.108355224 0.048687242 0.38788426 -0.6893349 2.3788557 0.103862375 0.80723816
-1.043675 0.48288977 -2.5838087 -0.40093774 2.5418284 -2.3053799 0.5522176 -3.609265
3.0214565 0.7029737 2.0073917 -3.586385 -0.25941432 -0.16223063 -1.1514446 1.5679014
2.9555337 -1.7872715 -0.84611446 1.5740144 -0.7281749 1.8856683 -2.1965938 -2.3474643
-0.35087436 -1.3470312 -1.8047248 -2.0381117 -0.6241112 -0.23182052 1.2125206 -3.0878754
1.0017158 -0.85980725 -1.8283832 -0.1697386 -0.2839394 -0.5041675 -1.6671782 -0.36563766
3.9396353 -0.7375606 -1.4307759 -5.0270815 -1.459656 -1.8953463 -0.22124715 -0.5887503
-2.924478 -0.7893524 3.9302046 1.165116 -1.2617662 -2.7668858 -0.28378144 -1.9713001
-0.95798373 -3.0737045 0.2478841 1.0780562 0.36096388 -2.0413146 1.2955291 -2.3799937
0.06438633 -3.0021548 -0.5414651 -1.6357832 -2.4679472 -0.7348725 1.9685994 1.4828848
2.761834 -2.0593846 -1.5012134 -0.771769 -1.5275826 0.33288422 -3.0155752 2.6241736
1.663168 -1.2600721 -1.0952008 -2.1441722 -1.922781 -0.14114514 -1.4279082 -0.5923504
-3.0677621 -1.0923293 0.46453172 -3.4742773 1.9807146 -4.1078215 1.1113365 -2.0766337
-4.9999447 -0.3484801 -2.0682263 -1.3576968 -0.64157164 -1.4536234 -0.055420604 -3.377467

linear_sigmoid_stack.2.weight f4 [160, 320]
00000000: c62d d2be c872 c53e 70af 8c3e 4ba4 293d
00000010: 495c d33e 1a50 e0be c6d1 3c3e af5a b0be
00000020: 15a7 0fbc 81e4 13c0 8875 ad3f 6710 43bf
00000030: fd47 9dbd d938 e9be aab2 d5be a520 2a3f
00000040: 10a9 323e cb63 813e c417 babd 4ce9 93be
00000050: e606 ab3e 9818 08be 85c7 1ebd b206 23bd
00000060: 514d f63d 5996 33bc fb97 ecbe ef8e 2ebe
00000070: d554 5abe 77d5 303f 3347 b13e 9eac 1b3e
00000080: 45e4 413d 0c46 fb3d bc0b 07bd 8ccc b4be
00000090: 3c0a 8c3f d94c 85be e627 6f3d ce99 43be
000000a0: b600 4d3d 47dd 9abe cb03 be3e a8be 9cbe
000000b0: 47de e43e 4121 73be f506 8e3d 3cbd 2c3f
000000c0: e8fa c8be a802 0dbd 034f afbc 656e c7be
000000d0: ca50 4dbf fd9b e1be 989d 1bbf af97 c83c
000000e0: 0531 b53f 7097 69be 4dc4 cebe 7212 83be
000000f0: b525 b0bd f336 773c 673d afbe d6cd 073f
00000100: eb0c 293d a015 403d b366 e8be 1129 48be
00000110: af3a 3dbf 7766 5e3d fab8 52be df3e f73c
00000120: d9ea 25be abca 8f3d 1a03 26bf 650c 8b3e
00000130: 2b65 3e3f 7d93 5ebe cb2b e6bd 56e5 dbbd
00000140: a0c5 8b3f 3c00 363f 83da c8be cab2 1ac0
00000150: b91e 3bbf 605d 773d 12a5 4e3e a3c0 31be
00000160: ae65 dcbd feb2 31be 67ad 8ebd a26c a23e
00000170: eda5 32be 3f26 0cbd 39d4 803e fadf 8bbc
00000180: 5179 dc3d afea c6bf 9bb9 d4bd 753f b5bd
00000190: 3241 69bf c416 b4bd a156 07bf f2f0 093e
000001a0: fda7 3cbd 794d 7bbe 6bf2 c73d b26f 793d
000001b0: 98d5 a43c 0c25 a63e 1cb1 15c0 ff85 cd3d
000001c0: 4189 4dbb 208a 683d 367d 6e3e 4662 003f
000001d0: 059f f83b 87cc 923e 0183 61bd 37dd 32be
000001e0: 6182 133e b45c 8ebf deea ff3d b136 94be
000001f0: 4e53 313d 6c48 6b3e 66c5 6bbc 505a 2e3f
00000200: a299 58be 5bb9 193e 0579 7b3d 5323 1ebc
00000210: 13c0 82be 61b9 0fbf ffab 2dbe 4587 1f3f
00000220: 2937 483d 3219 c7bb 1b21 853e a2f1 ad3e
00000230: 30ac a03e aab8 78bf 7b81 92bd b162 763e
00000240: 051b 133e 3fdd debd d76d d13f bff7 593e
00000250: 3775 e2be d46d b13e ea59 6b3f c221 dc3c
00000260: f3b5 2cbe b4f4 333f bd63 32bd 87ff fb3e
00000270: 409c d1bd 09a6 373f 4541 bfbd e34f cbbe
00000280: 290a 963e 663b 34bd 77c0 853e f08e f83c
00000290: 5cfa d93e 2d72 f7be 93d6 5a3e 71c8 473d
000002a0: 014d 1d3f 4f22 4cbb 3cd5 993e fb9b 503d
000002b0: 7aa6 11be 1dae 5a3f 112a b83d ad60 efbd
000002c0: e76a 40be 9a34 313e 95d8 b13d fa73 c9bb
000002d0: 6b1b bdbe 14e4 24bf 41db 8cbe 7c49 303e
000002e0: 3ca7 b5be 38eb 353f 42ef 783e 6974 e93d
000002f0: 97b2 093e 96b8 aebd 748b cdbd 5e34 92bc
00000300: f6d5 a13e 17ba cebe 609c d23d 5450 d8bd
00000310: 56a0 33be e975 023e 84ce f93d 72c3 ecbe
00000320: 2eeb efbe f534 17be 4b6f 4c3d a7fb a23f
00000330: 84f4 e73c aafe 57be a724 49be 89c5 f9be
00000340: d806 37be e16f d7bb 4936 17bf bfc3 5d3d
00000350: 1648 5b3e 2748 87be 4aac 103f 0f18 973e
00000360: 3465 f23e 52fb bebd 465d 81c0 a0ac 5ebe
00000370: 6fa9 bbbe c072 aabe 64e2 0f3e c237 4cbe
00000380: 07ae 693f a76b a33e 2aed 61bf ddd6 94be
00000390: eaa5 94be a52b a1bd 3d7e 353e 4c8c c13b
000003a0: 4b3d 8dbf 7a63 17bf 2eec abbd 8988 55be
000003b0: 0414 dfbe 1427 59bd 0c94 103d 7852 b93e
000003c0: 5729 ea3e 1323 98be ff00 8d3e 0957 59bd
000003d0: c78b 943e c2f4 393d 8e0d 62bc 7119 4cbc
000003e0: b2ae d83e 5dff 18bf c0e7 afbe 0bf6 7cc0
000003f0: 4ebe 173e 0c81 863c 449e c2bf 0a27 183d
-0.41050547 0.38564134 0.27477598 0.041416448 0.41281345 -0.43811113 0.18439397 -0.34444186
-0.008767863 -2.3108218 1.3551493 -0.76196903 -0.07679746 -0.45551184 -0.41737872 0.6645606
0.17447305 0.25271448 -0.09086564 -0.2888893 0.334037 -0.13290632 -0.038764495 -0.039801307
0.12026466 -0.010961139 -0.46209702 -0.17046712 -0.21321423 0.6907572 0.34624633 0.15202567
0.047336835 0.1226922 -0.032970175 -0.35312307 1.0940623 -0.26035193 0.05838766 -0.1910164
0.050049506 -0.30246946 0.3711227 -0.3061421 0.44700834 -0.23743154 0.06934921 0.6747625
-0.39253926 -0.03442636 -0.02139998 -0.38951412 -0.802014 -0.44064322 -0.60787344 0.02448639
1.4155585 -0.22811675 -0.4038414 -0.2560001 -0.08600942 0.0150887845 -0.34226534 0.53048456
0.041272085 0.046895623 -0.45390853 -0.19546916 -0.7391767 0.054296937 -0.20578375 0.030181346
-0.16202869 0.07021078 -0.6484848 0.27157894 0.7437312 -0.2173595 -0.112388216 -0.10737102
1.0919685 0.7109411 -0.3922921 -2.4171624 -0.73093754 0.060391784 0.20180157 -0.17358641
-0.10761581 -0.17353436 -0.069666676 0.31723505 -0.17446108 -0.03421616 0.25161913 -0.017074574
0.10765327 -1.554037 -0.10386964 -0.08849994 -0.91115105 -0.08793405 -0.5286656 0.1347082
-0.046058644 -0.24541272 0.097630344 0.060897537 0.02012138 0.3245014 -2.338935 0.10035323
-0.0031362327 0.05677235 0.23289952 0.50149953 0.007587316 0.28671667 -0.055056576 -0.174672
0.14405204 -1.1122041 0.12495969 -0.28947976 0.043292336 0.22976846 -0.014390325 0.68106556
-0.21152356 0.15012114 0.06139471 -0.009651977 -0.25537166 -0.5614224 -0.16960143 0.6231578
0.04888073 -0.0060760016 0.2600182 0.33973414 0.3138137 -0.97156775 -0.07153603 0.24061085
0.14365776 -0.10882043 1.6361645 0.21285914 -0.44230053 0.34654105 0.9193407 0.026871566
-0.16866283 0.7029526 -0.04355215 0.4921839 -0.102348804 0.71737725 -0.09338621 -0.39709386
0.29304627 -0.04400196 0.26123402 0.030341595 0.42573822 -0.48329297 0.21370916 0.04877514
0.61445624 -0.003114838 0.30045497 0.050930005 -0.14223662 0.85421926 0.089923985 -0.11688361
-0.1879078 0.17305222 0.08683888 -0.0061478587 -0.3693498 -0.6441052 -0.27511027 0.17215532
-0.35479152 0.7106204 0.2431002 0.113991566 0.13447033 -0.08531301 -0.10036364 -0.017847236
0.31608552 -0.4037635 0.102837324 -0.105621964 -0.17541632 0.12740292 0.12197593 -0.46242863
-0.46859115 -0.14766295 0.049910825 1.2733048 0.028314836 -0.2109324 -0.19642888 -0.4878352
-0.17873704 -0.0065746163 -0.5906721 0.054141756 0.21414217 -0.26422235 0.5651289 0.29510543
0.47342837 -0.09325279 -4.042636 -0.21745539 -0.36652705 -0.33290672 0.14051205 -0.19943145
0.9128117 0.3191807 -0.8825251 -0.29070178 -0.29032832 -0.07869653 0.17723937 0.0059066173
-1.103433 -0.59136164 -0.08394657 -0.20852865 -0.43569958 -0.053015783 0.03529744 0.3619573
0.45734665 -0.2971426 0.27539822 -0.05306152 0.29012892 0.045399435 -0.013797177 -0.012457238
0.42320782 -0.59764653 -0.343565 -3.9525173 0.14818689 0.016418956 -1.5204549 0.037146606

linear_sigmoid_stack.2.bias f4 [160]
00000000: ab59 cebe 582f 85bf 8933 b4be fc76 833e
00000010: 1654 e13e 8590 50be d54d ad3e a231 7ebe
00000020: 23c2 e43c 7aa0 d0bd c6ed dabc 0d76 2cbe
00000030: 55c0 4a3d 0d19 0abe f55d 82be 5f40 fabd
00000040: d8d5 17bf d89f 9c3d d573 14be 5c13 b5be
00000050: 68fb 72bf 7e24 adbe d36d 653e 1a12 63be
00000060: 91aa 923d b17b 26be f80a a23e febf 84be
00000070: 5765 843e 1c60 c43e 8379 abbd 7009 233d
00000080: df7d 93bd 287f 36be f585 e23d a256 683e
00000090: 2da1 0abd e0ba debe c800 f73d 475f 543e
000000a0: faa1 243e 595e b93e 15de 81be c12c 8cbf
000000b0: 1423 a2be 9a97 ffbd 68cb 21bf 33ea d1be
000000c0: 9391 12be fa45 28be 2b45 b43e 5383 f93e
000000d0: 6f17 2d3e 7110 6f3d ebf5 8c3c f2dc e73e
000000e0: dd0d d4be a9c0 083e 8b20 693e a1a8 793e
000000f0: 9dd3 a3bd 4e3c 7ebe 2d42 ef3d 77ee 193f
00000100: ac4b 5dbd 07f5 32be 6491 5e3e 6fd1 8e3d
00000110: e180 cb3c 9037 a13d 2c3c bebe dde4 d1be
00000120: 2daa 28be 0639 8abf a0c3 43be d7d1 753e
00000130: 6a77 d33d cedd fe3d 733c cabb 4f66 c13e
00000140: 0d4e 13bd 51b4 fabd 345d d2be 0bea ddbd
00000150: 1dcb 3c3d 1e7c 163d b3b6 9bbe f64f 3a3e
00000160: c400 ae3c 9fa0 a73e 3495 1e3f 68f0 41bf
00000170: 97b3 033e f99a c3bd f3ce 2abf efd7 dabd
00000180: c05f 623d 46e2 a0be edbe 49be e41b 9f3e
00000190: 021d 87bd 1ba2 1fbf 4f51 a53d f171 aa3d
000001a0: 70d9 3bbe e9d0 1f3e 855c 693e 501e 193e
000001b0: 0205 83be b59c 5cbd 5fe6 d73c c6f2 15bf
000001c0: 16d8 753e 6e7f c4be 7c1a f0be 1753 89bd
000001d0: e772 bf3e ce0c d33d 29aa 413e c6aa f2be
000001e0: 52d3 b6be 7646 83be 003e 9c3e 0288 c9bd
000001f0: 70b6 913d 6e2f 92be 21f1 b53d 4194 c23e
00000200: 75fe 34be c786 17be 1cff 91be cdf4 e73c
00000210: daff 0dbd 3dd0 87bd 37df aebc 5166 3abf
00000220: d12c 203f e06d 673e 1ea1 a8bc 4531 c4be
00000230: aa1e c1bd a80d c5bd 478b dabe 06d3 07bf
00000240: 1d69 2f3e 320b 28bd 66fe dbbe 38f4 0d3f
00000250: 5236 06be f21b 1abe f05c f33d 0479 99bd
00000260: 1389 cc3d b7c4 5ebe a174 be3e c63e 513d
00000270: 3b90 9bbe fce4 8a3e 345e a8be 2e93 84bf
-0.40302786 -1.0405073 -0.35195568 0.25676715 0.44009465 -0.2036763 0.33848444 -0.24823621
0.027924603 -0.101868585 -0.026724707 -0.16841908 0.04949983 -0.13486119 -0.2546231 -0.12219309
-0.59310675 0.07647675 -0.14497311 -0.35366333 -0.94914865 -0.33816904 0.22405176 -0.22174874
0.07161439 -0.16258122 0.31648993 -0.25927728 0.25858566 0.38354576 -0.08372786 0.039803922
-0.072017424 -0.17821944 0.110607065 0.22689298 -0.033845115 -0.4350195 0.12060696 0.2073947
0.16077414 0.36204794 -0.25364748 -1.0951158 -0.31667387 -0.124800876 -0.63201 -0.40998992
-0.14313345 -0.16432944 0.3520902 0.48733005 0.1690347 0.05836529 0.017207107 0.45285755
-0.41416827 0.13354744 0.2276632 0.24380733 -0.079993464 -0.24827692 0.11682544 0.60129493
-0.054027244 -0.17476283 0.2173515 0.0697354 0.024841728 0.07871926 -0.37155282 -0.4099492
-0.16471167 -1.0798652 -0.19117594 0.24005829 0.10325511 0.1244465 -0.006171757 0.37773368
-0.035963107 -0.12241424 -0.41086733 -0.10835656 0.04609214 0.03673946 -0.30412826 0.18194565
0.0212406 0.32739732 0.61946416 -0.75757456 0.12861477 -0.09551043 -0.6672203 -0.10685717
0.055267096 -0.31422633 -0.19701739 0.31075966 -0.0659733 -0.6235673 0.08072149 0.08322514
-0.18344665 0.15607037 0.227892 0.1495297 -0.25589758 -0.053860385 0.026354967 -0.5857357
0.24008211 -0.3837847 -0.46895206 -0.06705301 0.3739235 0.10305177 0.18912567 -0.47395915
-0.357081 -0.25639695 0.30516052 -0.098403946 0.07114875 -0.2855181 0.08883882 0.38003734
-0.17675193 -0.14797507 -0.28514946 0.028314972 -0.034667827 -0.06631515 -0.021346672 -0.7281237
0.62568384 0.22600508 -0.02058464 -0.3831884 -0.09429677 -0.09621745 -0.42684385 -0.5305637
0.17129941 -0.0410263 -0.42967528 0.55450773 -0.13106659 -0.15049723 0.11882961 -0.07493785
0.09987082 -0.21754728 0.37198356 0.051085256 -0.30383477 0.27127826 -0.3288437 -1.0357416

linear_sigmoid_stack.4.weight f4 [80, 160]
00000000: 455f e93c 220d 4bbd feb5 4c3f 0d1b 83bf
00000010: c031 04be a19d 7b3e 7d72 75bd 992c 0a3f
00000020: 4adf a33e 929b c43d 28ad acc0 4e88 06c0
00000030: 7d09 7c3e 33bf 4fbf e884 77be 2d1a 9ebc
00000040: e089 f33f d09a 0dc0 d5f5 423f 1038 aabe
00000050: 10b0 5441 4e80 813f d13b c3be d036 bcbf
00000060: 4734 303f b11b 68bc 4884 87bc 41d4 12bf
00000070: 95ed ddc0 da1f 8abe 204d b63d e293 b73f
00000080: d6e7 683e 8232 5a3d 9890 f83d e131 883e
00000090: a81b c6be 0f70 e43c 8cdd 363e fc48 e6be
000000a0: 2984 c83e a76a b83a 1942 c4be da51 a13f
000000b0: 8e14 ed3f 8e74 e83d 1626 97bf 8c16 2f3f
000000c0: 899f a6be d7f8 613f fe53 24bf d6d3 063f
000000d0: 713f 0f3f 0361 c6be f916 003e 8dc3 c8be
000000e0: c090 fa3d bb5c be3e 679f 87be 5f62 11c0
000000f0: 5a78 ccbf a1a8 963f e471 04bf dde1 203f
00000100: e465 973f 6db4 93bf 6132 cf3e c3ba e33d
00000110: 9012 17be c514 dbbd 89ed ca3a a043 94bf
00000120: 551d 9cbd 199b 9141 83e7 79be e5cf 10bf
00000130: ed65 7b3d be96 02be 8a46 abbf 59f9 42c1
00000140: d45a 91bc 366c 423f 1258 003e 5c94 143d
00000150: 587a c23c 3248 7bbe 4c3c 2d40 9d0e 76bf
00000160: 7db5 acbe d248 cac0 9e78 1fc1 f5c9 5941
00000170: 1258 713f 62e5 b5be e6bd 1e41 bb67 9cbf
00000180: 1a14 86be 8af3 54bf 7ceb cb3f f4e5 853f
00000190: 0730 00be ffb1 bc3e 6c5c 1340 3eb8 e8c0
000001a0: 4d1a 953e 4f26 cc3f 0d11 91c0 a416 30be
000001b0: d2f8 ffbe 1f98 73bf 7e19 bd3e 7e14 4940
000001c0: f9d3 5dbf 0439 2cc0 efde 6c40 29a9 013d
000001d0: 25e9 0040 badc 23be ff63 a5be cf9b b53f
000001e0: 69a6 6c40 3ada 96be 2478 6bbe ba03 ee3f
000001f0: adc8 f83c 9d5e 2ebe 0abf a63e 78b4 cbbe
00000200: 2f9c b840 96ab a6c0 bdfb 1740 d1b7 d2bf
00000210: 6216 e23e 39e9 7bbc 0dc6 073e 0d2b d13e
00000220: bdbf 4cbf ecf3 e8bc 677f f9be 1aff aa3f
00000230: 48a1 9c40 18f7 0a3f 8230 e1be 13a4 e03e
00000240: 9def cabd 0a24 b7bf bece cabd f403 63c0
00000250: c3ee f93d 3fa8 513f cd92 c1c0 a9bd 8dbf
00000260: 9c8e 00bf d3a1 e5bb f5d5 0cbe 3750 f3bd
00000270: 1622 ad3e e10a 983e adeb b3bd b861 abbd
00000280: 94a0 56bd 80b8 22be e1ff 733e df74 91be
00000290: 951e 08be 6e82 cbbd d38e 653e 84ae 953d
000002a0: e1d0 24bf c498 073c 10d2 6dbd ca5c e0bb
000002b0: 044a d03d 2ede 50bc 0f95 6cbc e318 1fbd
000002c0: dad2 fb3f 1f25 88c0 5f49 bbbd 76df dfbd
000002d0: d9e0 1fbd e3ab 00be e68e 13b9 6022 5ebe
000002e0: 5d96 6cc1 aa95 babb b372 5bbd 0066 f7c1
000002f0: d2b7 02bd 8b70 91bb 41f7 63bc 9508 7c3d
00000300: 2bbc eebd c59c 34bd 709a 6f3c a0d4 87bc
00000310: 49d2 a63c aef5 fe3c 2fcd e6bc af87 573d
00000320: fa21 b4bc 9285 c33c c704 e03b fb20 9b3f
00000330: b95a 38be 5529 28bc f4cd 943c 4c5f 05bd
00000340: ecb6 dabd f3f8 acbc a701 a3be b054 6cbc
00000350: e0e1 19be bbd9 13ba 3e1e c3bc 1175 aa3d
00000360: a981 a9be f59d 14bd 214a e63b dc23 6e3b
00000370: 9f77 41bb 3915 17be 841b 5e3b 27e0 c23e
00000380: 9a06 3a3d 8628 b6bc 9398 55bc a52c a6bd
00000390: 7309 203d cc23 00bd fa20 0740 c91d 373e
000003a0: 3b74 603d 0663 9ebb cadb 8dbd 3c68 eabc
000003b0: 90a7 e83c 603a 95bc a954 e83c 1967 febc
000003c0: b544 8e3c 2d00 b7bd 305a dc3c 254d 3f3e
000003d0: 8615 2fbd d184 163d 71c0 6e3c d5e7 37bf
000003e0: 179b 8ebd e291 cabc 912f b6c0 0d75 b7bb
000003f0: eb50 4a3e 2c54 913b 0abd 15bd 68c0 0bbe
0.02848781 -0.04957307 0.799652 -1.024263 -0.12909603 0.2457185 -0.059923638 0.539743
0.32006294 0.09599985 -5.396137 -2.1020694 0.24612994 -0.8115112 -0.24171793 -0.019299591
1.9026451 -2.212574 0.7615636 -0.33245897 13.292984 1.011728 -0.38131574 -1.4704227
0.6882977 -0.014166758 -0.016542569 -0.57355124 -6.9352517 -0.26977426 0.08901429 1.4342005
0.22744688 0.053270824 0.12136954 0.26600555 -0.38692975 0.027885465 0.17857951 -0.44977558
0.3916333 0.0014069871 -0.38331679 1.2603104 1.8521898 0.11350356 -1.1808498 0.6839378
-0.3254359 0.88270324 -0.6419066 0.52666986 0.5595618 -0.3874589 0.12508763 -0.39211693
0.1223464 0.37180123 -0.26488802 -2.271629 -1.5974228 1.1770211 -0.51736283 0.6284464
1.182797 -1.1539437 0.40468124 0.11119606 -0.14753175 -0.10697321 0.0015482168 -1.1583138
-0.07622782 18.200731 -0.24404721 -0.5656722 0.0613765 -0.12752816 -1.3380902 -12.185876
-0.017743506 0.75946367 0.12533596 0.0362743 0.023739979 -0.24539259 2.7068052 -0.9611605
-0.33732215 -6.321389 -9.966948 13.611806 0.9427501 -0.35526568 9.921362 -1.2219156
-0.2618721 -0.8318411 1.5931239 1.0460801 -0.12518321 0.3685455 2.302516 -7.2724905
0.29121628 1.5949191 -4.5333314 -0.17196137 -0.49994522 -0.95153993 0.36933511 3.1418757
-0.8665157 -2.69098 3.7011068 0.031655464 2.01423 -0.16002169 -0.32302853 1.4188174
3.6976569 -0.2946337 -0.22995049 1.8594887 0.030369127 -0.1702828 0.32567626 -0.39786124
5.7690654 -5.2084455 2.37474 -1.6462346 0.44157702 -0.015375429 0.13259144 0.40853158
-0.7998007 -0.028436624 -0.48730013 1.3359101 4.8946877 0.54283285 -0.4398232 0.4387518
-0.09908984 -1.4307873 -0.09902714 -3.5471163 0.12203743 0.8189735 -6.04917 -1.1073505
-0.50217605 -0.0070078163 -0.13753493 -0.11880534 0.33815068 0.296958 -0.08785186 -0.08368248
-0.052399233 -0.15890694 0.23828079 -0.28409478 -0.13292916 -0.09936987 0.22417764 0.07308677
-0.64381224 0.008276168 -0.05806166 -0.006846999 0.10170367 -0.012748284 -0.014439835 -0.038842093
1.9673722 -4.2545314 -0.09144854 -0.10931294 -0.03903279 -0.1256557 -0.00014072246 -0.216928
-14.78671 -0.005694111 -0.053576183 -30.924805 -0.031913586 -0.004438465 -0.01391393 0.061531622
-0.11656984 -0.04409482 0.014624223 -0.01658088 0.020363944 0.031123009 -0.028174011 0.052619632
-0.021988858 0.023867402 0.006836507 1.211944 -0.18003358 -0.010263761 0.018164612 -0.032561585
-0.10679421 -0.021114802 -0.31837198 -0.014424488 -0.1502757 -0.00056400493 -0.023818132 0.0832311
-0.33106735 -0.036283452 0.00702788 0.0036337292 -0.0029520763 -0.1475419 0.0033890912 0.3806164
0.045416452 -0.02223612 -0.013036865 -0.08113984 0.03907151 -0.03128414 2.1113877 0.17882456
0.054798346 -0.004833582 -0.06926687 -0.028614156 0.028400213 -0.018216312 0.028360682 -0.03105502
0.017366746 -0.089355804 0.026898474 0.18681772 -0.042745136 0.036747757 0.014572249 -0.7183812
-0.06963175 -0.024727765 -5.6933064 -0.0055986703 0.1975743 0.004435083 -0.036557235 -0.13647616

linear_sigmoid_stack.4.bias f4 [80]
00000000: 6cab 03bf 57d4 72bf beda 4abd 2641 103f
00000010: 1b56 a03f 5a25 25bf fe08 7bbd ac8d b1be
00000020: 1d6e c3be 9482 25be 7e32 043e 36a9 a1be
00000030: 7fc3 dbbd dcd2 46bf d2ec 31be db28 d23e
00000040: 916a 77bf eeef 23bf 82d7 52bf 10cc da3e
00000050: 91df 1fbe ca8c 0fbe 4ac5 a53d 62c6 2c3e
00000060: 395d f63e b3f8 9cbb f7bc 8dbf 4cd1 83be
00000070: 416e 48bf d1dc efbe cb55 76bd 23f1 a6be
00000080: 52a0 bdbd 6256 d83d 7043 a6bd a609 39bf
00000090: d436 02bf 9e18 52be 3e3f 87bf b40d 16be
000000a0: c847 0bbf 202f 18bf 143b 9c3e 0ab1 b4be
000000b0: 2769 cd3d 0508 84be f362 24be dd0e 86be
000000c0: 8f59 c4be cbfd 35bf fb4f 82bf 838a 9dbf
000000d0: 580d 7bbd f4ab 84bf 3688 01bf 0eb7 043f
000000e0: e7f9 e53d c78d f039 e10d 273f 3ff0 0fbf
000000f0: e741 a1be 3299 d9be 3ebe 90be bb8b eebd
00000100: 341e 19bf 41e4 103e 1ad2 973c b354 5d3d
00000110: f5b9 c0be 8bf3 0fbf 46b2 c4be b557 b1be
00000120: 0a4e 59be 578c 20be 00ec 2cbf f106 ec3d
00000130: f8ae 31be 9b91 e63e a51a 06bf 88b9 dc3e
-0.51433444 -0.94855255 -0.049525015 0.5634941 1.2526277 -0.6451012 -0.061287872 -0.346784
-0.38169947 -0.16163093 0.12909886 -0.3157441 -0.10730647 -0.77665496 -0.17375496 0.41046795
-0.9664698 -0.6403798 -0.8236009 0.42733812 -0.15612628 -0.1401855 0.080942705 0.16872552
0.48117998 -0.0047903894 -1.1073292 -0.25745618 -0.78293234 -0.46848157 -0.060140412 -0.32605848
-0.09259094 0.10563351 -0.081183314 -0.7228035 -0.5086491 -0.20517203 -1.0566175 -0.14653665
-0.54406404 -0.5944691 0.30513823 -0.3529132 0.10029822 -0.25787368 -0.16053371 -0.26183215
-0.38349578 -0.7109038 -1.0180658 -1.2307895 -0.061292022 -1.0364976 -0.50598466 0.5184182
0.11229306 0.00045882 0.6525555 -0.5622596 -0.31495592 -0.4249969 -0.28270143 -0.11647745
-0.5981171 0.14149572 0.018532801 0.054035854 -0.37641874 -0.5623099 -0.38417262 -0.34637228
-0.21221176 -0.15678535 -0.6754761 0.115247615 -0.17351902 0.45032963 -0.52384406 0.431103

linear_sigmoid_stack.6.weight f4 [60, 80]
00000000: f03a 08bd 10e7 c03d ea3b f2bd 78dc 5cbf
00000010: e21f 293e 3cfe 60bf 9d44 be3f cbde 2bbf
00000020: 0ad2 dbbe 148f 08c0 820a 013d 83c9 e5bf
00000030: 9a8c 663c 05b4 d2bd f960 b13f 8c0e 05bf
00000040: c688 0d3d f94c 0fbe 1686 d6bd 7bc7 ebbe
00000050: 5276 003b 94bf 33bd b7ad 91be 981a c43c
00000060: 0b14 93be 870e eb3c 2894 bd3d b5eb 1cbe
00000070: f551 703e 654f e2bc 38c3 a7bc b2cb 1bc0
00000080: 51c7 36bf 2abe cfbb 2fe3 903d ac89 f83e
00000090: dc4f 873e 6ada efbb e308 0abd 0c4e a9bd
000000a0: 06f7 3abd 67c4 823e 0bae 293f cfaf 14c0
000000b0: 9dac 493e c7d3 3abe 1119 a63b d10f c8bd
000000c0: 5f18 6bbe f8e8 a63d a4c7 f9bd 1781 9f3d
000000d0: ee9e dcbc d348 30b9 ebad 69be 55cd a6be
000000e0: 2dbd af3d efbe 65bd 1144 1cbf 1fd7 96bc
000000f0: 0378 5a3e 015c 24bf 730a 243c f594 ccbe
00000100: f2f0 8a3d 8bb6 383f 637a 86bd e316 773c
00000110: bf0b 16be 83fe 7bbf 72c7 ce3c 8ec6 21bb
00000120: d267 553f cf5d 6fbf ef86 aabd aded fbbe
00000130: 1f79 da3e b050 b9bc 08ad aa3d a074 b73c
00000140: 65fa dcba a895 4dbd f2dd 003c af64 83bb
00000150: 3d70 1cbb a31b 65bb ffeb 57bc 96bb d13d
00000160: 89f9 693a 749a fcba 60e4 b73c 19dd 55bc
00000170: 77b1 153b b88a 22bc bd02 d8be 4c45 9cbe
00000180: b878 0e3e 9be1 8c3b e3cf 00bf 7453 15bd
00000190: 818a e7bc eb8a 1bbd fbd0 ecbb 663c ee3d
000001a0: c7e4 bfbd ecfc 65bd f2e1 2bbc 7de0 253e
000001b0: 66ba 5abb 3d2a 0abb ce06 683d 6b2d b1bc
000001c0: a468 45bd db4e 2dc1 e735 81ba a262 d13b
000001d0: bb65 3dbd aa49 183c 5ee2 8d3b a86e 38bb
000001e0: 84d2 b73d 73fd 073c c8ac 8fbb 7a98 47bb
000001f0: 2f76 50bb 586d 81c0 c9b3 c13b 9a89 803a
00000200: d043 0e3a 52de 51bd 1262 0a3c 11c6 e7bc
00000210: d546 ac3b ba88 a7bb 3f2b 723f e1a6 d8bd
00000220: e5c7 07bd 269d 183b 59cd c0be bcbb 4ebb
00000230: 7d85 993b 1178 39c0 08ee 193c 215c a73b
00000240: 604c 55ba 2c2a aabe 2e0f 06bb 6c97 d9bf
00000250: 8a15 a2be 7367 bf3a 3345 ab3c 4751 0bbf
00000260: 20a4 4abc 2749 e73c 5484 10bc 3282 2d3c
00000270: 677f 21bc 2908 06ba d374 67bd 91e9 53bd
00000280: 560e 8c3c 17f5 983e 528c 28be 55ae 99bc
00000290: d184 87bc fd19 90bd 3039 9c3f d724 57bf
000002a0: 1726 5fbe 3c76 013e 1e4d 5d3e 043e 703e
000002b0: 528f f53a 02df 07bc 89a8 a83f f98b 1bbf
000002c0: d03c 7fc0 9d8d 4fbc b7a0 35c0 13f6 ddbe
000002d0: 9395 483d b94e c5be c859 043c ab30 bd3f
000002e0: 640c c1be 2c57 dabf 1e1c c13c b64b e63f
000002f0: a39a 173d 6f5e 2dc0 ee70 02be 2dbf a53e
00000300: 8c10 fc3e be7a b5be 06de 353c ed11 e83c
00000310: a353 63be b43d 4abd d9d0 0cbd fe0f e1bc
00000320: bc4e 603f 1f08 b73d 5abb 943c 19a4 f3bc
00000330: e82e e93c 35d7 9440 085e 5e3c 3b19 2f3d
00000340: 8f03 b93c 5409 d8be 8ff8 adbc c024 12be
00000350: ab2c c3bc 87a0 72bd 3421 3f40 0281 11bf
00000360: 6faa 5dbf 56f5 4d39 4dac 34bf c69b 883c
00000370: 46fd b23a 8b64 55c1 ebe5 003e 9337 eebd
00000380: 9115 bf3d 8d70 c23f cf2f 133d a2be 02bf
00000390: 597e c4be 4f26 113e 3944 8fbd e044 31bf
000003a0: bb85 243d 1019 cbc0 2233 07be 66de 9c3b
000003b0: 0dda ba3b 99a9 043d c1f0 353e 8672 06bf
000003c0: 69ab 093f e12a c0bf 127a cebe 6c4b 9b3d
000003d0: fe31 8f3b 83f1 1b3d 3d8c 25c0 e1ff 48be
000003e0: 8c12 8abf 9b5f c0be 37d9 8f3d ed29 5f3d
000003f0: e2b8 3dbe e18f 273f b4c9 35bf 3831 3dbf
-0.033259332 0.09419072 -0.11827834 -0.8627391 0.16516069 -0.8788793 1.4864689 -0.6713683
-0.42933685 -2.1337328 0.03150416 -1.7952121 0.014071608 -0.10288242 1.3857719 -0.5197532
0.034554265 -0.13994206 -0.104747936 -0.4605063 0.0019601774 -0.043883875 -0.28452846 0.023938462
-0.2872623 0.02869345 0.09256774 -0.1532429 0.23468764 -0.027625749 -0.02047883 -2.4343076
-0.7139788 -0.006339808 0.07074582 0.48542535 0.26428115 -0.007319738 -0.03369988 -0.082668394
-0.045645736 0.25540468 0.66281193 -2.3232305 0.19694753 -0.18244849 0.005068906 -0.09768642
-0.22958516 0.08149904 -0.121962816 0.07788294 -0.026931252 -0.00016811797 -0.2282025 -0.3257853
0.08581004 -0.05609029 -0.6104136 -0.018413125 0.21334843 -0.64202887 0.010012257 -0.39957395
0.06784238 0.7215354 -0.06566312 0.01508114 -0.14652918 -0.9843523 0.025241587 -0.0024684998
0.8336154 -0.93502516 -0.08326518 -0.4920477 0.42670533 -0.022621483 0.08333784 0.022394478
-0.0016859291 -0.05019155 0.007865416 -0.004009805 -0.002387061 -0.00349591 -0.013178824 0.10240857
0.0008925428 -0.0019272105 0.022447765 -0.013053202 0.0022841373 -0.009920768 -0.4218959 -0.3052162
0.13913238 0.004299355 -0.5031721 -0.03645654 -0.028264286 -0.03797428 -0.007227061 0.11632614
-0.09369808 -0.05614941 -0.010490881 0.16198917 -0.0033375262 -0.0021082305 0.056647114 -0.021628102
-0.048195496 -10.831752 -0.0009857983 0.006389932 -0.046239596 0.009294907 0.0043299636 -0.0028142128
0.089756995 0.008300173 -0.004384611 -0.0030455873 -0.0031808724 -4.0445976 0.0059113246 0.0009806633
0.0005426975 -0.05123741 0.008446233 -0.028292688 0.0052574673 -0.0051127346 0.9459724 -0.105787046
-0.03314962 0.0023287027 -0.37656668 -0.0031545004 0.0046851025 -2.8979533 0.00939513 0.005107418
-0.0008136686 -0.332353 -0.0020455825 -1.6999335 -0.31657058 0.0014602974 0.02090702 -0.54420894
-0.012368232 0.028233124 -0.008820612 0.010590123 -0.009857035 -0.00051129103 -0.056507897 -0.05173642
0.01709668 0.2987449 -0.16459778 -0.018759886 -0.016542824 -0.07036207 1.2204952 -0.8404059
-0.21791874 0.12642759 0.21611449 0.23461157 0.0018734729 -0.008292915 1.3176433 -0.60760456
-3.9880867 -0.012668041 -2.8379343 -0.43351802 0.04897077 -0.38536623 0.008078046 1.4780477
-0.37704766 -1.7057853 0.023572978 1.7991855 0.037012707 -2.7088888 -0.12738392 0.32372418
0.49231374 -0.35445207 0.011100298 0.02832886 -0.22199874 -0.04937525 -0.03437886 -0.027473446
0.8762014 0.08937096 0.018155742 -0.029741334 0.02846475 4.6512704 0.0135722235 0.04274867
0.022584705 -0.42194617 -0.021236686 -0.14271832 -0.02382501 -0.059235122 2.9864016 -0.56837475
-0.86588186 0.00019641718 -0.7057541 0.016675841 0.0013655804 -13.337047 0.12587707 -0.11631694
0.09330285 1.5190598 0.035934266 -0.5107213 -0.38377646 0.1417477 -0.06995434 -0.6924572
0.040166598 -6.3468094 -0.132031 0.004787254 0.005702263 0.032388303 0.17767622 -0.525185
0.53777176 -1.5013086 -0.40327507 0.07582745 0.004369973 0.03807212 -2.5866845 -0.1962886
-1.078691 -0.3757294 0.07023852 0.054483343 -0.18527558 0.65453917 -0.710109 -0.73903227

linear_sigmoid_stack.6.bias f4 [60]
00000000: 55a1 babe d123 08be 64d1 40bf 477a 31bf
00000010: a5da 28bf 56b9 1abf e449 8e3d df45 1abf
00000020: 8efd 6fbd 633f 03bf 1f0d 05bf 8130 21bf
00000030: 2998 fcbe d84f e6be 2d9a 5bbf b6f4 5ebf
00000040: 76eb c4be 6ebe 4ebf e929 e6be 91b4 9abd
00000050: a784 24bf 6858 f3be 7677 69bf 9f5a 1abf
00000060: 5ae5 8cbe 9005 59bf 76e4 ecbe dce0 10bf
00000070: 75ff 14bf 29ac 14bf 17cc 46bf 9c5e d6be
00000080: ddc1 2dbf 721a b7be 42c1 d5be 8472 00bf
00000090: f615 4ebf 9bdf 18bf 84fb 55bf 993e 97be
000000a0: e69e 1bbf fc64 e0be 38dd 44bf 9a07 2dbf
000000b0: 8259 d8be add4 8bbf 5db6 54bf 647f 7fbe
000000c0: 3f4f 07bf a8be 12bf 3f8b 0dbe 524b 4cbf
000000d0: a24e 63bf f111 2bbf cd1b cfbe 0f85 f2be
000000e0: a54c 69bf 9eb2 53bf 69d3 9cbe 9e36 47bf
-0.36451212 -0.13294913 -0.75319505 -0.69327205 -0.65958625 -0.6043905 0.06947687 -0.60262865
-0.058591418 -0.51268595 -0.51973146 -0.62964636 -0.4933484 -0.4498279 -0.8578213 -0.8709215
-0.38460892 -0.8075932 -0.4495385 -0.075539716 -0.6426491 -0.47528386 -0.9119791 -0.60294527
-0.2751873 -0.8477411 -0.46268052 -0.5659311 -0.58202296 -0.58075196 -0.77655166 -0.41869056
-0.67873937 -0.35762364 -0.41749007 -0.50174737 -0.8050226 -0.59716195 -0.8358691 -0.29539946
-0.60789335 -0.43827045 -0.76900053 -0.67589724 -0.4225579 -1.0924278 -0.83090764 -0.2495094
-0.52855295 -0.5732217 -0.1382265 -0.7980243 -0.8879186 -0.6682425 -0.40450898 -0.4736714
-0.91132575 -0.82694423 -0.30630043 -0.77817714

outputlayer.weight f4 [20, 120]
00000000: b3b8 fbbd 469f 8c39 0267 e4bc f5dc e93e
00000010: 416b 6f3c fa42 503e 6f42 2e3b 9825 a33f
00000020: 23d8 2bbc 0182 4c3e d2f6 44bf f99e fdbc
00000030: b1ea 50be d57f ed3c 40e5 42be e0cf 92bc
00000040: ab66 f93d 8107 45bd 3796 673b 3686 193e
00000050: 0113 c63f c053 cdbd 14d7 c33d 4ac0 aa3d
00000060: 2ea6 4c3d da4f 87bd f0eb 19bd b24a 653d
00000070: 29c4 05be 4725 0cbd 94d3 8ebe 3d02 01bd
00000080: d953 2cbd 69c7 b9bf aa83 053d 23c6 91bf
00000090: 93b8 2abc c00e 273e e9c9 04bc bb32 51be
000000a0: 20c6 b63c cfc9 2e3d 60b5 40be fb6d 483d
000000b0: 3dc7 e9be 43fb 5cbd d4b0 07bd 07c5 773f
000000c0: 6c8a a5bd 8286 093e 266d 6a3f 1077 55bd
000000d0: 4858 b9bc 1cab 0e3d 6ff4 bf3e 63bc 803c
000000e0: 909a 12bd 139c fcbb e0c4 713d 1617 08bd
000000f0: 53b9 7fbd 48cd 903c fba9 07bf dd09 51be
00000100: 28e7 c83d 620d 7a3c af3d 5b3d fecb 453d
00000110: b631 173d 1bda 773d 8f24 8d3d 8ece 083b
00000120: 2cea 2abd 25d9 47bc 2cef 52bd 14bb 4bbd
00000130: 5fba 08be 7322 eb3f ce1a 63bc 77d0 5cbd
00000140: f058 2f3d 2988 593d 57b8 98be 28f4 2b3d
00000150: 8f9c c6bc 36cc 0abe e327 f2bd 6fe8 863c
00000160: 4070 f6bd c7e7 77bd 883e 803d 1744 a33d
00000170: 7d24 66bc 7ec4 a43e 283c 45bf bd71 843c
00000180: 8549 b93b eb2e 98be 7d71 7b3e e946 50bd
00000190: 7ce4 d63d abc4 13be 01e1 06bf bf43 f4bb
000001a0: 00c3 dabb b4f0 88be 8066 dd3c 66cc f83c
000001b0: 72ad 8a3d 5209 98bd 4f22 543c e6a3 9b3d
000001c0: a593 f8bd d087 00bd 9b68 5eba a125 5cbb
000001d0: bcd5 76bd c188 543c 0b48 983d a77d 753d
000001e0: b90c bfbf aeda 3abb 898d 633d bd89 ea3c
000001f0: 7d2e ad3d 2d9f 04bd a674 64bd 7e76 04bf
00000200: 80b3 423f 6769 21bd 162c 0a3e f14d 6f3c
00000210: c2bf 18be 5daa dc3b f2e1 93be 6be6 8d3d
00000220: db1c 2f3c 2f74 523c d2c1 9f3a 0583 353d
00000230: eab9 a4bd b27a 853c 8b5c ea3b f5af 27bd
00000240: 4951 8f3d b2f9 0cbd 7edd 49bf 56d6 053d
00000250: 0fd0 26be 3917 93bf 03fd 3bbd ba4a 82bc
00000260: d9fa 013f f8fc 42bc d8fb 7c3d d2e7 b93b
00000270: 6a8d 833d 8f81 36bc e437 d03c 9101 d2bd
00000280: 0ac8 33be 09f2 103d 0a92 32be 2905 7d3d
00000290: c3b9 2ebd e14d f5bd b491 c03b 5467 983c
000002a0: 807d a0bc a583 4bbe e87c 003e d387 853c
000002b0: ed47 733d eeee f83a ca00 ea3e 54c6 8a3d
000002c0: fdda 10bb 6d18 bebc f9d9 19bd f658 0e3d
000002d0: 5e25 1f3d ff5c 6dbd 1a1d bbbe 6d1c 87bd
000002e0: 1076 cdbc 0cfd 113d 4ecc a1bd d872 013d
000002f0: 2750 babc a49e ce3c 00cb 493b 05e7 913c
00000300: fa6f 0d3c 3fda 1abb 5784 0f3c d1e1 193d
00000310: 7a9e cdbd d939 d33c e665 ccba 1546 533b
00000320: bfc7 01bd f918 193c e8e8 e73c 1fd4 173d
00000330: 9054 9a3c 15b9 94bc 4760 d13c 38b7 8dba
00000340: 6dca b33c df83 8b3c 2211 90bd 4f59 17bd
00000350: 1795 71bc fe92 1f3c a33c c6bc b5b0 c2bb
00000360: 4793 ddbc 42c1 9d3b bf9a 70bc de57 933c
00000370: 76b2 e13c ee93 493d 269f bebc 2bf9 ec3c
00000380: 3815 773c ddcd ffbc b327 ecbb 014c 013c
00000390: eaf7 7139 1556 2ebc 7b13 683d 32fb f4bb
000003a0: b801 7e3c 74ed 29bd 42b5 f7bc 969e e6ba
000003b0: 30b6 893c 5549 573c 6eb1 98bd 1270 67bd
000003c0: 549a d6bb e2ad 1cb9 dfd4 583a 4495 f43a
000003d0: f802 88bc 14a3 82bb 503a 9fbb b361 603c
000003e0: f9d7 0e3b 45c3 893c 223a 4dbb 291a 0b3d
000003f0: f246 ac3e 2f70 8fbd 3465 aabb 22f1 823d
-0.12291088 0.0002682155 -0.02788115 0.4567639 0.014612974 0.2033805 0.002658989 1.2745848
-0.010488543 0.19971468 -0.7693912 -0.030959593 -0.20402028 0.02899162 -0.19032764 -0.017921388
0.121777855 -0.04810286 0.0035337338 0.14992604 1.547455 -0.1002574 0.09562507 0.083374575
0.04996317 -0.06607027 -0.037578523 0.055979438 -0.1306311 -0.034215238 -0.27895796 -0.031496275
-0.04207215 -1.451398 0.032596268 -1.1388592 -0.0104199825 0.1631422 -0.00810478 -0.20429508
0.02231127 0.04267293 -0.18819189 0.04893301 -0.4565982 -0.05395056 -0.03312762 0.96785015
-0.080830425 0.13430217 0.915728 -0.0521155 -0.022625104 0.03483115 0.37491176 0.01571483
-0.035791934 -0.007709035 0.059025645 -0.03322514 -0.0624326 0.01767601 -0.52993745 -0.20413919
0.098097146 0.01526198 0.053525623 0.048290245 0.036912642 0.060510736 0.068917386 0.002087507
-0.04172723 -0.012197767 -0.051497623 -0.04973896 -0.13352345 1.8369888 -0.013861371 -0.053909745
0.042809427 0.053108368 -0.2982814 0.041980892 -0.024244575 -0.13554463 -0.11824014 0.016468255
-0.12033129 -0.060523774 0.06261927 0.079719715 -0.014046785 0.32181162 -0.77044916 0.016167516
0.005654516 -0.29723296 0.24555011 -0.050848875 0.10492799 -0.14430492 -0.5268708 -0.007454365
-0.006676078 -0.26746142 0.027026415 0.030370902 0.06771363 -0.07423653 0.012947633 0.075996205
-0.12137536 -0.03137952 -0.00084842154 -0.0033591765 -0.060262427 0.012972058 0.07435616 0.059934285
-1.4925758 -0.002851169 0.0555549 0.028630132 0.084561326 -0.032378364 -0.055775307 -0.51743305
0.76055145 -0.03940716 0.1349338 0.014605985 -0.149169 0.006734176 -0.2888332 0.06928714
0.010688032 0.012845083 0.00121885 0.044314403 -0.08043273 0.016293857 0.0071521453 -0.04093929
0.06997926 -0.034417816 -0.78853595 0.03267511 -0.16290306 -1.1491462 -0.045895588 -0.015904773
0.5077339 -0.011901133 0.061763614 0.005673387 0.06423457 -0.011139288 0.025417276 -0.10254205
-0.17556778 0.035387073 -0.17438522 0.0617725 -0.042657625 -0.11977745 0.005876744 0.018603958
-0.019591093 -0.19874437 0.12547648 0.016300118 0.059394766 0.0018992105 0.45703727 0.06776109
-0.0022103183 -0.023205006 -0.03756139 0.03475281 0.038853996 -0.057950016 -0.3654564 -0.06597219
-0.02508071 0.035641715 -0.07900296 0.031603664 -0.022743298 0.02522213 0.0030791163 0.017810354
0.008632654 -0.002362862 0.00875958 0.03756887 -0.10039993 0.02578442 -0.0015594333 0.0032237817
-0.031684633 0.009344333 0.0283093 0.03706753 0.01883915 -0.01815466 0.025558604 -0.001081205
0.02194711 0.017030654 -0.07034518 -0.036950406 -0.014745018 0.0097396355 -0.024198836 -0.0059414753
-0.027047766 0.004814298 -0.014685332 0.017986234 0.027550917 0.049213342 -0.023269247 0.028927406
0.015080743 -0.031226093 -0.007206881 0.007891656 0.00023075906 -0.010640641 0.056659203 -0.007476234
0.0155033395 -0.04148622 -0.030237798 -0.001759487 0.016810507 0.013140042 -0.07455717 -0.056503363
-0.006549159 -0.00014942096 0.00082714664 0.0018660207 -0.016602978 -0.0039867256 -0.0048592463 0.013695168
0.002179621 0.016816745 -0.0031315167 0.033960495 0.33647877 -0.07003819 -0.0052000526 0.06393649

outputlayer.bias f4 [20]
00000000: 1a18 d63e b935 f13e 45d3 183e 58f2 bc3e
00000010: 2d88 733e b2a2 cb3e ea5f 053f 1417 1d3f
00000020: bbfe 293e 1a0b dc3e 0771 b73e a1d3 ee3e
00000030: ed10 173f e975 153f a3de e33e 4239 fa3e
00000040: 8ced fd3e 0e15 fb3e 5fb4 f33e 6a25 003f
0.41815263 0.471113 0.14924343 0.36903644 0.23782416 0.39772564 0.5209948 0.6136334
0.16601078 0.4297722 0.3582842 0.46645835 0.590102 0.5838304 0.44505796 0.4887181
0.49595296 0.490395 0.4759855 0.5005709
