Training_Nets_Python/models/pytorch/MATLAB_net_4p_SD.pt (torch_old, 587776 bytes, 14 tensors)

c1.weight f4 [2, 1, 32]
000000 9b 89 e8 3f 2a a9 0f 3f 17 62 44 bf 54 29 64 bf
       1.8166994 0.561175 -0.76712173 -0.8912556
000010 ab 9f f9 be 42 2e f3 3d db 7e d6 bc 70 93 3d bd
       -0.4875463 0.11874057 -0.026183536 -0.046283185
000020 01 26 87 bd 4f 46 8a bd 18 f1 98 bd 66 bc 96 bd
       -0.065990455 -0.067516916 -0.0746786 -0.07360153
000030 92 51 a5 bd b6 67 a2 bd 2c 94 a4 bd 2d 30 b0 bd
       -0.08072199 -0.079299375 -0.08036074 -0.08602939
000040 fe f2 b1 bd 9c 87 bd bd 20 2e bd bd 58 5d aa bd
       -0.08688925 -0.09254381 -0.09237313 -0.08318585
000050 f2 0d ac bd 5a 72 9b bd 4a 90 46 bd f5 03 12 bd
       -0.08401097 -0.0759017 -0.04847745 -0.035648305
000060 aa 87 1e bd 47 91 e5 bc 32 77 04 bd 4a 0c c0 bc
       -0.038703598 -0.028023375 -0.032340236 -0.02344336
000070 1b 58 99 bc 5e 81 38 3d 2e f5 64 bd 91 b9 8a be
       -0.01871877 0.04504525 -0.055897884 -0.270947
000080 94 ee ab 40 03 cd e6 bf 2f f7 57 c0 44 a3 85 bf
       5.3728733 -1.8031315 -3.374462 -1.044045
000090 0d ab 4d bf a2 c5 98 bf 2d 02 a1 bf e9 70 ad bf
       -0.8033913 -1.1935313 -1.2578789 -1.3550082
0000a0 ba 5b b9 bf ed 67 b9 bf 69 d9 b7 bf 04 f9 b6 bf
       -1.4481118 -1.4484841 -1.4363223 -1.4294744
0000b0 c5 e5 ae bf f3 f8 9f bf 31 c1 7e bf d0 2e 6c bf
       -1.366387 -1.2497848 -0.99513537 -0.9225893
0000c0 0b 8b c3 be 86 b8 bc be 72 c2 23 bd 21 21 97 be
       -0.3819202 -0.3685953 -0.03998036 -0.29517463
0000d0 0c 17 21 3e 45 96 6a be 14 f5 e3 be 39 60 5c bc
       0.15731448 -0.22908886 -0.44522917 -0.013450676
0000e0 a7 84 45 be 93 8b 21 bc c1 c0 ed be ba ba d9 bd
       -0.19288884 -0.009859937 -0.46436122 -0.106313184
0000f0 26 38 40 be 7f 31 19 3e 83 38 9b 3f 26 ef 98 c0
       -0.18771419 0.14960288 1.2126621 -4.779193

c1.bias f4 [2]
000000 1d 7a f8 be f9 b1 40 bf
       -0.48530665 -0.75271565

c2.weight f4 [2, 2, 16]
000000 36 a7 42 c0 e9 b5 36 c0 a2 94 13 c0 5f ab e5 bf
       -3.0414557 -2.854853 -2.3059468 -1.7942923
000010 02 0b fc bf 58 1d f9 bf ed fc b0 bf 01 55 14 bf
       -1.9690859 -1.946208 -1.3827187 -0.57942206
000020 5b d4 99 3e 93 7d f9 3f f6 b1 48 40 e7 15 03 40
       0.30044827 1.9491447 3.1358619 2.0482118
000030 dc 61 ac 3f 7b e2 45 3f 17 ff 91 3e 12 b4 0f bf
       1.3467364 0.77298707 0.2851493 -0.5613414
000040 83 ef 88 40 67 77 c5 3f 38 c1 a9 bf 48 df 6b c0
       4.2792373 1.5427064 -1.3262091 -3.685503
000050 46 ba a3 c0 6c 6c bb c0 8b 6e 9f c0 77 2d 30 c0
       -5.1164885 -5.856985 -4.982244 -2.752775
000060 7a bb 16 bf 7c c6 98 3f d1 12 87 40 a7 79 2c 40
       -0.58879817 1.1935573 4.221047 2.694925
000070 da 10 07 40 0d 53 bb 3f d5 10 d1 bd df 22 88 bf
       2.1104035 1.463472 -0.102082886 -1.0635642
000080 19 ec 2a bf ca 51 dc be 85 be 05 bf e6 fd 5c bf
       -0.66766506 -0.4303115 -0.52243835 -0.8632492
000090 4f db 71 bf e9 86 00 bf 12 d7 24 bf 8b f9 c6 be
       -0.94475263 -0.50205857 -0.6439067 -0.3886226
0000a0 8c 71 1c be 4a 70 30 bd 4a 66 bd 3e a8 de 4c 3f
       -0.1527769 -0.043075837 0.36992103 0.80027246
0000b0 40 1e b6 3f ea 9f 07 40 5f c6 3b 40 b3 00 63 40
       1.4227982 2.1191354 2.9339826 3.5469177
0000c0 90 ba a9 3f 3b 22 10 3f 2c c1 91 3e 43 90 f5 be
       1.3260059 0.5630223 0.2846769 -0.47961625
0000d0 1d dc ed bf aa f0 c6 bf 3c ef b5 bf af b3 c9 bf
       -1.8582798 -1.5542195 -1.4213634 -1.575796
0000e0 07 db c1 bf 82 7f 8e bf 32 26 57 bf 8b 27 84 bd
       -1.5144967 -1.1132662 -0.84042656 -0.06452855
0000f0 57 74 92 3f 0a 25 23 40 b6 be 7d 40 ef 1d 48 40
       1.1441754 2.5491357 3.964765 3.126827

c2.bias f4 [2]
000000 20 ec 47 3e 7b ec f9 bf
       0.19523668 -1.9525293

linear_sigmoid_stack.0.weight f4 [320, 234]
000000 cc d8 d6 3e f8 54 8c be 67 71 12 3f e0 ce 2c 3f
       0.41962278 -0.27408576 0.5720429 0.67503166
000010 c7 25 b7 3e 5b 00 02 be 0f ca da bd 50 3f 2f be
       0.3577101 -0.12695448 -0.10683071 -0.17113996
000020 7b 8e 5c bd a4 a0 1d 3e 57 11 d1 3d 0b 69 b5 3e
       -0.053846817 0.15393311 0.102083854 0.35431704
000030 17 74 8d 3d 70 81 08 bc 37 c9 08 be c7 00 39 be
       0.06906908 -0.008331642 -0.13358007 -0.18066703
000040 8d dd c9 bd e1 9c 82 3e 99 e2 f1 3e 3f b7 4e be
       -0.098567106 0.25510314 0.47243193 -0.2018709
000050 f9 87 eb 3e 1b c8 01 3f b7 17 04 3f dc 4b b8 3e
       0.46002176 0.5069596 0.51598686 0.35995376
000060 f4 be bc 3e 41 3e 7d 3e e5 fa 23 3f 89 a4 25 3f
       0.36864436 0.24730779 0.6405471 0.64704186
000070 37 b9 9e 3e e0 fe e6 be 01 2c 8e be b3 16 b4 3e
       0.31000683 -0.4511633 -0.27767947 0.35173568
000080 ad 7c 77 3f 6f 37 a2 3f ba f5 a9 3f 8f 35 a3 3f
       0.96674615 1.2673167 1.3278115 1.275072
000090 1e 56 6b 3f 38 2f 14 3f 6e 2b 6c 3f 9f 58 b3 3f
       0.9192828 0.5788455 0.9225377 1.401142
0000a0 01 a0 42 3f 14 02 35 bf d8 9a b0 c0 6f b4 13 c1
       0.76025397 -0.70706296 -5.518902 -9.231551
0000b0 46 de 29 c1 97 3a 1d c1 38 56 c1 c0 de b9 37 bf
       -10.616766 -9.826804 -6.0417747 -0.71767986
0000c0 07 57 0c 40 1f a5 12 40 b4 b6 d2 3f af 46 85 3f
       2.1928117 2.2913282 1.6462007 1.0412196
0000d0 cf c9 12 3f ef ea 1b 3f 9b 52 d3 3f 26 e3 00 40
       0.57339185 0.60905355 1.6509584 2.013864
0000e0 df 7a 8c 3f 11 c0 29 3f fe 6a 07 3f c3 43 90 3e
       1.0974997 0.66308695 0.5289763 0.28176698
0000f0 39 3c f3 3e 21 97 43 3e 93 4f d4 3e a3 98 bf 3d
       0.47506884 0.1910062 0.4146696 0.09355285
000100 4d e5 28 be f6 83 00 bf 1c 97 23 3e a1 7e 05 3f
       -0.16493721 -0.50201356 0.15975612 0.52146345
000110 33 48 41 3f 22 dd 1d 3f 5d 23 86 3c 0e 97 2a bf
       0.7550079 0.61665547 0.016374284 -0.6663674
000120 ae f5 4d bf 0a ca 8f be 79 ed 78 3e 47 b0 83 3e
       -0.80453 -0.2808383 0.24309339 0.25720426
000130 ed 5a 39 3d 5f 1d a4 3e 70 c7 df 3d 99 3b ce 3e
       0.04525273 0.32053658 0.109267116 0.40279844
000140 8a f4 9a 3e 64 34 5a be 62 63 54 be 4b 8b dc be
       0.30264693 -0.21309048 -0.20741037 -0.43075022
000150 4e d4 14 3e 3b 9e 90 3c 50 9e a6 3d 47 ef 9a 3d
       0.14534113 0.017653575 0.081356645 0.0756517
000160 12 5f 3d bd dc e6 08 bd d8 2e c4 3d 15 a7 86 bd
       -0.046233244 -0.03342329 0.09579247 -0.06574837
000170 09 3f 78 3e c2 10 6e be 93 dc 46 be ec 76 98 bc
       0.24242796 -0.2324858 -0.1942008 -0.018611394
000180 6d 68 7d 3e a1 09 2c 3c c0 dc 07 bf e7 c6 00 bf
       0.24746867 0.010500343 -0.5307121 -0.503035
000190 e5 5e c2 be 42 d1 30 3e 54 6d 06 3f 9a 06 b5 bb
       -0.37963024 0.17267326 0.5251057 -0.0055244686
0001a0 b0 f3 34 3d 3f 6d 76 bb 6a f7 ef be 05 b1 a5 be
       0.04417771 -0.0037601737 -0.4686845 -0.32361618
0001b0 8f 27 88 be b8 93 7d 3c 6a bb 92 3e ed 30 97 3e
       -0.2659268 0.015477113 0.2865861 0.29529515
0001c0 fe d3 65 3c 13 fe 37 3e af cd 88 be eb f9 91 3d
       0.014027594 0.17968015 -0.26719424 0.07127746
0001d0 98 33 38 be 91 9c de be 64 d7 bb be 79 57 9f 3d
       -0.17988431 -0.43478826 -0.36687768 0.07780356
0001e0 41 80 a2 3e 25 ed fe 3e b6 50 80 bd 8f 05 bd be
       0.31738475 0.49790302 -0.062653944 -0.36918303
0001f0 d4 74 26 be cf 38 1e 3e 2d b0 1c 3e 3b de cc 3c
       -0.16255504 0.15451358 0.1530158 0.025008311
000200 56 e0 26 be 96 5f 69 be 1b fd 00 bf 94 36 a2 be
       -0.16296515 -0.2279037 -0.5038621 -0.31682265
000210 15 d7 a5 3e ed 06 28 bd 89 41 11 3e 0d 74 a5 be
       0.32390657 -0.04102223 0.14185156 -0.32315102
000220 94 c8 67 bd d6 72 2b 3d c5 b6 29 be 1a 52 09 be
       -0.05658777 0.041857563 -0.16573627 -0.13410226
000230 0a 8c 3f bd 18 c8 05 3c 7e c6 66 3d e1 86 e7 3d
       -0.04676441 0.008165382 0.05634164 0.11305023
000240 b8 2c d1 3d 54 7f 9d be 1f 37 4b be e4 73 14 bd
       0.102136075 -0.30761206 -0.19845246 -0.036243334
000250 6b 92 ed bd 31 e4 13 bd 3b 4d 36 bd 76 c3 c6 bd
       -0.11600193 -0.036106292 -0.044507246 -0.0970525
000260 18 18 97 be 35 2d 77 be b2 c0 8a be 87 af 1b be
       -0.2951057 -0.24138339 -0.2710014 -0.15203677
000270 f6 3b 98 bd 7d 8e 5f bb 4e 7b d0 3d 50 fb dd bd
       -0.07433312 -0.003411203 0.101797685 -0.1083895
000280 dc d0 0b be 43 b4 9a 3d 90 a4 48 be fd de 4d be
       -0.13653892 0.075539134 -0.19594026 -0.20104595
000290 99 d7 41 3d 09 0b 9e 3d 23 75 58 be ca 63 c0 bc
       0.04732475 0.077169485 -0.21138434 -0.023485083
0002a0 0c f4 3b 3e 06 c3 a3 be 1c 1d 39 3e 5d 8b 71 3e
       0.18354815 -0.3198473 0.1807751 0.23588319
0002b0 33 4d d0 3b 21 5c 2e 3e 48 92 d1 3d 06 5d 86 be
       0.006356859 0.17027332 0.10232979 -0.26242846
0002c0 25 85 b9 bd 95 b6 78 3d 20 3e 54 bd c2 6b 87 3e
       -0.090585984 0.060721 -0.05181706 0.264494
0002d0 f4 6e 1d be 7e e6 b2 be e7 53 27 be 1b 99 70 3d
       -0.15374357 -0.34941477 -0.163406 0.058739763
0002e0 ec ea 48 3e 34 8e 69 be 68 2a 62 bd b7 93 a6 3c
       0.19620866 -0.22808152 -0.055216223 0.020334108
0002f0 5a 72 8d be 91 e8 e7 bc 1d e1 c1 be 36 e9 5c be
       -0.27626306 -0.028309138 -0.3786706 -0.21573338
000300 d3 09 04 be 05 5e 2c be 3f 49 36 be 9c 90 5f 3b
       -0.12894373 -0.1683274 -0.17801379 0.0034113294
000310 62 ff 1d bd 38 dd 40 be 70 88 87 be ce 45 72 be
       -0.03857363 -0.18834388 -0.2647128 -0.23659441
000320 76 c2 24 3e 3e a5 dd bd 77 2f 13 3e 19 fc 91 bb
       0.16089806 -0.10822533 0.14373575 -0.004455101
000330 a3 82 ee 3d 6f 13 25 be 90 4b c6 3d cf 4c 3c bd
       0.11646011 -0.16120695 0.09682381 -0.045971688
000340 d7 7f 5b bc 2f 8b b1 3c 7e 21 45 3e 7f c0 e4 be
       -0.013397179 0.021672813 0.19251058 -0.44678113
000350 27 7c 76 be 2a 17 78 bc 59 10 90 bd 81 7c 4b 3e
       -0.24070798 -0.0151422415 -0.07034368 0.19871713
000360 40 79 af 3d bd 01 42 3e 6a cf aa be 82 d1 8e be
       0.085680485 0.18945976 -0.3336137 -0.27894217
000370 55 cf 9a bd 60 dc 86 3d d9 5f 75 3d 31 fc 0b 3e
       -0.07559077 0.06585002 0.05990586 0.13670422
000380 c2 03 56 bd 9b 45 b1 be 76 d9 68 bd b5 a1 ae bc
       -0.052249677 -0.34623417 -0.056848012 -0.021317342
000390 78 a5 7a be fa c4 9e bd f7 0d af be 40 5c 54 be
       -0.24477184 -0.07752414 -0.34190342 -0.20738316
0003a0 4b 8c 77 3e b2 c5 2c be 72 2e 53 be 53 bb 29 bf
       0.24174611 -0.1687229 -0.20623186 -0.6630146
0003b0 cd bd fa be a1 53 ce bd 64 09 e5 3d c9 f9 39 3d
       -0.48972932 -0.10074545 0.11183432 0.04540423
0003c0 90 9f 12 bc 1d 6a 3f be 11 c7 c6 be 82 c9 fd be
       -0.0089491755 -0.18692823 -0.3882375 -0.495678
0003d0 56 3d 84 be 5c 90 a4 3c d7 a8 45 3e c3 00 05 3e
       -0.25828046 0.020088367 0.19302689 0.12988572
0003e0 3b bd 65 be a3 08 88 be ef 52 9c be 86 85 65 be
       -0.22435467 -0.2656909 -0.30532023 -0.22414216
0003f0 6f bd 6a be 40 16 24 3e bd a3 ad bd 1e 42 16 be
       -0.22923826 0.16024113 -0.08478496 -0.14673659

linear_sigmoid_stack.0.bias f4 [320]
000000 4b 06 82 bf 1d 83 73 c0 a5 6e 64 bd 3e e6 8a bf
       -1.015817 -3.8048775 -0.05576958 -1.0851514
000010 67 c8 05 be 74 5c 2c be 75 df 9c be 45 2e 37 c0
       -0.13064729 -0.16832143 -0.30639234 -2.862199
000020 8c 68 8c 3d 78 4b 8b 3c 10 11 7e bf 0b b8 a9 bf
       0.06855878 0.01700376 -0.99244785 -1.325929
000030 a1 ee 78 c0 fc 0f 70 bf b8 71 27 c0 55 57 30 3f
       -3.8895648 -0.9377439 -2.6163158 0.6888326
000040 8d 29 f2 bf fe fc 04 c0 69 24 6c 3d 4c 20 5d bf
       -1.891893 -2.0779414 0.05765191 -0.86377406
000050 94 a5 27 3f 5f aa 9d 3a 9c 27 07 c0 bd 79 e9 3f
       0.6548703 0.0012028924 -2.1117926 1.8240277
000060 c1 ac 32 bf 5b b4 88 c0 40 3f 13 be 02 23 06 bf
       -0.6979485 -4.272016 -0.14379597 -0.5239717
000070 f5 08 56 3f 4e 23 1f c0 4a 4f db bf bf 95 a0 be
       0.8360742 -2.4865298 -1.7133572 -0.31364247
000080 96 60 9f 3f 13 fa 34 bf 29 85 b1 3f e5 aa 05 c0
       1.2451351 -0.7069408 1.3868762 -2.0885556
000090 b4 e3 8a bf eb 3b 60 c0 58 67 80 3f 6d 00 da bf
       -1.085074 -3.503657 1.0031538 -1.703138
0000a0 62 34 da bf 4a 1d 2d c0 6b 5d 13 c0 75 53 0d bf
       -1.7047236 -2.7049127 -2.3025768 -0.5520547
0000b0 de 4e 30 c0 83 f5 6e bf 5c 77 21 3f 22 a7 fd 3e
       -2.7548137 -0.9334337 0.6307275 0.49541575
0000c0 f8 c2 86 c0 3c 07 98 bf 96 f2 ba c0 07 f1 c9 bf
       -4.2113 -1.1877208 -5.8421125 -1.5776681
0000d0 ad 12 b5 bf 5f f7 07 c0 aa 59 29 c0 07 46 35 be
       -1.4146324 -2.1244733 -2.6460977 -0.17702495
0000e0 f6 a4 d6 bf 92 78 0f bf 4e aa 99 bf 3c ff 46 bf
       -1.6769092 -0.5604335 -1.2005098 -0.77733207
0000f0 6c a2 47 c0 2a 30 da bf 2c af a9 bc 7c 7c 94 bf
       -3.1192884 -1.7045949 -0.020713411 -1.160049
000100 f3 2c a8 bf af 15 b2 bf 54 36 ba bf 77 0b cf bf
       -1.3138717 -1.3912867 -1.454783 -1.6175374
000110 2a 77 cc bf 0d 46 61 3f ef 3e 16 40 a8 c7 0e c0
       -1.5973866 0.87997514 2.3475912 -2.230936
000120 fa 8e 0f c0 1c 0d 06 c0 82 e2 f8 bf b9 15 9f 3f
       -2.2431016 -2.0945501 -1.9444125 1.2428504
000130 fc 81 9e bf eb c7 7b 3e e6 7e 1f bf 39 08 10 bf
       -1.2383418 0.24587981 -0.62303007 -0.56262547
000140 06 ef 93 bd 7a dc 0f 3e 19 b3 46 be ed b7 cb be
       -0.072233245 0.14048949 -0.19404258 -0.39788762
000150 6b 1f 42 be 5e 05 82 3e 23 46 08 c0 4e 48 8b c0
       -0.18957298 0.2539472 -2.1292808 -4.3525763
000160 6d 01 07 3f 23 01 35 bf 24 84 89 be 23 ac ad bf
       0.5273655 -0.7070486 -0.26858628 -1.3568157
000170 3a cb 90 3e 40 19 a3 3d c1 6b fb be 11 82 98 bf
       0.2828005 0.079638004 -0.49105647 -1.1914693
000180 02 3e 4c 3f fa c6 4f 3f 07 f0 52 bf 71 a1 ce c0
       0.79782116 0.8116299 -0.823975 -6.457207
000190 81 46 f0 bf 03 37 11 bf 5f 4a 8d 3f af c9 05 c0
       -1.8771516 -0.56724566 1.1038321 -2.0904348
0001a0 cb b6 16 c0 8c 21 a9 bf f3 3a b0 bf 92 7c 68 bf
       -2.3549068 -1.3213363 -1.376799 -0.9081508
0001b0 bc 1e 97 bf 14 95 03 be 4a a6 89 3e b7 86 23 c0
       -1.1806254 -0.12849838 0.2688468 -2.5550973
0001c0 72 d7 08 bf cc b4 4d be f5 3a 1a bf 4c 62 ad bf
       -0.53453743 -0.200885 -0.6024621 -1.3545623
0001d0 e8 64 83 c0 31 79 21 c0 22 e0 c9 bf 93 cf a8 bf
       -4.1060677 -2.523022 -1.5771525 -1.3188347
0001e0 b1 12 4d bf 6c cf 95 bf 20 b5 ed be 03 95 0d bf
       -0.80106646 -1.1703925 -0.4642725 -0.553055
0001f0 e4 4d 5c bf 2c ac 02 bf 17 cb 4f bf d1 32 b5 bf
       -0.8605635 -0.51043963 -0.81169266 -1.4156133
000200 dc c2 a9 bf 10 cf c1 bf 87 2d 54 c0 17 67 6a c0
       -1.3262591 -1.5141315 -3.3152788 -3.662542
000210 8e 77 4e bf 96 8a 69 be 70 fc e4 3e 76 dd d0 be
       -0.80651176 -0.22806773 0.44723845 -0.4079396
000220 95 40 73 bf 3e 0f ba c0 9d ab ee 3f 0c 2c 2d 3f
       -0.9502042 -5.8143606 1.8646122 0.67645335
000230 0c 65 fe be ab 84 5d c0 11 21 cf 3f 72 77 ed bf
       -0.49686468 -3.4612224 1.6181966 -1.8552077
000240 c9 d3 82 c0 2d d9 e0 bf 01 af 02 c0 d7 6d 3d bf
       -4.0883527 -1.7566277 -2.0419314 -0.7399573
000250 27 9c ce c0 69 cc 28 bf 2d fa a2 c0 ad 60 fa 3f
       -6.4565616 -0.65936905 -5.093039 1.9560753
000260 df a5 92 bf 67 bc 9e bf 07 78 8d be 11 7b 82 c0
       -1.145687 -1.2401246 -0.27630636 -4.0775228
000270 84 35 2e c0 7e 15 85 bf f8 53 90 bf 6f 18 78 3e
       -2.7220163 -1.0397184 -1.1275625 0.2422807
000280 95 25 58 3e b3 1f f6 bf 62 00 e2 bf be e9 00 3f
       0.21108086 -1.9228424 -1.7656367 0.5035666
000290 bd 40 fd 3e da ff ea 3f 64 35 fe bf a5 b9 87 bf
       0.49463454 1.835933 -1.9860044 -1.0603529
0002a0 44 6d 39 c0 a0 33 fa bf 4c 6a 01 3f a6 05 0a c0
       -2.897294 -1.9547005 0.5055282 -2.1565948
0002b0 a7 e9 fe bf 20 ac 1e c0 82 f8 b2 3e 8c 04 89 be
       -1.9915055 -2.4792557 0.3495522 -0.26761281
0002c0 43 d5 5e 40 a4 aa 22 c0 7f 95 f8 bf f1 4a 40 c0
       3.4817665 -2.541665 -1.9420623 -3.004574
0002d0 a9 13 09 be 8f d5 6b be ca c6 89 c0 f8 31 f0 bf
       -0.13386406 -0.23030685 -4.3055162 -1.8765249
0002e0 2d cd 8d bf 4e 15 89 c0 ae 15 7d c0 31 74 0d bf
       -1.107824 -4.2838507 -3.9544482 -0.5525542
0002f0 ea 8d 0f c0 9d 16 50 c0 62 89 3a 3f 42 88 2a bf
       -2.2430367 -3.2513802 0.7286588 -0.6661416
000300 ec c6 58 c0 93 da 98 3f 85 94 78 bf d9 36 db be
       -3.3871412 1.1941704 -0.9710162 -0.42815283
000310 1c 48 e3 bf 3c 5b 8c bf ba 28 11 c0 bc 87 fc bf
       -1.7756381 -1.0965343 -2.2681108 -1.9728923
000320 6e 80 42 bf 8f ec 07 c0 d6 48 4b c0 96 e9 65 3f
       -0.7597722 -2.1238134 -3.1763206 0.8980955
000330 d9 91 34 3f 1e 04 f4 bf 6d a2 f7 bf 70 d6 31 bf
       0.70535046 -1.9063756 -1.9346443 -0.6946783
000340 86 c0 6c c0 1c a1 91 3f 60 43 5d bf f4 0a 0a 3e
       -3.6992507 1.1377292 -0.8643093 0.13480741
000350 c1 fc 6e c0 4b 2c d9 be 0f 3a 47 bc c0 55 48 c0
       -3.7341769 -0.42416605 -0.012159838 -3.1302338
000360 03 9c 65 3f 39 59 20 c0 3d 48 00 3f 4d 95 8a 3d
       0.8969118 -2.5054457 0.50110227 0.06766758
000370 cf 95 ca 3e 8a d8 fb bf 16 e0 3c 3f 34 f8 49 c0
       0.3956742 -1.9675457 0.7377943 -3.155774
000380 69 1a 55 c0 da 12 04 c0 9b 05 b1 bf 56 00 96 bf
       -3.329737 -2.0636506 -1.3829836 -1.1718853
000390 d4 cc a1 bf d9 a5 68 bf 50 fe 91 c0 12 ab 06 bf
       -1.2640634 -0.90878063 -4.562294 -0.5260478
0003a0 f0 2c 03 c0 3d 85 0f c0 dd 99 46 3f 17 3a a2 bf
       -2.0496178 -2.2425072 0.77578527 -1.2673978
0003b0 b4 a3 5d c0 7f 4f 00 3f 7d 79 0f bf 89 f2 df bf
       -3.4631166 0.501213 -0.5604475 -1.7495891
0003c0 29 0e 42 40 91 90 18 bf d2 fa 2e bf e4 86 d0 bd
       3.0321143 -0.5959559 -0.6835147 -0.10181978
0003d0 cf 19 9d c0 08 d1 c6 bd b7 7b 71 c0 11 74 1c c0
       -4.9094005 -0.09707838 -3.773176 -2.4445841
0003e0 d3 9f 68 bf 85 17 89 c0 6d 9b 1a bf c5 3a de bf
       -0.9086887 -4.284121 -0.6039341 -1.7361685
0003f0 7a 20 a7 bf 2c e0 9f bf 11 1f 90 be a7 7d b8 bf
       -1.3056786 -1.2490287 -0.28148702 -1.4413346

linear_sigmoid_stack.2.weight f4 [160, 320]
000000 57 7d cd 3e 6f 9f 91 be b6 7e c1 be 4c c2 cd 3e
       0.4013469 -0.2844195 -0.37791985 0.401873
000010 ab 95 c5 bf 93 79 51 bf 51 14 96 3e a8 fd 8e bc
       -1.54363 -0.8182613 0.29312375 -0.017454937
000020 41 2d d0 bf 41 fa 69 bd 1a cf 00 3e 06 f7 c4 bc
       -1.626381 -0.057123426 0.12579003 -0.024043571
000030 56 ab af 3f b8 07 b7 3e fd ad ca be 34 20 cb be
       1.3724163 0.35748076 -0.39585868 -0.39673007
000040 93 54 46 bf c1 9d 01 bf ba 9e b4 be c4 90 58 3e
       -0.774728 -0.5063134 -0.3527735 0.21148974
000050 25 d5 b7 be 7a 2c 8f be d2 04 6e 3e 0d 88 e8 bd
       -0.35904804 -0.2796362 0.23244026 -0.113540746
000060 e5 cf 1d bf 77 9e e5 be 6e 42 2c 3e f5 88 51 be
       -0.61645347 -0.44847462 0.16822216 -0.20462401
000070 a3 f1 fa bf 2d d5 4b bf 7a 25 c7 3f 66 85 82 bf
       -1.9604992 -0.79622155 1.5558312 -1.019696
000080 13 4a 78 be b6 ac 6d be 78 24 48 3f 6c e4 31 3f
       -0.24247007 -0.23210415 0.78180647 0.6948917
000090 bb f8 ad be b2 61 1c be 24 40 b4 be a3 81 64 3e
       -0.3397883 -0.15271643 -0.35205185 0.22315077
0000a0 8c 3f 00 3e 08 b5 d1 3e fb b7 de 3f 25 05 0b 3f
       0.12524241 0.40958428 1.7399896 0.54304725
0000b0 26 b9 65 3f 77 39 10 3f bc 86 6c 3f 6a 4d 32 bf
       0.8973564 0.56337684 0.9239309 -0.69649374
0000c0 69 71 9a be 43 70 60 be 78 25 77 be da f8 18 3d
       -0.3016465 -0.21917824 -0.24135387 0.0373467
0000d0 2f 84 a0 bf e1 b5 fe bd 57 83 25 3f 83 4b 54 be
       -1.2540339 -0.124370344 0.64653534 -0.2073193
0000e0 79 03 cf 3e f1 a8 35 3f 19 57 25 3d f5 58 f3 bf
       0.40432337 0.7096091 0.040366266 -1.9011523
0000f0 c6 2a d6 c0 94 a7 3c c0 32 37 9f c0 de 93 d9 3d
       -6.6927214 -2.9477282 -4.9754877 0.106239066
000100 c8 7d bc 3e 25 3e 56 3d 6f e4 df 3d b1 ba c9 bc
       0.36814713 0.05230536 0.10932242 -0.024625154
000110 45 da 89 c0 4e 07 92 3e 72 b8 d2 bd 21 0e 84 40
       -4.307894 0.28521198 -0.102890864 4.1267247
000120 7a 35 ab c0 5c 8f 8b 3a 38 74 25 bf 25 fe 80 40
       -5.350278 0.0010647583 -0.6463046 4.0310235
000130 20 f0 86 be 81 f1 81 c0 c2 98 6b 3d 94 72 d1 bf
       -0.26355076 -4.0607305 0.057518728 -1.6363091
000140 e5 ce 2e c0 4a cb d5 c0 5f 37 1f be 12 d0 59 bf
       -2.7313778 -6.6810656 -0.15548466 -0.85083115
000150 d9 c5 53 bf 2b 18 6f bf 5b 5e 88 3e 4f 6d c2 3e
       -0.82723767 -0.9339625 0.26634488 0.3797402
000160 35 3a 20 3e 5f 99 b3 be 85 d9 07 c0 d7 dd 29 3e
       0.15647204 -0.3507795 -2.1226513 0.16588531
000170 ce 4a fb 3d 32 49 d0 be d9 50 5b bf 85 f5 93 bd
       0.12270127 -0.40680844 -0.8567024 -0.072245635
000180 b5 cb 4b 3e c1 df ee 3e f0 be e6 3d 43 6c 99 3e
       0.19901927 0.46655086 0.11266887 0.2996541
000190 eb 8a 91 3d ce a0 6d be a3 f3 d4 3f 63 bc 93 bf
       0.071065746 -0.23205873 1.6636852 -1.1541866
0001a0 85 26 72 be 01 07 85 be 76 f1 28 3e 8a ae 35 3e
       -0.23647507 -0.25981906 0.1649836 0.17742363
0001b0 99 a3 02 be 48 66 98 3f 35 89 90 bf ea 8b e8 3d
       -0.1275772 1.1906214 -1.1291872 0.113548115
0001c0 e5 5a c2 c0 dc f9 42 be 9b 56 72 3e f3 19 dd bf
       -6.0735955 -0.19040626 0.2366585 -1.7273544
0001d0 fd 3e 54 bd 38 71 8d 3d d9 03 bd bd f6 d5 e8 be
       -0.051817883 0.069063604 -0.092292495 -0.4547574
0001e0 d7 10 e3 3e c4 c9 ce 3e 13 0a 30 3e 48 5e 76 3e
       0.44348785 0.4038831 0.17191343 0.24059403
0001f0 c0 68 f0 c0 72 cc f4 be 92 78 cd 3d 26 f3 38 c0
       -7.512787 -0.4781223 0.100327626 -2.8898406
000200 e2 5d d6 3f d4 7f 08 be 46 88 ab 3d 03 6b 6b c0
       1.6747401 -0.13330013 0.083756015 -3.6784065
000210 9e f2 c2 3f a4 73 2c be 45 09 28 3f 3d fe 57 bc
       1.5230291 -0.16840988 0.65639144 -0.013183174
000220 b9 d9 eb 3d 52 ef 9a 3e 11 5b 86 be f7 40 e8 be
       0.11516137 0.30260712 -0.26241353 -0.45362064
000230 83 11 4a bf 50 0e 7c 3c e2 1d a5 3f eb e0 12 3f
       -0.7893297 0.015384272 1.2899745 0.5737445
000240 46 bd fe be 15 2c 0d be 0b c9 bd bf 79 9e 79 bf
       -0.4975378 -0.13786347 -1.4826978 -0.97507435
000250 48 e6 58 bb 4f 1b f5 be 19 f1 79 bf 83 45 29 3f
       -0.0033096243 -0.47872397 -0.9763351 0.6612169
000260 bc ba 24 c0 ba 4e 09 c1 3b 8c 6f be 3a 8e 11 3e
       -2.5738974 -8.58172 -0.23393337 0.14214411
000270 0e ef 56 bc df 7b 2b 3f 85 d8 eb bf 22 33 a9 bd
       -0.0131185185 0.6698589 -1.8425452 -0.08261706
000280 5d b2 32 c0 31 78 45 c0 ff 43 de 3d 14 a2 e9 bf
       -2.7921364 -3.085461 0.10852813 -1.8252587
000290 f7 2f 02 be 3a 72 56 bf 67 85 d3 be e1 91 93 bf
       -0.1271361 -0.83768046 -0.41312715 -1.1528894
0002a0 00 ae 54 3e cc a2 03 3f c8 81 b9 3e fc ed 3c 3d
       0.207695 0.51420283 0.36231828 0.046125397
0002b0 dd 39 eb c0 ac ec 40 c0 5c 10 a8 bc 4f eb 15 c1
       -7.3508134 -3.0144453 -0.020515613 -9.369948
0002c0 5c a5 8a c0 ab 37 62 3c 50 8a c2 3d 70 a3 ac 3e
       -4.3326855 0.013807218 0.09499037 0.33718443
0002d0 95 b9 33 bf c9 d3 3f be 31 1a 46 be b3 67 f2 c0
       -0.7020505 -0.18733133 -0.19345929 -7.5751586
0002e0 e3 93 1a bf b4 5c 42 bf 5f a7 5e bd 0d d1 0e 3f
       -0.6038191 -0.75922704 -0.054358836 0.55787736
0002f0 d8 48 23 bf f7 cf 1a be a3 79 07 c0 5d c8 6b c0
       -0.63783026 -0.15118395 -2.116799 -3.6841042
000300 cd cd c2 40 2c 65 44 c0 2e 53 b3 3f ee ed b5 c0
       6.087622 -3.068675 1.400976 -5.685294
000310 2f 44 05 3f d9 48 8a bf 86 b7 57 be e8 32 14 bf
       0.52057165 -1.0803481 -0.21066102 -0.57890177
000320 ac 60 14 3f 3a 43 42 bf c9 e0 2b 3f 9d 59 79 be
       0.5796001 -0.7588383 0.6713987 -0.24350591
000330 c7 f8 76 bf 07 c3 7a bf 7f 7d 54 bf 02 e2 bd bf
       -0.96473354 -0.9795384 -0.8300399 -1.4834597
000340 8e aa 3c bf 50 2f 62 c1 18 54 8d c1 fa 6b 45 bd
       -0.73697746 -14.136551 -17.666061 -0.048198678
000350 d1 67 d8 bf 77 53 ef 3e 60 d5 8e be 3c f8 11 3f
       -1.6906682 0.46743366 -0.27897167 0.570194
000360 d9 4e 80 3f 98 d4 2a bf 33 27 c0 3d 3f 36 55 be
       1.0024062 -0.6673064 0.09382477 -0.20821474
000370 9f 40 a7 3e 6d 62 20 c1 c6 6b db 3d 65 07 74 3e
       0.3266649 -10.02403 0.107139155 0.23830946
000380 83 8b b4 3e 1a 0d 8f bf c0 79 82 3e fb fe 5a be
       0.3526269 -1.1175873 0.25483513 -0.2138633
000390 49 c2 6f bf c0 a8 d1 3d b2 12 09 bf f1 e9 46 be
       -0.9365583 0.10237265 -0.5354415 -0.19425179
0003a0 ac f5 5b c0 3b 65 f8 bf e3 f1 1b bf 0b 04 16 c0
       -3.4368696 -1.9405893 -0.60915965 -2.3439968
0003b0 fb 8d fb 3e f4 32 db be e1 6c a4 3e 5b fd e1 be
       0.4913176 -0.42812312 0.32114318 -0.44138607
0003c0 d2 2d 34 c1 3e d8 0f 3f cf 25 ab 3f 9d fe 27 c1
       -11.261187 0.56189334 1.3370913 -10.499661
0003d0 1b 98 c6 3e 16 3a dd 3d 53 9d ee bf 61 cb bf 3f
       0.38787922 0.10802095 -1.8641762 1.4983941
0003e0 9b e3 79 bc 6e 7f 24 bf cc 71 82 c0 b9 91 73 3c
       -0.015252019 -0.6425694 -4.076391 0.014866286
0003f0 78 68 83 be 8f af c3 be c1 fc 40 bf 30 4b 18 3f
       -0.2566564 -0.38219878 -0.7538567 0.5948973

linear_sigmoid_stack.2.bias f4 [160]
000000 72 7c 82 bd ef 84 80 be 90 e5 93 bc 42 dd 61 bf
       -0.06371392 -0.2510142 -0.0180538 -0.8822824
000010 f3 60 8a 3d d3 61 76 bd 2b ab ea bc 95 ee a2 bf
       0.06756773 -0.060151886 -0.028646072 -1.272906
000020 ba fb 00 be f3 73 26 be f6 6a 6b be 56 01 88 bd
       -0.12596026 -0.16255169 -0.22990021 -0.0664088
000030 4e fb fb be 28 37 e0 bd 32 33 83 be d0 35 f2 bd
       -0.49215168 -0.1094802 -0.25624996 -0.1182667
000040 a8 be b5 bd a9 50 f7 be b6 fd ac 3d a3 12 65 bf
       -0.088742554 -0.48303726 0.08446829 -0.8948156
000050 33 2e ea 3e 2e 78 ad be 5b bb 5a be 0e de bd 3d
       0.45738372 -0.33880752 -0.21360533 0.09270869
000060 18 f7 59 3f 11 90 6a 3d 66 19 39 bf ce 36 36 be
       0.8514266 0.0572663 -0.7230438 -0.17794344
000070 f7 5e e6 3d d2 1b 64 be 67 b3 04 be 5f e3 93 3e
       0.11248582 -0.22276238 -0.12959062 0.28884408
000080 79 16 83 be 86 aa a8 3e 1f b6 8e bf 4e 7e 85 3e
       -0.25603083 0.329426 -1.1149329 0.26072925
000090 fd 3f 1c bf bf b0 12 bf 29 ab d2 be 2c 70 c9 be
       -0.6103514 -0.57300943 -0.4114621 -0.39343393
0000a0 36 c3 1f 3c 9a 14 0d c0 fe 78 90 be e3 21 94 be
       0.009751132 -2.2043824 -0.2821731 -0.28932104
0000b0 37 f5 ef bc f1 d4 7a be 35 48 9c 3a 0f e7 0d 3c
       -0.029291732 -0.24495293 0.0011923375 0.008661046
0000c0 b5 f3 2f 3d bc 4d 9d 3e 00 76 ce 3b d0 54 a6 bd
       0.042957027 0.3072337 0.006300688 -0.081216455
0000d0 1d 7f 03 be 2c c6 d2 be c1 33 4a 3f a0 06 0f be
       -0.12841459 -0.41166818 0.7898522 -0.13967371
0000e0 63 d3 43 3e e5 b0 b2 3c 00 da e1 3d 63 6f 75 3e
       0.19123606 0.021812866 0.11027908 0.23968272
0000f0 63 2d 37 be a3 a7 7f 3d 39 5f 2a bf a7 e5 5e be
       -0.17888407 0.06241573 -0.6655155 -0.21767293
000100 59 00 30 3d 58 77 38 be 13 9a a4 bd cd 42 e7 3d
       0.04296908 -0.18014276 -0.080372 0.11292038
000110 92 09 ca bd 04 19 2a be 46 73 f9 bc d8 fb 1d be
       -0.09865107 -0.16611105 -0.030450474 -0.15428102
000120 39 cf 80 bf 2e 00 a8 be 05 0f 7a be ae 7d 94 be
       -1.0063239 -0.32812637 -0.24419792 -0.29002136
000130 4b 14 f5 3d d9 70 17 3d 28 2c 69 bd 01 3b fc bd
       0.11966761 0.036972854 -0.056926876 -0.123159416
000140 5e e5 9b 3e cd 9a 36 be b1 e6 8c bd 8f d9 43 bb
       0.3044843 -0.1783249 -0.068799384 -0.0029884314
000150 07 fb 20 bf 9f 9a 76 3b 0b ba 93 be 69 f2 06 3d
       -0.6288304 0.0037628782 -0.28852877 0.032946024
000160 7a 86 83 bf 5e 8f 30 3c 47 fe 86 3e bd e1 08 bf
       -1.0275414 0.010776369 0.26365873 -0.5346945
000170 6d ed 14 be 47 fa f9 3e 4e 7c e8 bd 5e 5f 7e 3d
       -0.14543696 0.4882376 -0.11351834 0.062102668
000180 8b 16 70 bf fb 98 45 3e a0 b3 da be 86 1e ff be
       -0.937844 0.19296639 -0.42715168 -0.49827975
000190 bd 90 37 bd f0 6f cd be 03 f8 78 3f 96 04 32 bf
       -0.044815768 -0.40124464 0.97253436 -0.6953825
0001a0 88 53 53 bf 12 5d ce be 78 7b 8f be 9d c6 61 be
       -0.82549334 -0.40305382 -0.28023887 -0.22048421
0001b0 ff d3 6a 3d 4b 0c 8a 3e e8 61 f8 be 09 d1 90 bb
       0.05733108 0.26962504 -0.48512197 -0.00441945
0001c0 ff 6b f6 3e 3c c1 83 be fd d8 29 3e 25 51 5f be
       0.4812927 -0.25733364 0.1658668 -0.21808298
0001d0 ca 1c 4d 3e 64 7c d9 bd 8c c4 b3 bf eb 9e 89 3e
       0.20030513 -0.10619429 -1.4044356 0.26879057
0001e0 f1 54 07 3e 00 13 5c 3d f4 24 19 be 40 6f b8 bc
       0.13215996 0.053729057 -0.14955503 -0.022513986
0001f0 78 f2 33 bf 06 bb 9c be 70 46 15 bf 7b d8 72 bf
       -0.7029185 -0.30611438 -0.58310604 -0.94861573
000200 9e 55 52 3e 28 f5 97 bf 57 f9 67 3f 84 1a 44 be
       0.20540473 -1.1871691 0.9061484 -0.1915074
000210 17 77 86 3f 28 81 d9 be 00 dc 88 be e6 54 48 bf
       1.0505093 -0.4248135 -0.26730347 -0.78254545
000220 09 d5 26 bf 7d 2f 1c be e6 b4 a5 bd 5d 87 ed bd
       -0.65168816 -0.1525249 -0.08091144 -0.11598084
000230 ea 0c 13 3e fd 90 9d 3e bd 53 5b 3e c5 2c 77 bd
       0.14360395 0.3077468 0.21418662 -0.06034543
000240 ba 10 ed be c7 79 69 3e 65 c0 68 bf e6 bd 98 be
       -0.46301824 0.2280036 -0.9091857 -0.2983238
000250 2f 46 69 bd 8d a8 53 be b4 5e 23 3e a9 8f 89 3e
       -0.056951698 -0.20669766 0.15954095 0.26867417
000260 92 f0 81 3e 9b 58 87 3d 51 8f 82 be 5a d6 13 3d
       0.25378853 0.06608697 -0.25499967 0.036093093
000270 f5 d7 92 be 9b 9a 1d bd c4 52 64 bf 2f 3e c6 be
       -0.28680387 -0.03847752 -0.8918879 -0.38719317

linear_sigmoid_stack.4.weight f4 [80, 160]
000000 20 b6 57 c0 eb f3 37 3d fe fd a8 be 35 a2 88 3e
       -3.370491 0.044910353 -0.3300628 0.26686254
000010 4b 2e eb 3c f4 31 30 3d 66 a2 7b 3d f4 17 7f 3e
       0.028708598 0.04301639 0.061434172 0.24911481
000020 0e 23 7e 3d 57 81 8d bd b4 1b 1f bd 66 79 82 bf
       0.06204515 -0.06909435 -0.03884478 -1.0193298
000030 2f fb b4 3d f7 a9 36 3e d1 bf 71 c1 72 c6 fc bd
       0.08836972 0.17838274 -15.10933 -0.12342538
000040 13 d2 63 be f9 b9 0f 3e 56 b3 9a 3e 4a 07 ea bf
       -0.22248106 0.14035787 0.30214947 -1.8283474
000050 d6 43 c5 bc 1d b4 34 3c 29 2b e3 bd c6 dd 69 3d
       -0.024080198 0.0110292705 -0.110922165 0.057096265
000060 80 a3 f2 3d 46 d8 e8 3f cc 05 f0 bd d4 26 5b bd
       0.118475914 1.8191001 -0.11719856 -0.053503826
000070 03 0e 2a 3d 77 90 28 bd e1 46 67 bd f7 fe a8 bc
       0.04151727 -0.041153397 -0.05646408 -0.02062939
000080 97 77 66 39 77 1e e4 3d 63 d4 9e 3d cc aa 34 be
       0.0002197906 0.11138623 0.07755353 -0.17643279
000090 56 f8 c9 3d 9d ef 9d 3d 11 5a b3 3d 91 7a c3 bc
       0.098618194 0.07711718 0.08757413 -0.023862155
0000a0 b1 da a6 bc 95 0f 96 bc 65 75 0a bd b7 d8 07 bd
       -0.020367952 -0.018317977 -0.033803362 -0.03316566
0000b0 f2 71 84 3e a8 13 d4 c0 6d 61 ad bc 94 70 72 3d
       0.25868183 -6.6273994 -0.02116462 0.059189394
0000c0 d4 95 0d 3d 5e 61 cb 3d 25 55 06 be 04 4f 92 c0
       0.034566715 0.09930681 -0.13118418 -4.5721455
0000d0 51 bc 46 3d 1e f3 ae bd c2 87 dd 3d 56 05 75 3f
       0.048519436 -0.08542465 0.108169094 0.95711267
0000e0 01 34 19 3d 0a ac 63 3c 3e 11 c3 3e 42 97 d7 bf
       0.03740311 0.013895998 0.38099092 -1.6843035
0000f0 48 7b ed 3d fc fa b2 bf 52 38 0f 3e 6f e0 c4 bc
       0.1159578 -1.3982844 0.13986328 -0.0240328
000100 e9 00 3a 3d e3 42 58 c0 2c 37 b6 bd f4 a2 44 3b
       0.045411024 -3.3790824 -0.08897242 0.0030004354
000110 db a5 a2 3e 2a d1 cf bd cb 73 6e 3c 6f 47 eb ba
       0.31767163 -0.10147317 0.014553974 -0.0017950366
000120 3b 7c 8d bd d0 a8 21 bd f3 cb 91 c0 e6 9e 4b 3d
       -0.06908461 -0.039467633 -4.556146 0.049712084
000130 9a 65 9e bb 0c 58 59 3e 22 9c 05 c1 af c5 49 3e
       -0.004833889 0.21224993 -8.350618 0.19704317
000140 00 45 57 bf bb d1 bd 3d 7c dc e0 3d 76 90 0e 3e
       -0.8408966 0.092685185 0.10979554 0.13922295
000150 c5 ea a0 bd ae bd b6 bb 9c 13 12 3b cb 14 cf be
       -0.07857279 -0.005576811 0.002228952 -0.4044555
000160 3d f3 71 3e de 71 22 3e 54 b8 3c 3e 1d 28 eb 40
       0.23627944 0.1586375 0.1842969 7.3486466
000170 fe 32 05 be 2b 03 aa bd 88 55 12 c1 60 79 1d 3d
       -0.13007733 -0.083013855 -9.145882 0.03844583
000180 52 bc ac bf 8c 90 0c bd a8 7e 76 bc 7a 50 5f 3d
       -1.3494971 -0.03431754 -0.015044846 0.054520108
000190 e9 5c 93 3d b1 c2 37 3e 96 1d 74 be 97 e8 1d 3f
       0.071954556 0.17945363 -0.23839411 0.6168303
0001a0 cb 73 8a 3f 85 a7 1a c1 76 b6 a7 3e 69 28 73 3d
       1.0816587 -9.665898 0.32756394 0.05936471
0001b0 2e dc c1 bc 61 2a 9d bd b8 5e b5 c1 75 09 a7 bc
       -0.02366456 -0.07674099 -22.67125 -0.020390252
0001c0 9e 91 e5 3d 44 54 8c be d3 b0 0e 3d a8 c3 0b 3e
       0.11209415 -0.2740804 0.0348366 0.13648856
0001d0 3e 29 98 3d 66 5d 5b be 0c 72 0e 3e ac 7b 42 bd
       0.07429741 -0.21422347 0.13910693 -0.047481224
0001e0 48 42 38 3d dd f3 9a 3d 81 07 51 3d cf 3e 03 3d
       0.044985086 0.075660445 0.051032547 0.03204232
0001f0 0c 69 48 bc 9d f9 e6 3c fc 65 4b 3e 0d 11 6d 3e
       -0.012232076 0.028195197 0.19863123 0.23151036
000200 9e 28 25 3e fd 78 d6 bc e1 c8 d2 be f3 c5 ad bd
       0.16128775 -0.026180739 -0.41168883 -0.084850214
000210 26 95 97 bb c8 17 18 3c 6b 6c cd c0 e4 17 38 be
       -0.004625934 0.009283014 -6.4194846 -0.17977864
000220 62 97 61 3d e0 58 30 40 65 4e 06 c0 15 86 b0 bd
       0.05507601 2.7554245 -2.0985348 -0.08619324
000230 fc 03 75 bf 2d ee d5 3a 49 4c 39 bd fc e7 59 3d
       -0.95709205 0.0016321592 -0.045238767 0.053199753
000240 32 48 03 3c ab a9 9e 3d 7c fb 83 3f 46 3b a9 bf
       0.008012818 0.07747205 1.0311122 -1.3221214
000250 fb ce fc bd 36 40 72 3c 8a 90 14 3e f4 70 31 3d
       -0.12344166 0.014785817 0.14508262 0.04332061
000260 6a 1a d5 3d d0 af b4 bc fe 08 38 3d 87 44 3f bf
       0.10405429 -0.02205649 0.04493045 -0.7471394
000270 4e 12 65 bd 27 8e f0 3d e9 42 8d 3e 05 e9 4b c0
       -0.05592566 0.117458634 0.2759011 -3.1860974
000280 41 78 0e 3f 62 0f a1 3e cb 3e d3 3d 2a 89 0a bb
       0.5565224 0.3145705 0.10314711 -0.0021138885
000290 a9 a2 5a 39 7f b5 32 bd 99 9d ac 3d 16 a5 c4 be
       0.00020850696 -0.04363012 0.08428497 -0.384072
0002a0 2e 1b 14 be 6f 83 5d 3f 26 8a 1c 3e 3d 94 08 bf
       -0.14463493 0.86528677 0.15287074 -0.53351194
0002b0 da 0f 1f c0 b7 a8 e3 bf 92 2f de 3d 13 35 3d bf
       -2.4853425 -1.7785863 0.10848917 -0.7390911
0002c0 cc 51 09 bd a8 a7 a0 3d 98 ee ca be b7 65 b8 3d
       -0.033525273 0.07844478 -0.39635158 0.090037756
0002d0 89 7a 01 3f d8 4a 7d 3d 10 fe c3 3f bb de 49 be
       0.505776 0.061838955 1.5311909 -0.19713871
0002e0 ba 70 b7 be 45 cd c5 3d 53 09 47 3d a6 18 d6 be
       -0.3582819 0.09658293 0.048592877 -0.4181568
0002f0 f2 92 d7 3c 0a 12 a4 bd 2b 43 e9 be ff 7c e7 3b
       0.026315186 -0.08011253 -0.45559058 0.0070644612
000300 fe 8f ff bd dd 04 1c be b5 e2 a9 bc 76 eb c5 3c
       -0.12478636 -0.1523623 -0.020737985 0.024160128
000310 17 a2 ee be 0c 99 fa 3d 99 9e 1c 3e 7d 20 c0 3f
       -0.4660804 0.122362226 0.15294875 1.5009915
000320 5d 87 c2 bd 06 fc 74 bc b8 f9 46 be 40 f9 97 be
       -0.09498475 -0.014952665 -0.19431198 -0.2968235
000330 a3 bf 1d c0 58 a9 39 3c 16 4f af bd 10 7b 57 be
       -2.4648216 0.011331879 -0.08560006 -0.21043038
000340 c1 84 37 3c da 07 24 3f ee ba 2f bf e1 d5 0e bf
       0.011201085 0.6407448 -0.6864461 -0.55795103
000350 3b d0 dd bd a7 0e 40 bf 69 4d 64 bf b0 49 29 c0
       -0.108307324 -0.7502236 -0.8918062 -2.6451225
000360 16 ad 02 3f 2b a2 00 bf 4c 00 4b bf 33 b5 82 3d
       0.5104536 -0.5024745 -0.7929733 0.06382217
000370 a4 1f 98 3d fd e7 6f 3e d0 c3 82 3e 21 2e 88 bf
       0.0742791 0.2342834 0.25540018 -1.0639077
000380 6d b6 55 be ea 16 0e 3d 8d 74 8f bd d8 d0 98 3d
       -0.20870371 0.03468982 -0.07004652 0.07461709
000390 9f ab b1 bc 54 62 2d 3d 47 70 a4 3e 1e e6 40 3e
       -0.02168828 0.0423301 0.3211691 0.18837783
0003a0 04 0b cd 3d e2 f4 dd 3d a6 8f e9 be e8 2e 1c bf
       0.10011867 0.10837723 -0.45617408 -0.61009073
0003b0 70 3d 8e be 5f 10 ea bd 36 46 23 c0 a2 27 96 3f
       -0.27781248 -0.11428904 -2.5511603 1.1730845
0003c0 3e 47 13 3e 73 48 9e 3d cf 99 73 3f 69 35 1d 3f
       0.14382645 0.07728662 0.9515657 0.6140962
0003d0 23 b7 ee bd f6 cc 68 bf 61 85 dd 3d e8 e9 c6 3c
       -0.11656024 -0.90937746 0.10816456 0.024281457
0003e0 c3 b7 8d 3c cb 99 21 bf a8 a6 86 3d cf b5 5d 3c
       0.017299538 -0.63125294 0.06574756 0.013532116
0003f0 2f b1 be bd c1 cd 86 be cd 7e 56 be 87 ae 9c be
       -0.09311139 -0.26328853 -0.20946808 -0.30601904

linear_sigmoid_stack.4.bias f4 [80]
000000 95 77 68 3f fb 08 65 bf d8 5b 9d bf 0b 7d 98 bf
       0.9080747 -0.8946683 -1.2293653 -1.191316
000010 f7 d6 1d bf 5c 95 02 3f c2 23 87 bf 2c 2c 91 3d
       -0.61656135 0.51009154 -1.0557787 0.07088503
000020 c3 73 1c 3f 32 b0 53 bf 65 8f ab be b8 bc af be
       0.6111414 -0.8269073 -0.3350784 -0.34323668
000030 7e 4f 18 3f 72 06 70 bf a2 d5 03 bf 6b 18 f4 3e
       0.59496295 -0.93759835 -0.5149785 0.4767488
000040 5c c0 a5 be 07 8c 1b bd 79 17 12 3f 5c 7a 7f be
       -0.3237332 -0.037975337 0.57067066 -0.2494902
000050 9b fc 92 bf 51 f8 39 bf f7 6a 1d bf 34 b2 ae bd
       -1.1483339 -0.72644526 -0.6149134 -0.08530083
000060 c7 2f 40 bf cc 52 43 be ec 5e 49 3e ad e8 49 be
       -0.750729 -0.19074553 0.19665116 -0.19717665
000070 10 31 01 bf 76 14 0f bf a1 fc ba 3e 68 b3 aa be
       -0.5046549 -0.55890596 0.36520866 -0.3334
000080 53 53 76 bf f6 8b 40 3e b7 48 30 bf d5 e3 9c 3c
       -0.9622089 0.18803391 -0.68860954 0.019151608
000090 4c ea c5 3b 07 b8 6d 3f 61 ae b6 3d 92 d2 ac be
       0.0060398933 0.9285893 0.08919979 -0.33754402
0000a0 b9 9f c2 3e 76 0b 89 be 38 51 51 bf 0e 31 10 bf
       0.38012484 -0.26766557 -0.81764555 -0.5632485
0000b0 b3 f3 5a be 26 92 af be 50 38 98 be 94 d1 ec be
       -0.21382026 -0.3429119 -0.29730463 -0.46253645
0000c0 97 7a de 3d 60 d8 dc be 06 5e 16 bf bb 4e 37 bf
       0.10863226 -0.4313383 -0.5873722 -0.7160451
0000d0 6e b9 53 bd 77 29 95 bf 47 06 9d be c1 be bb be
       -0.05169051 -1.1653279 -0.30668852 -0.3666897
0000e0 2c 32 b7 be d1 58 30 bf 0b e7 30 bf 09 84 e7 3c
       -0.35780466 -0.68885523 -0.69102544 0.028261201
0000f0 bd 41 94 3e 8c 42 7f bf b2 41 4c bf 65 02 2a 3e
       0.28956404 -0.9971092 -0.79787743 0.16602476
000100 91 7c ca be 15 b0 bf bd eb 06 0b 3e 90 a8 ac 3e
       -0.39548162 -0.09359757 0.13576858 0.33722353
000110 76 48 05 bf a8 77 50 bf 94 52 1b be 7e 46 d4 be
       -0.5206369 -0.8143258 -0.1516822 -0.4146003
000120 1d cb ca be 8c 4c 44 3e 7f 51 04 bf 0d 57 0e bf
       -0.39608088 0.19169825 -0.51686853 -0.5560158
000130 93 c2 17 bf 2e 51 f9 3d d8 b8 61 be 5c 74 89 3f
       -0.5928127 0.12173687 -0.22043169 1.0738635

linear_sigmoid_stack.6.weight f4 [60, 80]
000000 f1 e9 40 3a c9 55 0f bd 1e 56 3e bc 69 47 95 bd
       0.0007359079 -0.03499392 -0.011617212 -0.07289011
000010 c5 cd 00 bd b6 7c 91 3c 1c 48 05 bd 5a b4 16 bc
       -0.031446237 0.017759662 -0.032539472 -0.009198273
000020 cd cb eb 3c 74 99 56 3c 79 c6 2a bc 3e a0 0b be
       0.028783703 0.0130981095 -0.010423296 -0.13635346
000030 cf fe 0e 3d 1f 13 9e bd c1 da a5 3c c6 89 32 3c
       0.034910973 -0.07718491 0.020245912 0.010897106
000040 8d 93 62 3d 4b ad 46 3f a9 86 25 3c 04 7e f7 be
       0.055316497 0.77608174 0.010102906 -0.4833833
000050 e9 87 ff bb ba 17 ad 3c 17 38 64 3d d1 2a 1c bc
       -0.007798184 0.021129478 0.055717554 -0.009531693
000060 08 97 12 3c 85 7b 76 3c 82 64 c8 bb 2d 1a 4f 3c
       0.0089471415 0.015044098 -0.006115497 0.012640518
000070 39 7b aa 3c 2d f1 17 3e da 11 c2 3c be d0 8a 3f
       0.02081071 0.14838095 0.023690153 1.0844953
000080 31 60 49 bf 96 42 0d c0 5e a5 fc 3b 9f 99 24 c0
       -0.786624 -2.207189 0.007710143 -2.5718763
000090 69 af ac bc b9 35 e9 ba d8 12 06 3d b6 e9 c9 3d
       -0.021079736 -0.00177925 0.032732815 0.0985903
0000a0 65 c0 85 3c 37 b9 46 3b d7 9d 8e bd 8a 6c 46 bc
       0.016327092 0.00303228 -0.06963699 -0.012110839
0000b0 3d 5c e3 3b 7d a2 c3 bd 19 15 df 3b 68 9a 8b 3c
       0.006938486 -0.095524766 0.006807935 0.0170414
0000c0 dc cb 22 3d 1c 84 67 3d 4d 58 c8 3c 51 96 a3 3f
       0.039745197 0.056522474 0.024456168 1.2780248
0000d0 62 14 57 c0 23 e0 94 3c 21 f6 87 3d 5c 17 a9 bb
       -3.360619 0.018173283 0.06638742 -0.0051602554
0000e0 6a f1 7d 3e 18 d4 52 bc 18 1d 36 bc 3d 60 cf bc
       0.24799123 -0.01286795 -0.011115335 -0.025314445
0000f0 5d 93 5c 3d 5d 47 18 bc 72 97 a0 bb 3e 3a e2 b9
       0.053851474 -0.009294358 -0.004900866 -0.00043149473
000100 be 55 97 3d b5 27 f2 c0 68 69 82 bb 46 ec e3 bc
       0.07389401 -7.567347 -0.0039798506 -0.027822625
000110 46 b4 15 3d 1d 1e 7c bc e3 70 8d bc f1 6f 8b be
       0.036548875 -0.015388039 -0.017265743 -0.27233842
000120 b7 31 1e 3c 49 f4 fd 3c 6f 50 5d 3d a1 99 07 3d
       0.009655408 0.031000273 0.054031786 0.033105496
000130 24 48 3f ba 33 7d 0f bf 76 db d8 bf fb 30 1f bc
       -0.00072968216 -0.56050414 -1.6941974 -0.009716268
000140 ed 9e a4 bd ab e6 ee bb c9 35 1d 40 34 0b 48 be
       -0.08038125 -0.0072906814 2.4564078 -0.19535524
000150 fe bb b8 3c c4 34 16 bc aa 92 82 bf b4 b7 b9 bd
       0.02255058 -0.009167854 -1.0201008 -0.09068242
000160 87 0d 01 3b 11 40 86 3d 7b 25 87 be 27 81 18 c0
       0.00196919 0.065551884 -0.26395783 -2.3828828
000170 c1 c2 5d bf 3d ce 2a bd 57 07 2c 3e 83 aa 10 3d
       -0.86625296 -0.04170059 0.16799675 0.035318863
000180 29 16 91 3d 60 05 21 bd 76 68 c1 be ba 38 a8 3c
       0.07084305 -0.039311767 -0.3777501 0.020534862
000190 95 b7 81 bd 7b 8f 11 3e f1 3e a8 3e 21 8c b1 c0
       -0.063338436 0.1421489 0.3286052 -5.5483556
0001a0 98 4a e9 bc 2c f7 87 3d 5b 59 4a 3e 2a 8f 38 3e
       -0.028477952 0.06638941 0.19760649 0.18023363
0001b0 bc ea e4 be 35 25 35 3e e8 66 2c bc 6f 43 0b be
       -0.44710338 0.17689975 -0.010522582 -0.13599943
0001c0 8c 15 38 bd a3 f1 ce 3c 3f ad 97 bd 8b e7 b5 bf
       -0.044942424 0.025261706 -0.07406091 -1.4211286
0001d0 4c 31 5a bd 02 42 90 bc a3 d4 af be 12 68 59 bf
       -0.05326967 -0.0176096 -0.34341916 -0.84924424
0001e0 f2 da 04 bd b7 53 60 bc ab 1d 4c be 35 2d 8e bd
       -0.032435365 -0.013691834 -0.19933192 -0.06942216
0001f0 0d 74 08 bf 9a a6 b7 bc ed c2 25 bc 6c a1 55 3e
       -0.5330208 -0.022418309 -0.010117275 0.20862359
000200 e8 72 c8 be 6f 1c 0a 3e 1e fa 8b 3b e3 1b 27 bf
       -0.39150167 0.13487409 0.0042717597 -0.65276927
000210 33 f9 0f bd de 3b c7 3d 19 d6 b7 bd eb 80 a9 bc
       -0.035149764 0.09728216 -0.08976383 -0.020691356
000220 d1 68 18 3c a4 ba be be 9b f6 f5 3d 18 49 08 bd
       0.009302334 -0.3725177 0.12009927 -0.033272833
000230 9e b0 29 3d 4b 3a a0 3d b9 1a 50 3e a6 f2 6b 3d
       0.0414282 0.078236185 0.20322694 0.057604454
000240 d1 2c 80 bd e7 96 a9 bc 5b f0 ca bf 86 c5 3e be
       -0.06258548 -0.020701839 -1.5854601 -0.18630037
000250 9a a3 2b bc f0 24 e0 be 4e b6 6b bc f3 7d 14 3d
       -0.010476017 -0.4377818 -0.014386727 0.036252927
000260 9d 16 ca 3d 8b 0f e5 3d 92 a2 33 be 7a a5 c1 3c
       0.098675944 0.11184605 -0.17542484 0.023638476
000270 91 ad 8b bd bb 0b c1 bc 6f bc be bf 83 9f 78 bc
       -0.068202145 -0.023565164 -1.4901255 -0.015174749
000280 f0 6a 4d 3e aa 45 40 be b1 fd 8e bf d4 32 81 be
       0.20060325 -0.18776575 -1.117117 -0.2523409
000290 f1 3f 53 3d f3 b3 80 bd cc 8a 02 3f 0d a1 4c 3e
       0.05157465 -0.062843226 0.5099304 0.19983311
0002a0 d5 13 63 3d d8 82 ba 3e 18 11 47 bf 05 f6 44 be
       0.055438835 0.3642795 -0.7776046 -0.19234474
0002b0 40 be 28 bf 9c a7 44 be ac 0a 26 3d 92 22 ed 3c
       -0.659153 -0.19204563 0.04053752 0.028947148
0002c0 48 8a c7 bf 06 83 58 3c 6a 31 22 bf 2c ce d4 bd
       -1.5589075 0.013214832 -0.6335665 -0.10390887
0002d0 ed 7c 84 bf db a4 38 bf ce 68 69 be c5 c3 44 bf
       -1.0350624 -0.7212655 -0.22793886 -0.7686122
0002e0 fc 01 b7 3d a5 8f 5c 3c 00 99 eb 3d 1b 53 a7 bf
       0.08935925 0.013461982 0.11503792 -1.3072237
0002f0 1f 50 0f 3e 78 0c 45 be 1c 2a b0 3e 62 27 14 bf
       0.13995408 -0.19243038 0.34407127 -0.57872593
000300 02 95 a6 bd f2 05 2b bc 69 fb 0d bf 15 d3 c7 3e
       -0.0813389 -0.010438429 -0.55461746 0.3902823
000310 ee 75 9c be 4f 11 15 bf de 91 3c 3f 15 d1 3f c0
       -0.30558723 -0.58229536 0.73660076 -2.9971364
000320 db 3c 87 3e d7 29 43 bf db 35 e5 3d 42 93 88 be
       0.26413617 -0.7623572 0.11191913 -0.2667485
000330 ba e1 e2 bd 58 56 be be 3e 08 d6 bd 6d 01 5e 3f
       -0.1107821 -0.3717525 -0.10450791 0.86720926
000340 cb bf e5 be ab 72 f0 be 5f 78 82 be ba 66 a0 bf
       -0.4487289 -0.46962485 -0.2548246 -1.253135
000350 52 9b 63 bd 3a ee 42 3f eb ed 3a 3c e7 c5 f2 3c
       -0.055568047 0.76144755 0.011409263 0.029635383
000360 91 7b 00 3e 3a 73 df c0 92 9a 2b 3c 74 b7 9c bd
       0.12547137 -6.9828157 0.010473864 -0.076521784
000370 51 0c 41 3f ee 0f 2d be e5 f4 09 40 71 e4 d2 3e
       0.7540942 -0.16900608 2.1555722 0.41189912
000380 42 d2 f8 be 12 bd 0f bc c1 2a ce bf d7 fb 5f be
       -0.48597914 -0.008773105 -1.6106797 -0.21873413
000390 39 75 09 be db eb 33 bf cf 6a 53 be 09 78 0e be
       -0.13423623 -0.7028176 -0.20646213 -0.13912977
0003a0 ad cb 42 bf 50 2a f8 3d 52 f1 8f be 86 bb 54 3e
       -0.76092035 0.121174455 -0.281138 0.2077466
0003b0 49 92 88 3d eb 27 0b bf 8b 29 47 bf e4 9f ab be
       0.06668527 -0.54357785 -0.77797765 -0.33520424
0003c0 4a a2 8f 3f 1b 71 8f 3e 35 b6 02 c0 50 fb 12 be
       1.1221402 0.2801598 -2.042371 -0.1435368
0003d0 e3 2d 0d be b9 18 de bc 30 b7 64 3f 28 7a 9b bd
       -0.13787036 -0.027111398 0.8934202 -0.07591659
0003e0 0e cd e7 bc 7c cd ba 3c d9 4b a7 3c 7e c0 3d c0
       -0.02829602 0.02280306 0.02042191 -2.9648738
0003f0 9d ad 23 bf cb 22 12 3c 1c 45 4a 3e 16 47 13 3e
       -0.6393679 0.008919428 0.19752926 0.14382586

linear_sigmoid_stack.6.bias f4 [60]
000000 4f d1 5b 3d 42 be 32 bf b5 2d 11 bf f5 af 0f bf
       0.05366641 -0.6982156 -0.5671037 -0.56127864
000010 52 f5 5b bf 8c 95 5f be 84 af 66 bf da ea 87 bf
       -0.85921204 -0.21834391 -0.90111566 -1.0618546
000020 69 c3 9a bf a1 88 49 bf 87 69 18 bf ce 8b 15 bf
       -1.2090884 -0.78724104 -0.5953602 -0.5841645
000030 a5 2a 86 bf a8 1a 34 bf d6 51 61 bf d8 ee e1 be
       -1.0481764 -0.70353174 -0.88015497 -0.44127536
000040 fa 47 24 bf 7c 6b f1 be f0 f8 68 bf 9d 75 be bf
       -0.6417233 -0.47152317 -0.9100485 -1.4879643
000050 b2 8a 80 bf 8b 59 a5 bf 01 13 7c bf 10 f2 9b bf
       -1.0042326 -1.2917951 -0.984665 -1.2183247
000060 66 ec de be f1 5c 40 bf d3 c4 cc be d8 78 94 bf
       -0.43539733 -0.7514182 -0.39993915 -1.1599379
000070 32 a4 35 bf e1 1f 76 bf 43 c5 e8 bd bf 4d 17 bf
       -0.7095367 -0.96142393 -0.1136575 -0.59103006
000080 dd 23 76 bf fb 51 ee be a0 32 80 bf 66 cf 8a bf
       -0.96148473 -0.4654692 -1.001545 -1.0844543
000090 f2 34 ae be 26 27 f9 be 53 c5 8b bf eb f1 19 bf
       -0.3402477 -0.4866268 -1.0919594 -0.6013476
0000a0 57 36 a3 bf b9 3a 93 bf 2e 0f a2 be 45 b6 12 bf
       -1.2750958 -1.1502296 -0.31652206 -0.5730937
0000b0 c9 51 a8 3e 6c a9 2e bf 55 e9 fb be 5a 84 81 bf
       0.32874897 -0.6822727 -0.49201456 -1.0118515
0000c0 7d 70 1d bf 59 48 84 bd e4 6e 71 bf 8a c6 34 bf
       -0.6149977 -0.06459112 -0.9430983 -0.70615447
0000d0 91 9c 71 bf 10 83 b7 be 3e b4 bb be 23 0e 7c bf
       -0.94379526 -0.3584218 -0.3666095 -0.9845907
0000e0 69 7c 6f bf f1 d4 6d bf 3b 13 5c bf 28 8d 41 bf
       -0.9354921 -0.9290305 -0.85966843 -0.7560601
