Training_Nets_Python/models/pytorch/MATLAB_net_3p_SD.pt (torch_old, 585840 bytes, 14 tensors)

c1.weight f4 [2, 1, 32]
00000000: 6696 1540 11e8 813f 275f fe3e 6323 13be
00000010: 9830 52bf a028 1bbf d69b f9be 7989 fabe
00000020: 984f afbe ddba 85be 37ec 76be 465a 58be
00000030: 108a 56be 9be3 59be 01b9 57be fe2a 4dbe
00000040: 7099 43be b4d7 28be ac54 21be 5004 04be
00000050: 3a31 d5bd a86a 52bd 89b9 c1bb 4d2e b43c
00000060: 921f bc3c d281 1d3d dd92 1e3d 37ad 043d
00000070: 848e f13c a940 273d 7a8b a0bb 0580 e13d
00000080: 7a23 a540 5709 1540 26f4 923e 2f2c 8bbf
00000090: b026 1bbe 8e68 0740 c3d7 3a3f 30b6 2bc0
000000a0: f79b df3e e914 313f ebac 853f 1970 1440
000000b0: 85e4 623f 4ab2 66c0 4594 943f d40e b33f
000000c0: e668 4140 f097 b43f cd48 7ec0 db0b d13f
000000d0: 1b9f 5e40 4ea3 a93f 776a 47c0 1a5c 6340
000000e0: ccfc 0340 3fe9 5bc0 0880 fa3f 3640 4540
000000f0: 1f6f 563f c5dc 20c0 d777 b73f 76c2 0940
2.3373046 1.0148946 0.4968197 -0.14368968 -0.821054 -0.60608864 -0.48751706 -0.48933008
-0.34240413 -0.26119128 -0.24113546 -0.21128187 -0.20951104 -0.21278231 -0.21066667 -0.20035931
-0.191015 -0.16488534 -0.15754956 -0.1289227 -0.1040978 -0.051371247 -0.00591201 0.021994734
0.022964273 0.038453884 0.03871428 0.032391753 0.029486902 0.04083315 -0.0048994394 0.11010746
5.1605806 2.328695 0.28701895 -1.0872859 -0.15151477 2.1157565 0.72985476 -2.6829948
0.4367368 0.6917253 1.0443395 2.319342 0.88629943 -3.604632 1.1607748 1.39889
3.0220275 1.4108868 -3.9731934 1.6331743 3.478461 1.3252962 -3.115873 3.5524964
2.0623045 -3.4361112 1.9570322 3.0820441 0.8376331 -2.5134747 1.4333447 2.152494

c1.bias f4 [2]
00000000: fcbb 703f 0cc6 273f
0.9403684 0.6553657

c2.weight f4 [2, 2, 16]
00000000: 794a 6740 d1f7 bb3f b9bf c2bd 017d 1bbf
00000010: b0f4 58be 8668 303e 0365 053f ae3b 193f
00000020: 205f 1c3f cacd 043f 60a0 903e 13af d03e
00000030: b3a5 ef3d e278 b13e 433f d63e 5de2 153f
00000040: e0b6 c13f 1413 6a3f 5ce9 063f c57e e93d
00000050: 60a6 c9bc ff82 83be fde2 91be be7c 07bf
00000060: d368 2abf 3689 47bf 7643 47bf 487f 5fbf
00000070: 735e 1ebf 6f24 77bf 7608 6abf b521 22bf
00000080: d229 42bf 0beb 02bf b291 bdbe c2e3 6ebe
00000090: a1fa 72be e84f 84be 386e d6bd 76b3 0cbe
000000a0: 520c 0fbe 9181 47be 6d1e 83be 8a7d cebd
000000b0: 386c 24bf 690a 5fbf 5edc d2bf 6e58 fdbf
000000c0: 4694 bdbf b274 c8bf 9699 cbbf 9b63 b8bf
000000d0: d200 88bf cdff b8be 0b18 b63e f5ef 873f
000000e0: 74bd b83f bff8 d93f bb74 0440 1df4 0e40
000000f0: fccd 0040 d9e8 b53f 0b1e 863f 306b 103e
3.6139205 1.4685003 -0.095092244 -0.60737616 -0.21187091 0.17227373 0.52107257 0.5985669
0.6108265 0.5187651 0.28247356 0.4075857 0.117015265 0.3466254 0.4184514 0.5854853
1.5133934 0.9143536 0.5269983 0.114011325 -0.024615467 -0.2568588 -0.2849349 -0.52924716
-0.665662 -0.7794374 -0.7783731 -0.8730359 -0.6186287 -0.9653997 -0.9141916 -0.6333268
-0.7584506 -0.511399 -0.3702522 -0.2332907 -0.2372842 -0.25842214 -0.10470241 -0.13740334
-0.13969544 -0.1948302 -0.2560915 -0.100825384 -0.6422763 -0.8712526 -1.6473501 -1.9792612
-1.4810874 -1.5660613 -1.5906246 -1.4405397 -1.062525 -0.3613266 0.35565218 1.0620104
1.4432817 1.7029036 2.0696247 2.2336495 2.0125723 1.4211684 1.0477918 0.14103389

c2.bias f4 [2]
00000000: cd5f 57c0 d73b 0fc0
-3.3652222 -2.2380273

linear_sigmoid_stack.0.weight f4 [320, 234]
00000000: ec6c 8f3e 252d e6bd be62 77be f561 3dbe
00000010: a0e8 7abe 60c3 00be 866d e23c 2db1 303d
00000020: ccd6 fa3d cf71 4c3d d217 a83d 3bad 0f3e
00000030: 9a5e 14bd 28f2 39be f1c0 54bd 5f92 88bd
00000040: b2fe 41be 41e5 9cbe d415 78be fbd8 bebd
00000050: 58ea c2bd 081f 52be 40b4 5fbd 3cb3 0c3e
00000060: 388b c83d 8d73 83be 642f c3bd 5467 c43c
00000070: 06d6 00be 285c 8cbe 129c a3be 6606 0dbd
00000080: 8e54 433e 006e d03d 28ac 803e 69bb d33e
00000090: 68e2 523e 5c00 dbbd 4b82 103e 2433 d53e
000000a0: 9685 643e f49a 363c 4633 9cbd 1964 95be
000000b0: 3593 19bf d930 03bf 7bc6 f5be f802 b0be
000000c0: 6d10 10bf caad c0be e837 91be b7c8 b3bd
000000d0: a177 ecbd 4abc 78be c155 9dbe 655d cd3c
000000e0: ff56 c33e 2dee ed3e c7af 133f 65c0 e03e
000000f0: b29f 18be e544 5ebf d7da 78bf 7e07 38bf
00000100: c287 ffbe 2185 0abe c1ab 003e a8d9 9b3e
00000110: d028 21bd d1ed 16bf 3d71 30bf c476 86bf
00000120: 150d acbf 67b3 f3bf 94fb 0bc0 46e0 48c0
00000130: 16c9 45c0 83e9 59bf f309 5440 41ab dd40
00000140: 2363 0d41 9a75 1641 21da 0941 e2f7 e240
00000150: 5b82 9e40 5986 2040 2eb6 bf3e 4e45 d0bf
00000160: 80b7 29c0 7056 25c0 ee92 0cc0 58ed 05c0
00000170: f3be fbbf f6e2 05c0 feb2 d8bf d86b 92bf
00000180: 0d6e 7ebf e2d1 dbbe eebf 8cbd efb7 863e
00000190: 7cdb 2d3f aa7f eb3e c6dd 323f d97b 3f3f
000001a0: 4a65 2b3f 9354 ab3e 59d1 92bd dc06 34bf
000001b0: 5aa2 5fbf 275f 6bbf 32d1 4cbf dd68 e7be
000001c0: 75fd 5abe 2e3e 923e 0c5b 9b3e 0175 16be
000001d0: ee66 efbe b125 b0be 6d8f ffbe 77a8 b4be
000001e0: 60ae 92bd 0c8f 933d c15a 573d 8b06 a7bd
000001f0: 8e05 bb3e 6473 003f 56f8 9d3e a146 d43e
00000200: 4527 183e 2276 81bd f08d 243e 9a14 26be
00000210: b39f 87be 2de3 e2be 2fa6 dbbe 2fa0 4ebe
00000220: 357e 48be 63d7 3bbd da47 753d fc6e 8cbd
00000230: 32ee 1b3e b826 a93e 1766 063e 3900 e73b
00000240: 010c 5b3d 6adc 9abd 44be 9ebd 8683 cabd
00000250: 9b24 c8bd 7deb 5a3d 7f0f 19bd 9ccd 81be
00000260: 79f0 86bc 39af e83d fef3 583e 0f35 14be
00000270: bce5 3dbe e89f 45be 1549 37be db8f a4be
00000280: 3a6a 7cbe 49be 5bbc e885 443e 335a 4f3e
00000290: 26b3 a8bd efda f5bd 12e7 aebe 8276 5bbe
000002a0: ca72 e73d 9d8b b73d c49f eebc 82b3 363b
000002b0: de5b b93d b32f a1bd 5e0b 6b3d 71c1 263e
000002c0: 112f 493e 2340 e23d 688f 42bd 9f1a 64bd
000002d0: 9103 b3bd 6c34 3abd bd57 96be 8bf5 aebe
000002e0: 9a54 8fbe 360c babd ad28 3cbe 322c a0be
000002f0: 0665 8dbd d6cf 63be d4b2 cebd 6e2a a63e
00000300: 5f10 963e b865 113f 21a7 e23e bdb6 8e3e
00000310: 0edb fe3d 2655 c1bd 0c56 86bd ba69 87bc
00000320: f28a 63be b0bf 03bd cac3 47bd 04a7 34be
00000330: c496 5abe 4151 4ebb 415f 3a3d d0eb e0bc
00000340: 7432 453e 1e9c 4f3e 054a 823e b715 873c
00000350: 82af 3cbe 94a6 c8bd 9968 2b3e dc7a d8ba
00000360: fc3a c4bd f079 513c 3aed e43c aede 27be
00000370: f28a acbe d558 37be 0be7 07be ec33 d13d
00000380: cdda 03be cf16 27be 03fb ec3d 7840 653d
00000390: 4931 eebc 0baa b23c 5c2d 3d3d cbb9 debd
000003a0: e4d9 06be 91c6 613d dd53 26c0 7171 babf
000003b0: dc5f 3abf bdc5 d9be 0484 8ebe 8271 bebe
000003c0: 29b5 d8be f9cb 16bf 1a39 45bf 4c2b 66bf
000003d0: ab9d 70bf b756 88bf 8b78 5bbf 6f71 1cbf
000003e0: 91ae 65be 4dab 263e 9f2a 163f 6cc5 963f
000003f0: 8e35 ea3f 63af 0f40 ca47 2f40 87d4 3d40
0.28012788 -0.112390794 -0.24158761 -0.18494399 -0.24502802 -0.1257453 0.027640115 0.043137718
0.122480005 0.049913224 0.08207668 0.14030926 -0.03622303 -0.18158782 -0.051941816 -0.06668543
-0.18944815 -0.30643657 -0.24227077 -0.093187295 -0.09517354 -0.2051965 -0.05461526 0.13740247
0.09792179 -0.25674096 -0.095305234 0.023975052 -0.12581643 -0.2741406 -0.3195501 -0.03442993
0.19075224 0.10177231 0.25131345 0.4135392 0.2059418 -0.10693428 0.14112203 0.4164058
0.22316584 0.011145342 -0.07626967 -0.2917793 -0.59990245 -0.5124641 -0.4800299 -0.34377265
-0.56275064 -0.3763259 -0.28362966 -0.08778518 -0.11546255 -0.24290577 -0.30729488 0.025068948
0.3815231 0.46470776 0.5769009 0.43896785 -0.14904669 -0.86823875 -0.97208923 -0.7188643
-0.49908262 -0.13527347 0.12565519 0.30439496 -0.039345562 -0.5895663 -0.6892279 -1.0504994
-1.3441492 -1.9039124 -2.18723 -3.1386886 -3.0903983 -0.85121936 3.3131073 6.927155
8.836703 9.403711 8.615754 7.092759 4.9534125 2.5082 0.3744368 -1.627115
-2.651825 -2.5834007 -2.1964679 -2.0926113 -1.9667648 -2.0919776 -1.6929624 -1.1439161
-0.99386674 -0.42933565 -0.06872545 0.26312205 0.6791303 0.45995837 0.6986965 0.7479835
0.6695143 0.33462963 -0.07168836 -0.70322967 -0.87357104 -0.91942066 -0.80006707 -0.45197192
-0.21385749 0.28563064 0.303429 -0.14693071 -0.46758217 -0.34403756 -0.49914113 -0.35284778
-0.07162166 0.072050184 0.052576784 -0.08155545 0.36527675 0.5017607 0.30853528 0.41460136
0.1485873 -0.0632136 0.1606977 -0.16218796 -0.26489028 -0.44313946 -0.42900226 -0.20178293
-0.19579394 -0.045859706 0.059882976 -0.06857106 0.15227583 0.33037353 0.13124882 0.007049587
0.053478245 -0.07561572 -0.07751134 -0.09888367 -0.09772607 0.053447235 -0.037368294 -0.2535218
-0.016472088 0.11361546 0.21186826 -0.14473365 -0.18544668 -0.1929928 -0.17898972 -0.32141003
-0.24649897 -0.013412067 0.19191706 0.20249252 -0.08237295 -0.12004649 -0.34160668 -0.21431926
0.11301191 0.08962176 -0.029128917 0.002787799 0.090507254 -0.07870426 0.057383887 0.1628473
0.1964686 0.11047389 -0.047500044 -0.05568945 -0.087409146 -0.04546015 -0.29363814 -0.3417171
-0.27994233 -0.0908436 -0.18374892 -0.31283718 -0.06904034 -0.22247252 -0.100927025 0.32454246
0.29309365 0.56795835 0.44268134 0.27873793 0.12444125 -0.09440069 -0.06559381 -0.016529907
-0.22220972 -0.03216523 -0.048770703 -0.17641836 -0.21346575 -0.0031481537 0.045500997 -0.027456194
0.19257528 0.20274398 0.25447097 0.016489847 -0.18426326 -0.09797397 0.1673912 -0.0016516107
-0.09581563 0.01278542 0.02794515 -0.1639354 -0.33699757 -0.1790498 -0.1327173 0.102149814
-0.12876435 -0.16317295 0.11571314 0.055969685 -0.029076235 0.021809598 0.046185836 -0.10875281
-0.13169056 0.05512101 -2.5988686 -1.456587 -0.7280252 -0.42533675 -0.27835095 -0.37195975
-0.42325714 -0.5890499 -0.77040255 -0.89909816 -0.9399058 -1.0651463 -0.8573081 -0.61110586
-0.22429873 0.16276284 0.58658785 1.1778998 1.8297594 2.2450798 2.7387567 2.9660966

linear_sigmoid_stack.0.bias f4 [320]
00000000: 8a6a b63f 845a a8bf 4c72 0ec0 0f22 cebe
00000010: a220 a5bf 7e4a 13be 9c27 07c0 fcbf 1a3f
00000020: 565d 0cc0 abdd fbbf ab9b 1cc0 4200 1bbf
00000030: 0ab2 50bf 2777 1cc0 c0ec a33e 1d87 47bf
00000040: 696c 7d3f 5c7c 0a40 edfe 6c3e a4a3 68c0
00000050: e419 1cc0 2e93 ffbf fdb1 0fc0 b3d5 a1bf
00000060: f647 d8bf 8770 14c0 7408 8b3e 845f e2be
00000070: 8475 21c0 3f30 c43e 006d 6fbf 5fda 15c0
00000080: 1d42 ffbe 7fb9 eb3d a9a6 e6bf e27d 09c0
00000090: 8c4d 92bf 9aeb 27c0 df92 4abf b727 c63f
000000a0: e265 b6bf 34cf 6bc0 176e a9bf e045 67bf
000000b0: 7232 b2bf e3a7 57bf 0aef a9bf fc3a 3740
000000c0: cdc1 afbf 3289 2dc0 f2d4 c3bf 2da5 c1bf
000000d0: de52 37c0 876d 36bf 71f9 62bf 1fad 0cc0
000000e0: e7e3 26bf be00 afbf c065 613d d714 5ac0
000000f0: eafa 20c0 bce2 82be 3559 a83e 2b09 e3bf
00000100: 8e49 79c0 dc0e 40c0 e907 bac0 5857 82bf
00000110: 2a13 d8be a4f0 81bf d6a4 493e 9d89 02c0
00000120: 3d30 c5bf 7cd0 5d3e 0a77 cdbf d8eb 493f
00000130: 3ea4 d6bf 8838 803d 588f 80bf d476 c53e
00000140: c1fa 90bf 507f c73f aedd d73f ea83 fcbf
00000150: 1b09 87c0 b1ca 43c0 f095 2ac0 b1c6 cabf
00000160: 6d21 c13f 1001 9ebe 4bd4 28c0 3a96 a3bf
00000170: fc74 9cbf e31e 8a3f 97fc c83f a050 073f
00000180: 0519 f2bf 2165 1ac0 3140 463d 87fd 18c0
00000190: 7983 55bf 1355 84be 27a1 0bc0 1455 f9bf
000001a0: 21d9 16c0 f153 5b3f 3210 653f a2f2 19be
000001b0: b4ad c43f 88bf 443f e23c c6bf 38bc 223e
000001c0: 11e0 a3bf b072 953f 51b2 a5bf e222 e4bf
000001d0: 7192 de3f a053 84bf 686f bb3f ad23 853e
000001e0: 9b1f 29bf 7fa2 30c0 460b a9bf 8ec3 30bf
000001f0: d0b2 88bf e5df 05bf 02b3 46be 80b7 12c0
00000200: 0f0f 22c0 1e03 a2bf f3f4 b73f bde4 c03f
00000210: 5649 bdbe 9d53 a93e e5e7 b8bf bd4e a1be
00000220: 227d b3bf b9f3 f3bf 3f5b ffbf ea56 dabf
00000230: ac95 96c0 dcbe 8fbf 249f 65c0 cfef 0840
00000240: 7b5d 15c0 27a8 81bf bf72 0dc0 e29c f9bf
00000250: b99e 06c0 2a37 2d3f 72f6 2cc0 a737 ecbf
00000260: 3012 09c0 507d 9bbe 83b6 2fc0 a76a f0bf
00000270: a0d1 e93f 7f67 623f faa3 88bf 7022 acbf
00000280: ec8f 51c0 d320 0dc0 7b28 06c0 2e05 09c0
00000290: 3656 05bf 81ba 2bc0 a664 0540 f39b ae3f
000002a0: 7a36 31bf a42c 7fc0 ddc4 de3e e1bc 43c0
000002b0: eaee 1cc0 2a84 5d3d 0769 34c0 c9f5 a23f
000002c0: 6f10 003f 0402 b8be 6e4b f5bf 12d9 fbbf
000002d0: e9b6 9fbf 04f9 87bf 710c 89bf 7459 b5bf
000002e0: 4388 2340 4800 e43f 1650 25c0 d300 02c1
000002f0: f42e e7bf 3dcf 98bf 9afa bebf 6d03 39c0
00000300: fc5c a0bf 8d26 ffbf 3968 8dbf 4a53 c9bf
00000310: 49f8 a23d e803 d73e ce35 623d 2022 a1bf
00000320: 384a b340 bfb9 a83e acb2 36bf 3899 10c0
00000330: 4a66 01c0 8be2 8bbf 69c8 cebf 9c52 b7be
00000340: 6ef7 23c0 d91e 96bf 09a6 08c0 1996 26be
00000350: f954 6a3f 471e 34be e9f9 823e 0960 28c0
00000360: d7ca 7f3f c7c1 b6bf f241 9ebf af6f 203f
00000370: f6f5 a7bf b134 85bf e01d d13d 639f d1bf
00000380: 9c64 0ec0 915e babf dd47 c8bf 296c 61bf
00000390: 4fb3 09c0 8609 9ebf 12a6 32c0 9a46 99bf
000003a0: 6f56 da3e ef55 533f fb96 20be c2fb afbf
000003b0: 7959 8ebf f337 19c0 af86 72c0 bd38 f2bf
000003c0: 521a 34bf 2cf6 0140 25a1 19c0 40ae 9b40
000003d0: eb50 08c0 7104 633f d7b3 8dbf 13dd a1bf
000003e0: 499f 0dc0 71c0 f6be 415e 12c0 ca7c d1bf
000003f0: ccb0 3fc0 d501 ff3e 760d da3e 32ec 28c0
1.4251263 -1.3152623 -2.2257261 -0.4026036 -1.2900584 -0.14383885 -2.1117926 0.60449195
-2.1931968 -1.9677023 -2.4470012 -0.6054727 -0.81521666 -2.4447725 0.32016563 -0.7794054
0.98993546 2.1638403 0.23144121 -3.6349878 -2.4390802 -1.9966791 -2.2452385 -1.2643341
-1.6896961 -2.3193681 0.27154887 -0.44213498 -2.5227976 0.3831806 -0.93525696 -2.3414533
-0.49855128 0.1150999 -1.8019611 -2.1483083 -1.1429915 -2.623755 -0.7913036 1.548087
-1.4249842 -3.6845217 -1.3236722 -0.90340996 -1.3921645 -0.8424055 -1.3276074 2.8629751
-1.3731018 -2.7114987 -1.5299361 -1.5128533 -2.8644328 -0.71260875 -0.8866187 -2.1980665
-0.651915 -1.3672101 0.055028677 -3.407522 -2.5153146 -0.2556361 0.3288056 -1.7737173
-3.8951144 -3.000907 -5.8134656 -1.0182905 -0.4220212 -1.0151563 0.19691786 -2.0396492
-1.5405346 0.21661562 -1.6051953 0.78875494 -1.6768873 0.062607825 -1.0043745 0.3856722
-1.1326524 1.5585728 1.6864526 -1.9727757 -4.2198615 -3.0592463 -2.6654015 -1.5841886
1.5088326 -0.30860186 -2.6379573 -1.278022 -1.2223201 1.0790676 1.5702084 0.528574
-1.8913885 -2.4124224 0.04840106 -2.390474 -0.83403736 -0.25846156 -2.181711 -1.9479089
-2.3570025 0.8567496 0.8947784 -0.15033963 1.536551 0.76854753 -1.548733 0.15892112
-1.2802755 1.1675625 -1.2945043 -1.7823145 1.738844 -1.033802 1.4643373 0.2600378
-0.6606385 -2.759918 -1.3206565 -0.6904839 -1.0679569 -0.5229476 -0.19404224 -2.29245
-2.532169 -1.2657201 1.4371628 1.5069805 -0.36970013 0.33071604 -1.4445769 -0.31505385
-1.4022563 -1.9058753 -1.9949721 -1.7057774 -4.7057705 -1.1230121 -3.5878382 2.1396368
-2.3338306 -1.0129441 -2.2101285 -1.9501002 -2.1034377 0.676623 -2.7025418 -1.8454484
-2.141735 -0.30369043 -2.7455146 -1.8782548 1.8267097 0.8843917 -1.0675042 -1.344801
-3.2744093 -2.2051284 -2.0962207 -2.1409411 -0.5208467 -2.6832583 2.084268 1.3641342
-0.6922375 -3.9870996 0.4350957 -3.0584033 -2.4520822 0.05408112 -2.8189104 1.2731258
0.50025076 -0.35939038 -1.9163644 -1.967562 -1.2477695 -1.0622869 -1.0706922 -1.4167924
2.5551918 1.7812586 -2.583013 -8.125201 -1.8061204 -1.1938244 -1.4920228 -2.890834
-1.2528377 -1.993364 -1.1047431 -1.5728543 0.07957513 0.41995168 0.055227093 -1.2588539
5.60281 0.32954213 -0.7136638 -2.2593517 -2.0218682 -1.092851 -1.615491 -0.35805213
-2.561977 -1.1728164 -2.135134 -0.16268195 0.9153591 -0.17589675 0.2558129 -2.6308615
0.99918884 -1.4277886 -1.2363875 0.62670416 -1.3121936 -1.0406705 0.10210776 -1.6376766
-2.2248907 -1.4560109 -1.5646931 -0.88055664 -2.1515691 -1.2346656 -2.7913861 -1.1974671
0.4264407 0.82553 -0.15682594 -1.3748705 -1.1121055 -2.3940399 -3.7894704 -1.8923565
-0.7035266 2.0306501 -2.4004605 4.8650208 -2.1299388 0.8867865 -1.1070508 -1.2645591
-2.212847 -0.48193696 -2.2870028 -1.6366208 -2.9951658 0.49806085 0.42588395 -2.6394162

linear_sigmoid_stack.2.weight f4 [160, 320]
00000000: 450c 4abe 26fa fd3c b805 6f3c b929 16be
00000010: 08ae 24be 588c 28be 7d61 e9be 8d93 36bf
00000020: 677c 0f3e 6d8b 71be de48 0340 e710 abbd
00000030: 7629 373e 77cd b33f 6b1a 2f3c 2455 59be
00000040: 0cf3 6c3c c904 98bf 3539 d8be ae85 9abd
00000050: bc0b 6abf 234b 7e3e 7ef9 3d3f fb6b c9be
00000060: 1911 84be 9e7d 29bf fe31 41bd 80e7 9a3d
00000070: a060 edbd b981 c5be cebd 713f afc4 963e
00000080: a7c7 443c dce4 2a3e 22b7 95bc 6900 92bf
00000090: 5ee7 d33d 22c1 56be f2f6 4c3d 3c71 ab3d
000000a0: ab75 20bd 4de5 cb3d 2757 333f 767b 5bbe
000000b0: c3ef 4bbd 5bf7 9a3e 9e54 043e a368 663e
000000c0: 5cc5 113c a2f3 383e 211d f5bd 42b6 063d
000000d0: 620c eb3e 57a9 acbd 4454 f6bd f3bb ad3f
000000e0: 6efa f7bc 7ad1 913f 4bab 30bf bc41 1ac0
000000f0: 7c9c bd3d e237 9a3e 7520 993e f72f b4be
00000100: 8766 c73e 49d1 993e 2be9 913e ceb9 283f
00000110: 7691 883e 4715 75be 94ad 163d f038 233f
00000120: c17c 30bd 7c89 dc3b 7e29 483e 1d78 713f
00000130: 7ba2 86bd 134f 5bbf 3c96 e4bd 0f8f 33bc
00000140: 9bc6 45bd 8bdd 063e 9184 793f 2c4a 82be
00000150: 1c40 d5be 9d2b 7a3f 0e3a 263f 56c8 2d3b
00000160: 00b0 68be c4a7 d13d 8000 5dbf 4d50 9cbc
00000170: d311 afbd df49 c23f 6df3 c4bd 3746 30bf
00000180: e3f8 0f3e 7599 8cbd 8d4e 413e aff7 743e
00000190: f75e 8bbc a359 e03e 8360 e13e 3f3b 43bf
000001a0: 9e78 21be b29f 07c0 d5fa 1dbf 338e 0ebf
000001b0: 6e88 273e 2653 d23d a945 07bf 2a71 333e
000001c0: 44b8 9e3e b0ad aa3e 6aa7 81bc 3317 d73f
000001d0: e3dc 65bd 2118 d93d 92d6 413e bbaf 12bd
000001e0: 2426 10bf 40b6 c1bc 5706 c0bd 944b 823e
000001f0: 2e3f 15bd 2dd0 833e 3fcb a33e a96e 6dbd
00000200: dd8e a3bd 0e4c d33f f072 ac3d e2f7 cabe
00000210: 38a7 f6bd 11b0 34be 22c9 823e c934 803e
00000220: 8c27 0cc0 89af 763e 03ff 4ebe 10ea 14bf
00000230: 63b0 973e da59 e2bd 241e a1be f902 68bf
00000240: e786 7ebe cdf7 273d ac54 5dbe e8bd 35bc
00000250: 8cae 64bc 87e1 45be ec19 603f 760f 35bd
00000260: 8383 3b3d 647b a5be ad7e 623f dfca 32be
00000270: 2ec8 fc3e 1175 22be 53c6 8740 6368 e43b
00000280: 186d dbbc c274 93be 3d5c 903e dba4 4c40
00000290: f905 133e 3e96 9fbe 2f2d d53c abe5 9fc0
000002a0: fac5 8ebd 656f 9cbe b36d 353f aa02 e73f
000002b0: 199d 123c a9b6 423f c883 94be dfdc a53f
000002c0: 9c14 a9bf 073e 69bf 4317 1dbe a485 b0bd
000002d0: d559 29be 6e84 5f3e b405 e63d 2bf2 733f
000002e0: bc66 1a40 a698 593f 5fbe ebbd 4675 37bf
000002f0: 9637 0fbf 7521 f23e a791 a7bf c618 0bbf
00000300: 9719 06bd e94b e73d dddf 89bd 866e b5be
00000310: 589b 92bd 75f5 793f f75d 7dbe 5fc9 663e
00000320: 2768 ca3e e949 f1be f19b 4b3e bffc d2bc
00000330: 40f4 8dbe 0492 9dbe a727 86bd 1f1e 1f3c
00000340: 6205 863f 97d4 09be 3709 99bd bae7 b0be
00000350: 223d 1f3f dfd0 6a3e 11c6 87bd 3605 39be
00000360: fd11 ef3e 5b49 fb3f 7918 edbe 8862 623e
00000370: 87cb d0be a8de debd c07f 05be 0076 40bf
00000380: bc2c dabd b121 c1be f5c9 c63d 06dc abbc
00000390: 2934 c43c f76f bb3d dbdc 6fbe 7195 87bc
000003a0: c2d9 a13e bae1 513e 329b 06bf af91 0540
000003b0: 9278 c23d 9a0d a2bb b357 98be 9e54 933e
000003c0: 0bcb 82bf 384f 393e 0f6b 34be 8572 8b3e
000003d0: 98d2 c63d 46e1 343e d8c4 26bf f9a7 2f3f
000003e0: 37dc 2abd 0ab1 8bbd f245 0a3e c6b3 d93f
000003f0: c120 8cbd 5996 3a3e 1cfe e0be 2a5d 46be
-0.19731243 0.03100307 0.014588766 -0.14664353 -0.16082013 -0.16459787 -0.4558219 -0.71318895
0.140123 -0.23588343 2.0513225 -0.08352833 0.1788691 1.4047078 0.010687451 -0.21223885
0.014462244 -1.187646 -0.42231146 -0.075450286 -0.91424155 0.2483335 0.7420882 -0.39340195
-0.25794294 -0.662073 -0.047166817 0.07563686 -0.115906954 -0.38575533 0.94430244 0.29446933
0.012010491 0.16688865 -0.018275801 -1.1406375 0.10346864 -0.20972112 0.050040193 0.08371207
-0.039174717 0.09955845 0.7005486 -0.21433815 -0.0497892 0.30266842 0.12922904 0.22500853
0.008897152 0.18061689 -0.119684465 0.03288866 0.45907885 -0.084307365 -0.12027791 1.3572983
-0.030270781 1.1392052 -0.6901137 -2.410262 0.09258363 0.3012076 0.29907575 -0.35192844
0.3894541 0.30042484 0.28498206 0.65908515 0.26673478 -0.23933898 0.03678663 0.63758755
-0.043087725 0.0067302566 0.19547078 0.94323903 -0.065739594 -0.8566753 -0.111614674 -0.010959401
-0.048285108 0.1317045 0.97467905 -0.25447214 -0.41650474 0.977228 0.64932334 0.0026517115
-0.22723389 0.10237077 -0.8632889 -0.01908126 -0.085483216 1.5178794 -0.09616742 -0.6885714
0.14059786 -0.06865207 0.18877621 0.23922609 -0.017013056 0.43818387 0.44018945 -0.7626228
-0.15768668 -2.119122 -0.61710864 -0.5568573 0.16360638 0.102697656 -0.5284067 0.17523637
0.3099996 0.33335638 -0.0158269 1.6803955 -0.056118857 0.10600305 0.18929508 -0.03581212
-0.563082 -0.023646474 -0.09376209 0.25448287 -0.036437206 0.25744763 0.31991002 -0.057966862
-0.079862334 1.6507585 0.0842036 -0.39642245 -0.12043613 -0.17645289 0.25544077 0.25040272
-2.1899137 0.24090399 -0.20214467 -0.5816965 0.2962676 -0.11052294 -0.31468308 -0.90629536
-0.24856149 0.041007806 -0.21614331 -0.01109264 -0.013957631 -0.19324313 0.87539554 -0.044204198
0.045779716 -0.32320702 0.8847454 -0.17460202 0.49371475 -0.1586497 4.2429595 0.0069704517
-0.026785418 -0.28800017 0.28195372 3.197562 0.14357747 -0.31169313 0.026022522 -4.9967856
-0.06971355 -0.30553737 0.7087051 1.8047688 0.008948588 0.7605997 -0.2900679 1.295803
-1.3209414 -0.9111027 -0.15340905 -0.0861924 -0.16538174 0.21827862 0.112315565 0.95291394
2.4125204 0.8499855 -0.1151092 -0.7166332 -0.5594419 0.4729115 -1.3091325 -0.54334676
-0.032739248 0.112937756 -0.06732152 -0.35435885 -0.07158536 0.9764016 -0.24742876 0.22537754
0.39532587 -0.471267 0.19883706 -0.025755284 -0.2772541 -0.30775464 -0.06550532 0.009711771
1.0470393 -0.13460003 -0.07472461 -0.34551793 0.62202656 0.2293124 -0.06629575 -0.18068394
0.4669341 1.9631761 -0.46307734 0.22107899 -0.4078028 -0.10882312 -0.13037014 -0.75180054
-0.10653064 -0.37721017 0.09706489 -0.020978939 0.023950653 0.09152215 -0.23424093 -0.016550751
0.3161145 0.20496264 -0.5258056 2.0870168 0.09495653 -0.004945469 -0.2975441 0.28775495
-1.0218214 0.18096626 -0.17618965 0.2723581 0.09708136 0.1766406 -0.6514411 0.6861568
-0.04171392 -0.06820877 0.13503245 1.7007987 -0.06842185 0.18221416 -0.4394387 -0.19371477

linear_sigmoid_stack.2.bias f4 [160]
00000000: 3028 8abe 5a56 5f3d 74c1 1a3e 5294 debd
00000010: e654 88be 491c e03d 788a 9d3e 252c d9bd
00000020: ffdb 83be ec99 ebbd c823 8fbe 588e 043f
00000030: 22b0 2dbf 98e6 11bf a532 723b 12b4 0abf
00000040: 46aa 333e 6e50 98be cf6e 2cbf 0688 3cbd
00000050: a5a7 1c3e 9fbc 08bd ac39 b53d 0fa1 a4be
00000060: f56a 0ebf d008 debe c892 c23b 9094 093d
00000070: a330 2f3e cfb5 813c 10e2 5c3e 2d78 68be
00000080: 94e4 113e fd8d c5be 1937 07bf 613d 13be
00000090: d55f 0fbf 8890 efbe 5bbf ecbd 34b0 39be
000000a0: 7294 acbe ac58 813e 760b 12bf 8f49 01bf
000000b0: cfb8 e3be badb d5be 3e0e 5d3e 91d3 083e
000000c0: 1d46 00bf 74a5 843e d910 d9bc 977b ffbe
000000d0: 72a4 80be 3967 543b 413a bbbd 0a85 823e
000000e0: 323d b33e 697d 3ebe 7c5d 6a3d 1566 f83e
000000f0: 0a25 ea3e 7b10 0cbe b469 50bd 4bbf 1bbf
00000100: b79c 9cbd f410 983c a0ae 55bf fb06 03be
00000110: 7925 2a3d 698f 5ebe 9a82 9cbe fc40 333d
00000120: 28c5 1b3e 8c53 cbbd a390 7f3e f92e cebe
00000130: cecb 1e3f 3a67 5a3e d3e1 1dbe bb6e 81bd
00000140: 61bb d639 7d9d 913d 68d0 29bf 5be7 113f
00000150: 44a5 7fbe d94c 01be d61e 5fbe 8b85 82be
00000160: 4353 c5be d9ad b23d 5244 26be 4cbf 64be
00000170: fbb6 81be cd62 253d 5381 513d 4956 c8be
00000180: b0bb 07bf 9869 27be c4f3 1e3e 8ff2 95be
00000190: 619d 27be ef0a 92be 7b49 4abe af1a f13c
000001a0: 3b21 1fbe eb9e ee3d 1175 ffbd 06bd b3be
000001b0: f4f1 4e3e a979 bbbe 9ae6 9dbe eac9 cbbd
000001c0: 906e dfbe d4b6 753e 8f26 1cbe bc6e 2cbd
000001d0: 36e9 39be 3170 c6be ae23 b0be d05c 073e
000001e0: 40e6 283e ee24 9ebe 264d ef3e b314 02be
000001f0: 3e26 bb3d 55a5 9dbe f00c 8cbe b9c6 d73e
00000200: c6a7 323e 242e 5fbe ebae b1bc 9f3c 72be
00000210: 5178 55bd d13a 0e3e 3296 363e 0b56 0bbe
00000220: 9ea7 f1be 5b6e 39be 805a c7be 3c96 cbbe
00000230: ede3 803e 1129 26bf a96a 49be 62f7 e0be
00000240: d7f3 6abe 6309 32bf a14f 18bd 9a3b 0fbe
00000250: e139 bbbe a48f f1be a45f 4d3e 43e8 c1be
00000260: 65a8 94be 6ddf 81be 5293 febe b2b1 12bf
00000270: 4716 85be 7019 debe 2cf8 01be 72af 37bd
-0.26983786 0.05452571 0.15112859 -0.108681336 -0.26627272 0.10942895 0.30769706 -0.10604123
-0.2575378 -0.11503968 -0.27956986 0.517797 -0.6784688 -0.56992483 0.0036956456 -0.54181015
0.17545423 -0.29748863 -0.6735658 -0.04602816 0.15298326 -0.033383008 0.08848891 -0.32154128
-0.55631953 -0.43366098 0.005937908 0.033588946 0.17108397 0.015833763 0.21570611 -0.22702093
0.14247352 -0.3858489 -0.5281845 -0.14378883 -0.56005603 -0.46789956 -0.11559936 -0.18133622
-0.33707005 0.25262964 -0.5704874 -0.50502867 -0.44476935 -0.417692 0.21587464 0.13361956
-0.50106984 0.2590748 -0.026497291 -0.4989898 -0.25125462 0.0032410158 -0.091419704 0.25492126
0.35007626 -0.18602528 0.05721806 0.48515382 0.45731384 -0.13678162 -0.050882056 -0.60838765
-0.076470785 0.018562771 -0.8346958 -0.12795632 0.041539643 -0.21734394 -0.3056839 0.043763146
0.15211928 -0.09928045 0.24957518 -0.40270212 0.6202973 0.2132844 -0.15418176 -0.06319948
0.0004095687 0.07110117 -0.6633363 0.56993645 -0.24965388 -0.12626971 -0.21789107 -0.2549251
-0.38540086 0.08724565 -0.16237 -0.22338599 -0.25334916 0.040377427 0.051148724 -0.3912833
-0.53020763 -0.16348875 0.15522677 -0.2928662 -0.16368629 -0.28523967 -0.19754593 0.029431669
-0.1554002 0.11651405 -0.124735005 -0.3510515 0.20209485 -0.36616257 -0.30839998 -0.099506214
-0.4363904 0.23995525 -0.15249084 -0.042097792 -0.18155369 -0.3875747 -0.3440222 0.13218999
0.16494083 -0.3088755 0.46738547 -0.12703209 0.091381535 -0.307902 -0.2735362 0.421438
0.17446813 -0.21794945 -0.021689853 -0.23655938 -0.052116696 0.13889624 0.17830732 -0.13607042
-0.47198194 -0.18108504 -0.38936234 -0.39763057 0.25173894 -0.6490641 -0.19669594 -0.43938738
-0.2294458 -0.69545573 -0.037185315 -0.1398758 -0.36567596 -0.47179902 0.20056015 -0.37872514
-0.29034725 -0.25365773 -0.4972177 -0.5730239 -0.2599356 -0.43378782 -0.12692326 -0.044845052

linear_sigmoid_stack.4.weight f4 [80, 160]
00000000: cfb9 423e e1b5 683f 0bc1 c2be 9adc 803d
00000010: 110a a0be 36d2 283e 458d 8fbf 3e4f 23bd
00000020: 271f af3e fd10 ca3e c4d1 e23f 17d6 e7bc
00000030: e98e cfc0 9daf 3bbe 1358 023f ecd3 72be
00000040: e528 05bf 699d 5fbd 8737 39be 8b6d b1be
00000050: 8905 1e3f fdfa 803f 552c 25bf 98e3 ef3e
00000060: d724 143e 7e5c 92be 0155 9c3e 5e64 2b3f
00000070: 4d5c b6be 9cc9 39c0 cea0 af3e 45a9 a13e
00000080: 1fdc 133e b10c f03f 6cca 8c3c 6838 14be
00000090: f6f1 b0be b2d4 1ebe 2b19 74be fa2c 62bf
000000a0: 032c 14bf 782b c4bd b78d f6bd 1b71 d83d
000000b0: eb2a 4ec1 2a7c b9be 91ef f23e 84c8 82be
000000c0: 5b91 f7c0 a263 a93e e2c7 4dc0 c8bd 853d
000000d0: c07e 4240 4831 853e 8250 1c3f 5e08 7dbe
000000e0: 5a7c e9be 16e2 8bbe ea81 32be e2ee 263f
000000f0: 3862 a93e 2fb4 9c3e a892 82bd cb58 0dc1
00000100: fb1a ab3c 69e7 25c1 c0ef c6be 64ec 52be
00000110: 602d 073f f2cf 5c3f 331b 50be dcdb 41c1
00000120: fb15 70c0 f14e 29bd 986e a0be 6b1b 2bbf
00000130: d783 b53e 7299 8d3f 5155 2f3e 8a61 d8bc
00000140: eaea 17be b9ad b9be 14b9 04be 0127 eb3d
00000150: 702c 49bf 03f2 d5be eec0 253f 0e7c 8b3c
00000160: 98c0 10c1 a094 eabe c550 10c1 da9a b8bf
00000170: 72aa 35bf 01d2 053f 88a1 1fbe 7f9e aabe
00000180: 8112 ecbe 5ebf 2b3f b021 48be aba5 f8c0
00000190: aaf6 8a3e c62d c53e a61e e8be d271 02c1
000001a0: 3688 0bbc 5425 4e3e fda8 3bbf ac05 b2bd
000001b0: b716 55bd d40c ec3c b0bb f5be b6e1 f1be
000001c0: dddd 283f dabc 0ebd 80f7 cb3e 41b4 d5c0
000001d0: a8da cd40 f5db 33be 4728 86bd fb9c 453f
000001e0: b93e 7c3e 8471 a040 5d9e f8bd 4852 23bd
000001f0: 6b2d 1a3e 40af cbc0 fad0 9f3d a590 04bf
00000200: f7d4 b8bc ef77 dd3d eacb b5bf c56b 3b3f
00000210: 27a5 1c3f b2eb 7dbf f61b 933e 9e3b 6bc0
00000220: 9c81 1f3f e1a5 da3e 6d0f 353e 4109 5cc1
00000230: c77d 4fbf cf15 383d 3da5 08bf da25 d23e
00000240: 9b26 5d3d 73ba 30c1 7257 02bb 2c51 173d
00000250: 7895 c6be 55fd a43e 694a 32bf e687 173f
00000260: bb93 9c3d 6bfc e9bd e793 693f 2966 903f
00000270: 292f fa3e d81d 563f 61ef 2e3e 861f babd
00000280: ff68 3e3d a1ec c33e 5dd9 263e 55d8 afbf
00000290: 68db 8ebf e055 563e 5872 8bbf ba23 29bf
000002a0: 000f 813d 3541 bdbe 5d3a 2c40 804e 0ebf
000002b0: 58e1 ab3e 23b5 3d3f a021 bc3e a9ac b2bf
000002c0: 1c04 37be 93b2 a1be 035f 923d 66bd c53e
000002d0: a90a 603f 89c2 cb3d 6982 a63e 4f3f 1a3f
000002e0: 4847 df3f 94ab 0540 f549 533e 7709 0fbe
000002f0: 6c82 1b3e 0aa9 99bc c3ac 333f 7e11 be3e
00000300: 612a 49bf 129f 8dbe c7f5 d0bd 1ad5 093e
00000310: 9c1c 3abf a313 76be a2e7 ee3c cd56 9f3e
00000320: 381d d63e c0a8 7dbe aa30 8a40 1ec5 723c
00000330: 4978 a5be 51b4 6c3e 5dda a93e 1fcf 763e
00000340: 08cd ce3e f73b 983d ce21 893e ab57 0cbf
00000350: 7341 9b3f d771 8040 dc88 dbbe 927d dcbd
00000360: 6d41 903e 21b8 28bf a9d7 273e 025d 6f3f
00000370: 3f6f e9bd 804a b43d 6617 6c3e 9408 cebe
00000380: 8411 373c a8aa 723f 7e28 493f bc9f 7bbf
00000390: 5d4a 0a40 70de 223e b752 5cbe f34d b63e
000003a0: 66d7 4e3f 65dc f73e d472 ac3f e9de acbe
000003b0: 62f9 943d 1eba 4c3e 8818 e33e 64e0 b63e
000003c0: 1e35 d23e 441f e43d a509 f13f ac34 073e
000003d0: cef6 2a3f 0a3c d1bf 7914 043f 74f6 07bf
000003e0: 9e58 59bf 3200 7140 8734 393e bf78 6f3f
000003f0: 0272 873e 7a23 abbe 2112 0b3d 3660 7fbf
0.19016193 0.90902525 -0.38037905 0.062920764 -0.3125768 0.16486439 -1.1214987 -0.039870493
0.34203455 0.39466086 1.7720265 -0.028300328 -6.486195 -0.1832871 0.5091564 -0.23713654
-0.52015525 -0.054593477 -0.18087588 -0.34653887 0.61727196 1.0076596 -0.6452077 0.46853328
0.14467178 -0.2858619 0.30533603 0.66950023 -0.35617295 -2.9029303 0.34302372 0.31574455
0.14439438 1.8753873 0.017186366 -0.14474642 -0.34559602 -0.15510824 -0.23837726 -0.8834988
-0.57879657 -0.095786035 -0.12038749 0.10568448 -12.885478 -0.36227542 0.474484 -0.25543606
-7.7364936 0.33083826 -3.2153249 0.065303385 3.0389862 0.2601416 0.61060345 -0.24710223
-0.45602685 -0.27320927 -0.17432371 0.65208256 0.33082747 0.3060622 -0.06375629 -8.834178
0.020886889 -10.368997 -0.3885479 -0.20597988 0.5280361 0.862548 -0.20322876 -12.116177
-3.7513416 -0.04133505 -0.31334376 -0.6683871 0.35452148 1.1062453 0.1712239 -0.026413698
-0.14835706 -0.36265352 -0.12961227 0.11482049 -0.7858343 -0.41786203 0.6474751 0.017026927
-9.04702 -0.45816517 -9.019719 -1.4422257 -0.70963204 0.52273566 -0.15588963 -0.33324048
-0.46107867 0.6708888 -0.19544101 -7.770223 0.27141315 0.38511485 -0.45335883 -8.152788
-0.008516362 0.20131427 -0.7330473 -0.08692488 -0.052023616 0.02881471 -0.47994757 -0.47242516
0.65963537 -0.03484807 0.39837265 -6.6782537 6.4329414 -0.17564376 -0.06550651 0.7719266
0.24633302 5.013857 -0.121395804 -0.03987339 0.15056388 -6.365143 0.07803531 -0.5178321
-0.022562487 0.10813891 -1.4202855 0.7321132 0.611895 -0.9918777 0.2873227 -3.6755137
0.62307143 0.4270468 0.17681666 -13.752259 -0.81051296 0.044942673 -0.53377134 0.41044503
0.053991895 -11.04552 -0.0019888547 0.036942646 -0.3878591 0.32224527 -0.6964479 0.5919174
0.07645365 -0.11425098 0.91241306 1.1281177 0.48864105 0.8363929 0.17083503 -0.09088044
0.04648685 0.3826647 0.16293855 -1.3737894 -1.1160707 0.20931196 -1.089427 -0.6607014
0.06301689 -0.36963812 2.6910622 -0.5558853 0.3357036 0.7410452 0.36744404 -1.3958942
-0.17872661 -0.31581554 0.07147028 0.38621062 0.87516266 0.09949214 0.3252137 0.6025285
1.7443628 2.0885973 0.20633681 -0.13968454 0.15186471 -0.018757362 0.7018549 0.3712272
-0.7858029 -0.27660424 -0.10203128 0.13460198 -0.72699904 -0.24030928 0.029163186 0.3112091
0.41819167 -0.24771404 4.3184404 0.014817504 -0.32318333 0.2311566 0.3317441 0.24102448
0.403908 0.074333124 0.26783603 -0.5482127 1.2129349 4.0138965 -0.42877853 -0.10766138
0.28174916 -0.6590596 0.16390862 0.93501294 -0.11398172 0.08803272 0.23055801 -0.4024092
0.01117361 0.9479165 0.7857741 -0.9829061 2.1607888 0.15905166 -0.21515928 0.35606346
0.8079742 0.48410335 1.3472543 -0.33763817 0.072741285 0.19992873 0.44354653 0.3571807
0.4105615 0.11138776 1.8831068 0.13203686 0.66782844 -1.6346447 0.5159374 -0.5311043
-0.84900844 3.765637 0.18086444 0.9354362 0.2645417 -0.33425504 0.033952836 -0.9975618

linear_sigmoid_stack.4.bias f4 [80]
00000000: c5e4 0fbf ded2 343e 7e17 47bb 24bb 2bbf
00000010: d73c 1ebf 14ce 5fbf 833b 4c3e faf8 d83d
00000020: 1861 393e b46f c3bd 1d36 42be 57c7 ffbe
00000030: 863a 42bc 1a32 f0be 488f 8bbb 1c05 24be
00000040: 67ff 883c 3df9 a9be c1bb 4ebe 6203 7fbf
00000050: b6ca b8be b97c 82bf d30c 1d3f 4b4e 8dbf
00000060: 51e6 5fbe 28d2 fdbe 1f3b 14be 017a 9ebe
00000070: 6154 473e 96d9 33be 07bb d7bd 8c8d 42bf
00000080: 66be 9fbe 2374 89bf cfa0 ebbd 7059 89be
00000090: 5ef6 adbe ba43 99be b6bb 9abf 80f2 09bf
000000a0: 2edb e5be 5f59 efbc 5f63 45bf 8217 f83e
000000b0: 72cd 513d 0db2 9ebe 6ee1 63bf 5f89 41bf
000000c0: 917f b3bd 616d 50be 3772 44be 344e dfbd
000000d0: 1741 efbe b609 a2be de8f e7be c5d3 d1be
000000e0: 760a 1cbe d30a 64be 6f46 94bf e3ae c7be
000000f0: 311b abbd c9c7 05be 18c2 16bf e226 e63d
00000100: 5dff 4abf bb42 d2be 3c20 1b3e 3504 5dbe
00000110: 2262 1fbf c4a9 5d3f 198d 89be f282 b9be
00000120: 0bb9 e8bd a4d9 9bbd 5cf0 7e3d 480c 1dbf
00000130: 43a0 12bf 196f 2abe cec9 34bf 81c2 abbe
-0.5620845 0.17658564 -0.0030378993 -0.6708243 -0.61811584 -0.87423825 0.19944577 0.105943635
0.18103445 -0.0954279 -0.18965955 -0.49956772 -0.011854773 -0.46913224 -0.004259024 -0.16017574
0.016723348 -0.33197966 -0.2018881 -0.99614537 -0.36092156 -1.0194312 0.61347693 -1.1039518
-0.21865202 -0.495744 -0.14475678 -0.30952457 0.19465782 -0.17563471 -0.105337195 -0.75997233
-0.3119995 -1.0738567 -0.11505281 -0.26826048 -0.33977026 -0.29934484 -1.2088535 -0.5388565
-0.44893783 -0.02921742 -0.77104753 0.48455435 0.05122132 -0.30995217 -0.89015853 -0.75600237
-0.08764566 -0.20354225 -0.19184195 -0.10903588 -0.46729347 -0.31648034 -0.4522695 -0.4098188
-0.15238366 -0.22269754 -1.1583995 -0.39000615 -0.08354796 -0.13064493 -0.58889914 0.11237885
-0.79295903 -0.41066536 0.15149015 -0.21583636 -0.62259114 0.86587167 -0.2686546 -0.36232716
-0.11363419 -0.07609871 0.062240943 -0.61346865 -0.5727579 -0.16643943 -0.7062043 -0.33546832

linear_sigmoid_stack.6.weight f4 [60, 80]
00000000: 375c cdbd fde2 0abf 58c5 3e3e 36a2 b5bf
00000010: 153c 24c0 e8d3 9cbf 6426 803e 9901 7fbe
00000020: 9141 57be de1a 5cbe 9189 56bf fdc9 83bb
00000030: e66b 62bf 62bf c13e 062b 043d 7c9e dd3e
00000040: 5fdc 983e dcf1 f23d 39b7 4bbf b621 e3bd
00000050: 5944 1fbe 17ac 40c0 d9c7 26bf ecae 243f
00000060: 6762 9fbd 22d0 fc3b 1b5d 4d3f 1bef 1abd
00000070: f124 0f3e 2e72 1abf b0ae 8cbd 42af 3e3e
00000080: 5fff ffbd 27bc 063f 70b3 c7be 605a 653d
00000090: 4696 7b3b 548f cbc0 48e3 bebd 42ab f8be
000000a0: f637 22bf 481b d8be 9468 bd3e e376 c4bc
000000b0: 631b 5cbd 3cdb 4abe f2e6 ad3f 75e7 20bf
000000c0: da0b 8ebe a915 c0be 677c 2c3d a90d 313d
000000d0: 43f1 1ac0 6064 cebf 8987 50be 6f71 623f
000000e0: fab8 debe da14 3dc0 902b 68be 928b 64bd
000000f0: d8ce 793f 35a7 abbf 8eec cd3e e6d1 dd3e
00000100: 435e 12bd fcca 0bc1 d18d f7bf 8229 92bf
00000110: 4f17 03bf c31f 8e3b 37b3 813e 231f e23e
00000120: df83 aa3e b33a c8be f5e5 93bb 82ed 7b3d
00000130: 0de9 1d3f 0984 36bf 929a 1c3d 7a7e d5bf
00000140: 94c0 d3bf 56a1 83bf fd91 623f 09db 3d3f
00000150: 7d87 0940 dd34 a1bc 70a4 35bf e2b8 95bd
00000160: bd8f 0b3e d1ba f73d 80ea 9fbe 587d b2be
00000170: 654b 49bf 55cb bcbe 0adc 13bf d95f 7abe
00000180: 64c9 16c0 9c45 d9be 746a ea3c 5829 2bbf
00000190: ff04 bcbd 3c33 41bf 8cf7 61bf c88c 4d3e
000001a0: 5818 44bd 8be7 ebbf c40c 78bc 2883 2fbf
000001b0: e738 f1bd 0a24 21c0 2eee c03f f781 0dbe
000001c0: d963 2540 bc03 e5bc b535 a3bc edfd 5d3f
000001d0: 339f 2abe 57f4 acc0 6f8a c8bb 3b14 b73e
000001e0: 3000 11be 4c32 2bc0 3b63 873e aae9 e2bd
000001f0: 3623 51bd d297 f93e 7c10 df3d ea22 4bbe
00000200: f964 9ebe fa56 4dbe 5652 423f 592a d13d
00000210: 5ab3 b73f 354d 60be 8dad 973f fc1d d03c
00000220: 2834 1dbe f74e 9cc0 2cfe eabc fcc2 1f3d
00000230: 134f 963d 7b47 463e e158 a5be 4da4 49be
00000240: f0ce f0bf 275a b33e 7a54 a93e fccc 0fbf
00000250: 0ad9 4f3e 57c3 ecbd 7a55 cabf 3d13 83bf
00000260: 534e 06be b4ab 9c3e 88f7 8cbd 771e 493f
00000270: 2e11 303f 9614 d53e 707a c03d ae30 3fc0
00000280: aedb 873e e231 95bf b8a8 bfbe cb6b 86be
00000290: 4c05 eebd aff0 7f3c f7ff 10bf 6a7a 143b
000002a0: 4728 4cbe d77a ce3c 89ea 26bf 87e0 883e
000002b0: ce54 c0be c6fe bf3c 7d8e d33e a881 c9bf
000002c0: 2483 553b 59ca 98c0 ea29 93be 37ec 78bc
000002d0: ee59 c03c b305 9d3e 0905 5fbf e68a 2cc0
000002e0: 19c7 dc3d 77b6 b3be a4fd a9bd 626d 293e
000002f0: 2e37 a73e f725 fc3e 091a ee3d e2d3 25be
00000300: e833 9cbf f667 f53c ebc8 b43d 184a 49bf
00000310: 98f5 6a3e c678 8b3e 7dff 673d 47ed aebd
00000320: c552 13be a515 76bf 3c70 a4be 46b6 1f3d
00000330: 3f1d d03d 25cd f7bd e0e6 e9bf 3a6b 3e3f
00000340: b2a4 2abd 74b0 7bbd fec9 54be a1fb 26bd
00000350: 1cd4 6ebf 44ba 41bf 8910 d6bd b3af ecbe
00000360: ad1e d4be 207e 283f b74b 05bd 7131 4bbe
00000370: fabb f9be 41ab 9f3e d7db 5e3e 1f37 13be
00000380: 82dd 0b3f 03b8 1bbe 5b82 173f 60ce 5cbc
00000390: a2bf d23e 3488 9d3b fa77 5ebf a604 febe
000003a0: 1d8b cdc0 da89 48be 032a 0bbe 63b4 dabe
000003b0: 6249 07be b4af 243d 754b 873c e179 bb3c
000003c0: 0369 523d 064b 5abf eade bb3e 2043 03be
000003d0: a1b0 043e f18e cabf 3789 c73d da82 2dbe
000003e0: dc62 37bf 7d64 2ebc cc4b aebe e958 e4bf
000003f0: 5264 00bf a080 0abe 07a8 cbbf bf5f 32bf
-0.10027354 -0.54252607 0.18629968 -1.4190128 -2.566167 -1.2252169 0.2502929 -0.24902953
-0.21021105 -0.21494624 -0.8380366 -0.0040218816 -0.8844589 0.37841326 0.032267593 0.43284976
0.2985563 0.11862537 -0.7957645 -0.11090414 -0.15553416 -3.0105035 -0.65148693 0.6432941
-0.07782441 0.007715241 0.8022019 -0.037825685 0.13978936 -0.60330474 -0.068692565 0.18621543
-0.1249988 0.5263085 -0.39004087 0.05599439 0.003838913 -6.361246 -0.09320694 -0.4856816
-0.6336664 -0.42208314 0.3699385 -0.02398247 -0.053737056 -0.19810194 1.3586104 -0.62853175
-0.27743417 -0.37516525 0.042110827 0.043225918 -2.4209754 -1.6124382 -0.20364203 0.88454336
-0.435005 -2.9543977 -0.22672868 -0.055797167 0.97581244 -1.3410403 0.4021954 0.43324202
-0.035734426 -8.737057 -1.9340154 -1.1418917 -0.5120744 0.0043372824 0.25332043 0.4416438
0.33303735 -0.39107284 -0.004513497 0.061505802 0.6168373 -0.7129522 0.038233347 -1.6679223
-1.6543145 -1.0283611 0.8850401 0.74162346 2.1488945 -0.019678527 -0.70954037 -0.07310654
0.1362905 0.12096179 -0.31233597 -0.34861255 -0.7863067 -0.3687388 -0.5775763 -0.24450625
-2.356042 -0.4243592 0.028615214 -0.6685996 -0.091806404 -0.754688 -0.8826835 0.20073235
-0.04787478 -1.8430036 -0.015139762 -0.68559504 -0.117784314 -2.5178246 1.5072687 -0.13819109
2.5842192 -0.027955882 -0.01992307 0.86715585 -0.16662292 -5.4048266 -0.006120018 0.35757622
-0.14160228 -2.6749449 0.26442894 -0.11079724 -0.05105897 0.48748642 0.10891816 -0.19837537
-0.3093641 -0.2005271 0.75906885 0.10213155 1.4351609 -0.21904452 1.1849838 0.025404923
-0.15351927 -4.8846393 -0.028685652 0.03900431 0.07339301 0.19363205 -0.32294372 -0.19691582
-1.8813152 0.35029718 0.33072263 -0.56172156 0.20297638 -0.115606956 -1.5807335 -1.0240246
-0.13115816 0.3059975 -0.0688315 0.7856211 0.68776214 0.41617268 0.09398353 -2.9873462
0.2653479 -1.1655848 -0.3743341 -0.26254115 -0.11622104 0.015621348 -0.5664057 0.0022655972
-0.1993724 0.025205059 -0.6520162 0.267338 -0.375647 0.023436915 0.41319647 -1.5742693
0.0032579387 -4.7747006 -0.28742915 -0.015193037 0.023480382 0.3066841 -0.8711706 -2.6959777
0.10780162 -0.35100147 -0.08300331 0.16545632 0.32659286 0.49247715 0.116260596 -0.16194108
-1.220334 0.029956799 0.088273846 -0.78628683 0.22945249 0.2724058 0.056640137 -0.08541351
-0.14387043 -0.96126777 -0.32116878 0.03899219 0.10161828 -0.12099675 -1.8273582 0.74382365
-0.041660972 -0.061447576 -0.20780179 -0.040767316 -0.93292403 -0.75674844 -0.104523726 -0.46227798
-0.41429654 0.6581745 -0.03254291 -0.19843079 -0.48776227 0.31185344 0.2176355 -0.14376496
0.5463487 -0.15206914 0.5918328 -0.013476938 0.4116183 0.0048074964 -0.8690182 -0.4961292
-6.4232316 -0.19583836 -0.13590245 -0.4271575 -0.13211587 0.040206626 0.016515473 0.022885265
0.05136968 -0.85270727 0.36693507 -0.12818575 0.12958004 -1.5824872 0.097429685 -0.16944447
-0.7163522 -0.010644075 -0.34042203 -1.7839633 -0.50153077 -0.13525629 -1.5910653 -0.69677347

linear_sigmoid_stack.6.bias f4 [60]
00000000: 5cf5 cebe 3ac3 7abf 0284 87bf 878f 9cbf
00000010: 6c81 7ebf 7232 c1be 7e79 a7bf 969e 70bf
00000020: d392 eebe 5825 e23c 8000 0ebf b524 7bbf
00000030: 30ae 1ebf 4d5f 6abf 3cc5 54bf adf9 35bf
00000040: c875 bebe eb95 833e 741c 83bf f647 7bbf
00000050: b1dd 84bf 7bae 0ebf ef09 fcbe 05d3 88bf
00000060: 206d 99bf d696 8abf 5ad7 37bf 5da9 58bf
00000070: ce81 57bf 73d3 8cbf caef a2bf 32ac 73bf
00000080: b311 0dbf d45b 08bf 229e 33bf 862f 96bf
00000090: e5dc 90bf e1a9 d5be 744e b43e b674 4fbf
000000a0: 3182 9cbf 565f 1dbf 0467 6dbf c68a 8bbf
000000b0: 1fc0 51bf 98a8 3bbe afc6 68bf 082e f1be
000000c0: b82e 25bf bc24 82be 1075 b3be f2a1 e9be
000000d0: b641 04bf 6d98 bcbf 6b36 32bf 6629 25bf
000000e0: 3265 81be 1013 0fbf 4270 22bf 4289 b8bf
-0.4042157 -0.9795414 -1.058716 -1.2231301 -0.9941623 -0.377338 -1.3083951 -0.9399198
-0.46596393 0.027605698 -0.5546951 -0.98102885 -0.6198454 -0.9155167 -0.83113456 -0.710841
-0.37199235 0.25700316 -1.0243058 -0.9815668 -1.0380155 -0.55734986 -0.4922633 -1.0689398
-1.1986427 -1.0827281 -0.71812975 -0.8463343 -0.8418244 -1.1002029 -1.2729428 -0.95184624
-0.5510513 -0.5326512 -0.70163167 -1.1733253 -1.1317412 -0.4173117 0.35216105 -0.8103746
-1.2227231 -0.61473596 -0.92735314 -1.0901725 -0.8193378 -0.18326032 -0.9092817 -0.47105432
-0.6452441 -0.2541865 -0.3505025 -0.45631367 -0.51662767 -1.4734017 -0.69614285 -0.64516294
-0.25272518 -0.5588846 -0.6345254 -1.4416888

outputlayer.weight f4 [12, 120]
00000000: d6d8 3c3e 283d 573c eff3 b23d 0301 133e
00000010: cbcc d93c 0b2b e9bc f971 27be 0ffa 913b
00000020: 58c2 c23b e215 9dba 48f5 d33c 79cc 933d
00000030: a1e7 833d 59b7 943d d3b6 803c a1d9 fa3b
00000040: f5b6 073e 86e6 4ebb eca2 3b3d 4b16 2abd
00000050: 5f75 07bd cf3b 8d3c 2f6e 513d 308e 0a3d
00000060: bbfd 8dbc 42dd 593d e6a8 4bbb 1e07 3e3c
00000070: ab18 a4bc f8db e13d c1fd 95be 60bc bbbd
00000080: f4a1 d5b8 1db1 f53c d7a7 3a3d acb0 143e
00000090: 3bcb 743c 805c 553e 1fcd 48b8 f7f0 e83d
000000a0: 8493 fbbc 4178 023d f408 b4bd 227d fcbc
000000b0: e006 45bc 34c3 c03b be3a b73d 9efb b03c
000000c0: 705d b8bc 169d 7f3d e80d ebbd c96b 07be
000000d0: ed79 87bc 90b6 52bd 3dc1 b53b 2bf7 b8bd
000000e0: 58ab 2b3c 8136 bdbc 5c02 e2bd 5579 c93d
000000f0: 5800 7ebc f83a ab3b a7f9 aabd eec3 34bf
00000100: 8ae6 b5bb b1af e9bc dfa7 923c edf9 2a3d
00000110: 4b04 823d a9ab e33b 2954 393b 3e68 4b3d
00000120: c010 a23f ad8e debc f292 7a3a aeff 09bf
00000130: 7b31 a1bd 222b 6339 20d1 613b 6bf6 513e
00000140: 6a30 47bf 5a0c 78bc 7211 963e 1119 073b
00000150: 0913 d9bb 7f5c d2bd c0d1 773c 6097 21bb
00000160: 55d5 1fbb 5726 a1be 57f2 7ebb 2951 493b
00000170: 5ee6 13bc eb75 afbd 3fe7 e2bb 2d45 01bb
00000180: c97b 22ba 70f3 77bb b6ca c1bb df4f 683f
00000190: 8c01 953c cfc8 08bd 8de3 c03c 5d50 19be
000001a0: a2b5 22be 0531 38be f9bf 0b3a ad08 e73d
000001b0: 954d b0bb d939 ecbd 5016 bdbd 022a db3e
000001c0: 699b bbbd e3e5 813d 3917 22be af32 603b
000001d0: 0445 9b3e 6216 6ebb 5bfe 01bd 6f23 5ebf
000001e0: 7ce9 fdbb d0ad 37be a779 8e3e 7802 c1bd
000001f0: 8abb debc 6385 6dbe ffad b33d d75f 3b3e
00000200: eb8c d9bd 81e3 813e a1ee ed3c a16f 97bf
00000210: 8c84 873e ff14 bfbe ad95 bebd 7a7c 183f
00000220: cdd0 90bd 83f5 4b3d 1011 cabb af1b 543e
00000230: e127 30bd 8bdc c53d 3e16 d1bb dfa3 74bd
00000240: fef3 cabb b6f9 0fbc bcab 093f 1bc4 ecbc
00000250: 989f 463f a83a 063d 71c2 ab3b d571 2bbf
00000260: 83b9 acbe 7786 8e3f 9e3d 95bd e972 233f
00000270: 3279 9a3d 44c7 0b3d d5d8 a03e f74b edbc
00000280: 16eb 293d 101c 2fbe bacf 3bbd 119f 923e
00000290: 6b38 09be 906e a53f 4298 fcbd 819d 7f3e
000002a0: d7c5 c33d c4db 0b3c 6252 3a3d f19c 1ebc
000002b0: 0e9b 0b3f e650 933d eee3 a1be 8625 363f
000002c0: 8988 9a3f ba49 933d 5c0e 55bc 9022 d5bd
000002d0: e4ac 22be d56d 243f e1b7 0b3d 8445 9abd
000002e0: 117e f4bb 8174 1a3d e60c b1bc 6950 2c3f
000002f0: 149b 31bf a0b2 c63d dcce 313b 9b63 bd3e
00000300: aea9 c8bc 50c7 91b9 3231 82b8 343c a8be
00000310: b8be 23be 6fb1 dc3b 6afc d4bd 1c03 af3b
00000320: 9f0d 443d 78e2 e7bc 4899 3dbb 73d1 f83b
00000330: e914 9cbc 6fe9 dd3c 8704 693b 1ad3 0f3c
00000340: 4323 46bd c2af 353d 7750 eeba 5369 003f
00000350: 8f27 6239 1cdf d5bd a570 19be 49ef d83c
00000360: c392 28bc b464 ed3d 97ce 96be a4b4 343f
00000370: dde7 c33d f520 2a3e a1dd 93bc 890e 0bbc
00000380: b1e8 613e 2e62 0dbf be88 a2bb bb7c 25bf
00000390: a19b 273d de04 20be d724 ed3c 946d ce3b
000003a0: 5678 df3c aefe 04be 41d7 17bd bdc4 cdbd
000003b0: 4545 9bbf 4ffd 993d 9553 743c b3a8 1fbc
000003c0: b083 973c eb34 e13c f0fb 823b 3d1e 823c
000003d0: a72f a53d ae44 0ebe 504b dcbb 937c 053d
000003e0: 2861 d93d a662 0d3b 0cd5 29bd 1b5c 8fbd
000003f0: 050d 103d a484 343c 08db 1ebd 41ba acbd
0.18442091 0.013137139 0.08737933 0.14355855 0.02658691 -0.028462907 -0.16352071 0.004454858
0.0059435777 -0.0011984671 0.025873795 0.072167344 0.06440664 0.07261533 0.015712177 0.007655338
0.13253386 -0.0031570508 0.04580967 -0.041525166 -0.03307092 0.017240433 0.05113047 0.033827007
-0.017332902 0.053189524 -0.0031076013 0.011598377 -0.020031294 0.11028284 -0.2929516 -0.09166789
-0.000101867976 0.02999168 0.04557022 0.1452052 0.014941032 0.20836067 -4.787475e-05 0.113740854
-0.03070999 0.031852964 -0.0879077 -0.030821387 -0.012025565 0.005882645 0.08946751 0.021604355
-0.022505492 0.06240567 -0.11477262 -0.1322471 -0.01653763 -0.051443636 0.0055467174 -0.090315185
0.010477863 -0.023097279 -0.11035606 0.098375954 -0.015503012 0.0052255355 -0.08348399 -0.70611465
-0.005551164 -0.028526159 0.017902313 0.041742254 0.06348475 0.0069479537 0.0028278923 0.04965996
1.2661362 -0.027167642 0.000955864 -0.5390576 -0.07870766 0.00021664475 0.0034456924 0.20504157
-0.7780825 -0.015139664 0.29310185 0.0020614306 -0.0066245836 -0.102715485 0.015125692 -0.0024656877
-0.002438863 -0.31474563 -0.003890177 0.0030718541 -0.009027092 -0.08567413 -0.0069245393 -0.001972507
-0.0006198255 -0.003783431 -0.0059140576 0.90746874 0.018189214 -0.03339463 0.023546005 -0.14972062
-0.158896 -0.1798745 0.00053310354 0.11280952 -0.0053803422 -0.11534471 -0.092327714 0.42805487
-0.091605015 0.063426755 -0.15829171 0.0034209897 0.30326092 -0.003632926 -0.031736713 -0.8677282
-0.007748781 -0.17937398 0.27827188 -0.09424299 -0.027189035 -0.23195414 0.087734215 0.18298279
-0.10622581 0.25368884 0.029044451 -1.1830941 0.26468313 -0.37320706 -0.09305892 0.59564936
-0.070710756 0.049794685 -0.006166585 0.20713685 -0.04300678 0.09661206 -0.0063808253 -0.059726592
-0.006193637 -0.008787563 0.5377767 -0.028902104 0.7758727 0.032770783 0.005241685 -0.6697057
-0.33735284 1.1134785 -0.07287143 0.63847214 0.075426474 0.03412558 0.3141543 -0.028966887
0.04148396 -0.17100549 -0.0458524 0.28636983 -0.13400428 1.2924366 -0.123337284 0.24962427
0.09559219 0.008536283 0.045488723 -0.009680972 0.5453347 0.071931645 -0.3161921 0.71151006
1.2072917 0.071917966 -0.013003912 -0.10406983 -0.15886265 0.6423009 0.034110907 -0.0753279
-0.0074613173 0.037708763 -0.021612596 0.67310196 -0.69377255 0.09702039 0.0027131354 0.36990055
-0.024494972 -0.00027805055 -6.2080464e-05 -0.3285843 -0.15990722 0.006735019 -0.10399707 0.005340947
0.047864553 -0.02830623 -0.0028930474 0.0075933277 -0.01905294 0.027088849 0.0035555677 0.008778358
-0.048373472 0.04435707 -0.0018181939 0.5016071 0.00021567776 -0.10442945 -0.14984377 0.026481288
-0.010288897 0.11591473 -0.2945449 0.70588136 0.09565709 0.16614135 -0.018050017 -0.008487352
0.22061421 -0.55227935 -0.0049601486 -0.6464345 0.040919904 -0.15626857 0.02894823 0.006299684
0.02727906 -0.12987778 -0.037070516 -0.100472905 -1.2130514 0.07519018 0.014912506 -0.009744811
0.01849541 0.027491054 0.0039973184 0.01588356 0.080657296 -0.13893387 -0.006722845 0.032589506
0.10614234 0.0021573692 -0.041462943 -0.069999896 0.035168666 0.011017952 -0.038783103 -0.084339626

outputlayer.bias f4 [12]
00000000: 3a22 8d3d a1a9 a03e a15c a93e 997f 8d3e
00000010: 7bdf da3e 964e e93e a875 213e b535 6e3e
00000020: 1b46 a53e d6b8 073f 1836 ea3e e6cf 0b3f
0.06891294 0.31379417 0.33078483 0.27636412 0.42748627 0.4556777 0.15767539 0.23262675
0.3228005 0.5301641 0.45744395 0.546141
