Training_Nets_Python/models/pytorch/MATLAB_net_2p_SD.pt (torch_old, 583904 bytes, 14 tensors)

c1.weight f4 [2, 1, 32]
000000 3d 52 81 bf fd cf c5 bd fd ce 63 3f 52 a5 de 3f
       -1.0103222 -0.09658811 0.88987714 1.7394202
000010 b7 d3 83 3f 66 24 10 3f 2c 46 ec 3d db c4 c1 be
       1.0298985 0.5630554 0.11536822 -0.378455
000020 23 9c 35 bf 8e 00 a7 bf 94 30 51 be c9 fd 56 3f
       -0.7094137 -1.3047044 -0.20428687 0.83980995
000030 9a 03 79 3f 3a ed 5c 3e 73 12 cd be c7 de 69 bf
       0.9727112 0.2157487 -0.40053138 -0.91355556
000040 db 65 a1 bf e6 d1 a4 bf c4 ba 94 bf 3c 8d 71 bf
       -1.2609209 -1.2876556 -1.1619496 -0.9435613
000050 ca 40 89 bf df ad 35 bf 1c e5 64 be 56 5f 3f 3e
       -1.0722897 -0.7096843 -0.22353023 0.18688712
000060 da 88 0e 3f 01 8a 3b 3f 12 08 58 3f 3d f2 92 3f
       0.5567757 0.7325745 0.84387314 1.1480175
000070 9d 19 c4 3f 73 ea da 3f 91 9a 07 3f 8c 31 7a be
       1.5320317 1.7102798 0.52970225 -0.24432963
000080 e2 f0 2b 3e ac a3 73 bf d0 95 cf bf 4f 33 f6 bf
       0.16791108 -0.9517162 -1.6217594 -1.9234408
000090 e1 a7 0e c0 3d 53 12 c0 a5 40 11 c0 cc e9 11 c0
       -2.2289965 -2.2863305 -2.2695706 -2.2798948
0000a0 52 b6 11 c0 72 be 10 c0 5d 2b 12 c0 4c fe da bf
       -2.276753 -2.2616239 -2.2838967 -1.7108855
0000b0 2c c9 d1 bf 76 3a e8 3f 6e 7c fd 3f 7d 01 3d 40
       -1.6389518 1.8142841 1.9803598 2.9532158
0000c0 25 85 21 40 52 fa 2a 40 f7 44 23 40 fb 22 1d 40
       2.5237515 2.6715283 2.5510843 2.45526
0000d0 fa 23 26 40 e6 6a 13 40 a0 f0 14 40 f9 a7 1f 40
       2.5959458 2.3033996 2.3271866 2.4946272
0000e0 7e 8d 11 40 c4 03 18 40 97 c4 aa 3f b0 73 78 3f
       2.274261 2.3752298 1.3341244 0.97051525
0000f0 e4 6d a7 be 37 20 2f c0 fe f7 2e c0 53 71 52 c0
       -0.32701027 -2.7363412 -2.7338862 -3.2881668

c1.bias f4 [2]
000000 34 dc 1a bf 1a a5 df 3f
       -0.60492253 1.747226

c2.weight f4 [2, 2, 16]
000000 a3 5d d6 bf 7a d1 0c be 4a 03 43 bf d4 5d 0d bf
       -1.6747326 -0.13751784 -0.76176894 -0.55221295
000010 13 76 8d be f8 fa bb be d0 8c 5b bf 52 33 cd bf
       -0.27629146 -0.3671491 -0.8576174 -1.6031287
000020 e2 c5 af bf ca 92 e9 bf a8 79 a9 bf 3e 64 80 bf
       -1.3732264 -1.8247921 -1.3240252 -1.0030591
000030 ba 29 8c bf df 13 6d bf 27 b6 0e bf 50 d0 23 bf
       -1.0950234 -0.92608446 -0.5574669 -0.63989735
000040 e4 9f 0a bd 40 26 e6 bd 4d c9 17 3d 6f a1 ac 3c
       -0.03384389 -0.11237764 0.03705721 0.021073071
000050 e4 cc e4 3d a0 f8 0f be 39 0e 3b 3e 6a c4 9d 3d
       0.11171892 -0.14059687 0.18267144 0.07703479
000060 ac 0c 64 bc f8 20 84 be 61 c1 07 bd e2 47 ef bd
       -0.013919037 -0.25806403 -0.033143405 -0.116836324
000070 e6 c7 38 bd 84 98 c3 3e bd f7 0a 3f 6f 9b c8 3f
       -0.045112513 0.38202298 0.5428427 1.5672435
000080 1d 36 9d 3f d7 b7 ba 3f 92 ab 27 40 2f a8 51 40
       1.2282139 1.4587353 2.6198468 3.27589
000090 4f c3 de 3f 68 4b aa be a0 5d be bf 25 46 96 bf
       1.7403353 -0.33260655 -1.4872322 -1.1740156
0000a0 c8 f2 e3 bf bd 69 cf bf 0c 88 ca be f3 c0 72 3f
       -1.7808466 -1.6204144 -0.3955692 0.9482567
0000b0 e4 91 17 40 02 e0 bd 3f 2e ad ab bd bb ee 41 bf
       2.3682795 1.4833987 -0.08382641 -0.757549
0000c0 76 14 97 bf 48 b2 d4 bf 9d 5d eb be a5 45 14 3e
       -1.1803119 -1.6616907 -0.4596986 0.14479692
0000d0 0d cb a0 3f 12 c5 40 3f 1d 1e 3b bd f0 ad 84 bf
       1.2561966 0.75300705 -0.045683015 -1.0365582
0000e0 4c 83 95 bf de 36 05 3e 16 dd 1f 3a 9c fd 1e bf
       -1.1680694 0.13009211 0.0006098313 -0.6210573
0000f0 c7 06 55 be 06 56 13 be 35 b9 b1 3e f4 45 02 bf
       -0.20803367 -0.14388284 0.34711614 -0.5088799

c2.bias f4 [2]
000000 78 15 0d 40 64 80 ed bf
       2.2044353 -1.8554807

linear_sigmoid_stack.0.weight f4 [320, 234]
000000 8b 54 29 bf 35 fc 32 bf 44 fb 47 bf 10 1e ba be
       -0.6614463 -0.6991609 -0.78117776 -0.3635106
000010 4c c6 91 3d 4f ee e1 3c 52 24 79 be 7b 2f 0e bf
       0.071179 0.027579455 -0.24330261 -0.555412
000020 70 16 39 bf 68 b7 20 be fc ea 9f 3e 54 fa b3 bd
       -0.7229986 -0.15694964 0.31233966 -0.08787981
000030 c1 be 94 bc 50 87 b1 3d 92 ef 48 bd cb cf 51 be
       -0.018157365 0.08668387 -0.049056597 -0.20489423
000040 49 38 1b be 86 28 07 3e 8a b6 77 3e f9 67 17 3f
       -0.1515819 0.13199052 0.24190727 0.59143025
000050 3a 49 ae 3e d1 25 82 3e 23 34 bb 3b 5b 95 dd be
       0.34040242 0.25419477 0.0057130023 -0.43278012
000060 35 af a4 bd 86 a8 9c 3e e5 92 33 3e 57 1f 4f be
       -0.080412306 0.30597323 0.17536505 -0.20226799
000070 78 05 e9 bc 95 4c 7e 3e 2e 85 9f be b8 ee a4 be
       -0.02844499 0.24833901 -0.31156296 -0.32213378
000080 87 4f ae 3d e6 3c 66 be 04 bb 6f be 69 a1 d7 be
       0.085112624 -0.22484168 -0.23411185 -0.42115334
000090 5f b4 74 bd 62 47 4b be dd 91 17 3d cf 0f 4d be
       -0.059742328 -0.19851449 0.03700434 -0.20025562
0000a0 45 07 4e 3b b0 0a 6c be 00 47 87 bd c0 03 c6 be
       0.0031437438 -0.23050952 -0.06605339 -0.38674736
0000b0 31 6a c2 be 86 db 62 bf 32 e5 49 bf 20 57 1a 3d
       -0.37971643 -0.88616216 -0.7886535 0.037680745
0000c0 4b ad 2d 3f 11 0c d2 3e 35 41 eb bd 66 80 82 3d
       0.6784255 0.4102483 -0.11487047 0.06372146
0000d0 b7 79 ae be 64 9d d5 3e a0 d7 83 3e 1e 85 d2 3e
       -0.34077236 0.41721642 0.25750446 0.41117185
0000e0 50 1a b4 3d e6 50 d7 3d f7 df 6c 3f 78 df b0 3e
       0.08794081 0.10513477 0.92529243 0.34545493
0000f0 62 1c 00 3f 54 68 77 3e d2 30 1e 3f 61 8f 11 3f
       0.5004331 0.24160892 0.61793244 0.56859404
000100 12 36 64 be 8a 43 52 bd df fd b3 bd 78 11 32 be
       -0.22286251 -0.05133394 -0.087886564 -0.17389476
000110 cc 60 df 3e 20 05 66 3d c2 2a 76 bd cc 0e d9 be
       0.43628538 0.05615723 -0.06009937 -0.42394102
000120 a7 8f 32 bf 40 e8 29 bf e4 fe 6b bd 1a 2b b3 3c
       -0.69750446 -0.6637001 -0.05761613 0.021871138
000130 a1 22 38 3f 0f e9 91 3f 2b f5 7a 3e da 46 cc 3c
       0.7192784 1.1399249 0.24507587 0.024936128
000140 cc b5 1a 3c 22 9e 69 be 1a b3 28 bf 12 cb 49 bf
       0.009442758 -0.22814229 -0.6589829 -0.78825486
000150 67 76 78 bf dc 0f af bf 76 01 b0 bf 17 f0 76 bf
       -0.9705567 -1.3676715 -1.3750446 -0.964601
000160 c7 ac c4 be 50 ca 84 bf 1a 56 c4 bc 9c b8 ad 3e
       -0.3841307 -1.0374241 -0.023966838 0.33929908
000170 66 7c 02 3e 5e 9e 65 be 6e cd 51 bd dd 9b 88 3f
       0.12742767 -0.22423694 -0.051221304 1.0672566
000180 98 60 3d 3f 96 6c a0 3f b1 89 dc 3f 3b ec 74 3f
       0.73975515 1.2533138 1.722952 0.9567296
000190 db 28 a4 3f 0d e0 b1 3f 81 72 b0 3f 25 f3 14 40
       1.2824968 1.38965 1.3784944 2.3273404
0001a0 46 e3 e9 3f 44 74 99 3f 80 75 10 3e 46 b5 13 be
       1.8272483 1.1988606 0.14107323 -0.14424619
0001b0 b0 fc ea be 8f ca b8 bf 5e cb 28 c0 6c c6 9a c0
       -0.4589591 -1.4436816 -2.6374125 -4.8367214
0001c0 13 f8 c0 c0 e9 9e fd c0 13 d9 1f c1 ad 6f 34 c1
       -6.0302825 -7.925648 -9.990497 -11.277265
0001d0 e5 7c 20 c1 03 81 0c c1 78 a6 c9 c0 a0 78 93 c0
       -10.030492 -8.781497 -6.301571 -4.6084747
0001e0 a8 d4 20 c0 1d 54 b3 bf 96 5b 8e bf 1e 48 67 bf
       -2.5129795 -1.4010044 -1.11217 -0.9034442
0001f0 ff 71 0a c0 32 36 08 c0 bb 7c 7a bd 81 ff 0a bf
       -2.1632078 -2.1283078 -0.06115411 -0.5429612
000200 f6 b4 9a 3f d2 47 c8 3e 6c 03 e2 3f 83 e6 88 3f
       1.2086475 0.39117295 1.7657294 1.0695347
000210 f8 c9 bd 3f 9d 53 cf 3f cd ca 8c 3f cb b0 ae 3f
       1.4827261 1.6197392 1.099939 1.3647703
000220 ac 83 70 3f 28 9b 72 3e ea 23 e4 be 84 39 4e 3b
       0.93950915 0.23692 -0.4455865 0.0031467387
000230 54 e2 70 3e 68 a7 1e bd 7d 8b 29 bf 87 97 b0 bf
       0.23523837 -0.03873387 -0.6622847 -1.3796242
000240 31 34 cf bf 8c b0 70 be c8 e9 51 3e f8 ac 83 3e
       -1.6187803 -0.23504847 0.20499337 0.25717902
000250 c1 62 01 3f 91 90 4b bf d7 24 4e bf 64 73 d2 3d
       0.5054131 -0.79517466 -0.80524963 0.10275915
000260 71 03 82 bc ac 49 fd 3e db b9 33 be 06 42 53 3e
       -0.015870782 0.4947027 -0.17551367 0.20630655
000270 b1 1f ff 3c f4 80 3a 3e c6 d3 8d 3e 0e ed 9e bd
       0.031143041 0.18213254 0.27700633 -0.07760058
000280 0d 7b be be 08 7c 44 bd a2 c5 3c 3e 3d 91 8e be
       -0.37203255 -0.047969848 0.18434766 -0.27845183
000290 1c 8e 90 be 07 3d bf 3d 77 9d eb 3e c7 8e bb 3e
       -0.2823342 0.09337812 0.46018574 0.36632368
0002a0 4f 66 b5 3e 1d c7 86 3e b8 6d 84 3e 46 50 ee bc
       0.35429618 0.26323786 0.2586496 -0.029091012
0002b0 e7 b1 b8 3e 71 96 0c 3f 17 89 ca 3e 00 6b 63 3e
       0.3607323 0.54917055 0.39557716 0.22208786
0002c0 f7 93 38 3c f1 d3 02 be 34 53 ef be 3d e8 d7 be
       0.011265746 -0.12776162 -0.46743166 -0.4216937
0002d0 18 fe f4 bd 85 30 fd 3d 8b 0b bf bd 91 a2 df be
       -0.11962527 0.1236277 -0.093283735 -0.43678716
0002e0 79 7e 69 be fa 61 09 bf 37 d7 f2 be 5b 65 d1 be
       -0.22802152 -0.53665125 -0.4742982 -0.4089764
0002f0 96 06 00 be 9c 5a fd bd 8f 67 54 3e dd 96 1f 3f
       -0.12502512 -0.12370798 0.2074263 0.62339574
000300 4c b4 16 3f 43 1a b8 3e eb 88 f4 3e b4 79 b8 3d
       0.5886886 0.35957536 0.4776071 0.09007588
000310 79 da 37 be a8 36 b3 be 2d 19 a8 be 12 bd 59 be
       -0.17954434 -0.35002637 -0.32831708 -0.21263531
000320 7f 7f 66 be f4 f1 d3 bd 5a b7 31 be a5 b6 c4 3d
       -0.22509573 -0.10348883 -0.173551 0.09605149
000330 0f a4 89 3e 1d 65 a2 3e 3c 35 18 3e c4 cc 80 bd
       0.2688298 0.31717768 0.14864057 -0.06289056
000340 98 b4 2e be ff 4f e3 bd ea fc 92 3c 8f a1 61 be
       -0.17061079 -0.110992424 0.017942864 -0.22034286
000350 50 43 fe bd da d5 a0 be 5a a2 cf be a2 5f 3e be
       -0.124151826 -0.31413156 -0.40553552 -0.18591169
000360 df cf 50 3e d1 92 cd 3e ee 61 c7 3e 95 f3 75 3e
       0.20391797 0.40151075 0.38941902 0.240187
000370 f9 67 93 3e b4 e6 66 bd 56 d4 21 3d 51 54 53 3d
       0.28790262 -0.05637236 0.03950914 0.051594082
000380 1a 68 45 3e 3c c5 ff 3d c4 44 3e be 64 d0 d2 3c
       0.19277993 0.12488791 -0.1858092 0.025734134
000390 9b ca 47 be 64 a9 c1 be 0b cb 27 be f9 90 d3 be
       -0.19510882 -0.37824547 -0.16386048 -0.41321543
0003a0 e2 ff 08 bf 75 57 a2 be 31 b3 42 40 9c a4 ea 3f
       -0.53515446 -0.3170735 3.042187 1.8331485
0003b0 b1 76 74 3f ef 75 1d 3f a3 70 2e 3f 41 fb 7f 3d
       0.9549361 0.6150808 0.6814062 0.062495474
0003c0 7a 4c 1f 3e d7 aa f0 bb e6 15 c6 3d 5b 44 d8 bc
       0.15556517 -0.0073445844 0.096721455 -0.026399782
0003d0 7f 89 71 3d fd 6c 16 3e 17 1b 0f be b2 25 c5 be
       0.058969017 0.14690013 -0.13975178 -0.38505322
0003e0 25 dd f7 bd d1 02 5f be 2e ee 7a be 05 a2 86 be
       -0.12102727 -0.21778418 -0.24504921 -0.26295486
0003f0 45 50 a0 3d e7 c5 52 3e 20 7c 29 3e 8c e9 55 3e
       0.0782781 0.20583306 0.16551256 0.20889872

linear_sigmoid_stack.0.bias f4 [320]
000000 d3 75 bc 3f 40 80 5d be aa 54 49 3f ab 49 d0 be
       1.4723457 -0.21630955 0.7864481 -0.40681204
000010 6f d6 16 3f ed ff 49 bf da fd 2b bf d0 e1 ca 3f
       0.5892095 -0.78906137 -0.6718422 1.5850163
000020 44 b4 41 3f c5 70 98 bf 0c 0b 05 c0 04 4c 0d bf
       0.7566569 -1.1909415 -2.0787992 -0.55194116
000030 83 0c 88 3f cf 24 99 bf ad 99 2c bf bd 6b 68 bf
       1.0628818 -1.1964358 -0.6742199 -0.90789396
000040 66 be ca bf c4 0d 48 3f f8 c6 a1 be 31 98 3f 3f
       -1.5839355 0.78146005 -0.31597114 0.748416
000050 b2 e0 17 bf 4a d3 3a bf 1f 70 80 bf c4 6b d2 bf
       -0.5932723 -0.7297865 -1.0034217 -1.6439137
000060 18 5c 86 3e 2c 03 be be 6a 31 8f bf 1e 57 a6 bf
       0.26242137 -0.37111795 -1.1186955 -1.2995336
000070 99 46 bc 3e ed 39 15 c0 bc 2d e7 bf 2e 85 cb bf
       0.36772612 -2.3316605 -1.8060832 -1.5900018
000080 e2 4a c5 bf 50 63 88 bd d2 60 93 bf 58 ee 00 c0
       -1.5413477 -0.06659567 -1.1513922 -2.0145473
000090 e5 14 3b c0 99 d9 4b 3f a8 0f bd bf 00 47 98 3f
       -2.9231503 0.796289 -1.4770403 1.1896667
0000a0 fb fb 5b be 57 d2 06 40 f3 8c e7 3f 33 4f d2 3f
       -0.21482842 2.1065881 1.8089889 1.643042
0000b0 95 e9 75 bf 26 e1 a7 bf e7 b1 06 40 41 4e 26 bf
       -0.9605954 -1.3115585 2.1046083 -0.64963156
0000c0 17 d3 72 bf f2 6c 09 c0 ef 2f d9 bf c2 c3 bf be
       -0.9485335 -2.1472745 -1.6967753 -0.3745404
0000d0 9a 72 e1 3f b2 9b c9 be 94 20 1f c0 ea bb d1 bf
       1.7613099 -0.393766 -2.4863634 -1.6385472
0000e0 4a 56 58 bd 97 40 f8 bf dc ae 88 3f 27 ab 3d bf
       -0.052816667 -1.9394711 1.0678363 -0.7408928
0000f0 20 ce 91 be ba 3b ae bf 64 c4 30 3f 76 6b 5c 40
       -0.28477573 -1.3611977 0.6904967 3.444059
000100 3f 5a 95 3d 8a 6c 98 bf 28 e5 33 3e 20 d9 8d be
       0.07292604 -1.1908123 0.17567885 -0.27704716
000110 ce 0d 13 bf 1a ad bc 3f d5 8d d0 3f ad 9b ac bf
       -0.5744294 1.4740326 1.6293284 -1.3485008
000120 83 02 a4 bf a6 9f d8 be 35 02 b7 bf 42 f1 54 bf
       -1.2813267 -0.42309302 -1.4297549 -0.8318063
000130 07 41 96 bf 7f a2 86 bf c4 b3 94 3d a5 8d da bf
       -1.1738595 -1.051834 0.0726085 -1.7074476
000140 68 84 da bf 50 20 ea be 6f 7d da be 51 d0 58 bf
       -1.7071657 -0.45727777 -0.42673823 -0.84692866
000150 cf 08 2a bf 8b 2e aa bc 6d 99 58 3f 5e 82 16 bf
       -0.6641969 -0.020774147 0.8460911 -0.58792675
000160 23 73 1e bf e1 2f e6 bf c9 2f 9b 3e 7a b6 dc be
       -0.61894435 -1.7983361 0.30309895 -0.4310797
000170 85 ab ed 3e cf da 22 bf 34 a5 3e c0 24 09 2a bf
       0.46419922 -0.63615125 -2.9788332 -0.664202
000180 e2 8f 83 bf a8 d9 a4 3e 90 72 69 bf 28 fd 81 3f
       -1.0278285 0.3219731 -0.91190434 1.0155382
000190 2c 02 7d bf e2 c5 c9 3e f7 e6 35 3d e2 b1 5c be
       -0.9883144 0.39408785 0.04440972 -0.21552232
0001a0 e2 8a 94 bf 22 2b 9e bf dd d4 3b bd cd b1 70 3e
       -1.1604884 -1.2356913 -0.0458573 0.23505326
0001b0 84 e1 9e 3e 26 17 61 c0 62 21 9e bf cd c8 e0 bf
       0.3103143 -3.5170379 -1.2353938 -1.756128
0001c0 c1 0f ce bf 10 a5 00 3f 58 c2 8b 3e 2e 8b 60 bf
       -1.6098558 0.50251865 0.2729671 -0.8771237
0001d0 0f 02 c9 be b1 d1 cd 3f f7 a8 96 bf 77 47 05 c0
       -0.39259383 1.6079618 -1.1770314 -2.0824869
0001e0 e3 47 96 40 0b dc d6 bf a6 cb 09 3e 6f e3 7b 3f
       4.696275 -1.6785902 0.13456592 0.9839391
0001f0 be 39 d9 bf 98 5b 07 40 96 d3 80 bd 03 e7 36 40
       -1.6970747 2.1149654 -0.06290357 2.8578498
000200 f8 53 98 3f f0 3f 60 bf 77 52 f7 bf c5 40 1d 3f
       1.1900625 -0.8759756 -1.9322041 0.61426955
000210 0c 5c 21 3f 02 54 a5 be f6 2b da bf c0 ac 85 bf
       0.6303108 -0.32290655 -1.7044666 -1.0443344
000220 bd d2 28 3e 32 1f ac be c8 da ae bf 67 f7 1e 3f
       0.1648664 -0.3361755 -1.3660517 0.62096256
000230 43 1f 00 40 c4 24 9f 3e b6 e2 b4 be b1 a7 12 c0
       2.001908 0.31082737 -0.35329217 -2.291485
000240 b2 97 1a bf e6 ac 01 3e a8 f4 55 bf 1d 9b f7 bd
       -0.6038772 0.12663612 -0.8357644 -0.120901324
000250 a3 c1 e9 bd 5d a2 33 bf c6 c9 87 be bd ee d6 be
       -0.114138864 -0.7016962 -0.26521128 -0.41979018
000260 3e 7c e9 3f ce 27 e0 3e bc 18 7e 3e cb 23 10 40
       1.8241041 0.4378037 0.24814123 2.2521846
000270 02 27 43 be 6e 92 39 bf fb d4 2b c0 39 4d a7 bf
       -0.19057849 -0.7248906 -2.6848743 -1.3070441
000280 37 9a ce bd 4a 9b 62 40 8a 35 86 bf 61 c6 f7 bf
       -0.10088008 3.540728 -1.0485089 -1.9357415
000290 df 8a 36 bf 01 0e 22 3f 8d 77 83 be f0 e3 e3 bf
       -0.7130565 0.6330262 -0.25677148 -1.7803936
0002a0 ef 85 09 bf f1 07 b0 bf 69 39 d4 be ef d8 32 bf
       -0.5371999 -1.3752424 -0.4145005 -0.69862264
0002b0 75 3b 09 c0 7a da 6a 3f 16 80 21 bf 18 cc 37 40
       -2.144254 0.9173962 -0.6308607 2.871832
0002c0 8d ea 09 be 23 34 05 40 1c c6 aa bf d3 62 f3 bf
       -0.1346838 2.0813072 -1.3341708 -1.9014534
0002d0 eb 78 ec bf f5 09 1f bf 74 df 82 be 7a 86 b3 bf
       -1.8474401 -0.6212457 -0.25561106 -1.4025414
0002e0 39 aa 13 bf 2a e8 f5 bf f6 b3 6f bf 59 67 33 bf
       -0.57681614 -1.9211476 -0.93633974 -0.7007957
0002f0 1a f2 c6 be 00 f7 3e 3d 2a 7e 34 3f a4 2c 56 bf
       -0.38856584 0.046622276 0.7050501 -0.83661866
000300 2f 3d 43 be fa a8 00 c0 1d b2 cb be 64 e9 07 c0
       -0.19066308 -2.0103135 -0.39784327 -2.12362
000310 99 a9 c1 bf 55 03 8b bf ca 46 33 3f 88 a9 ae bf
       -1.5129882 -1.0860392 0.7002989 -1.3645487
000320 a3 5b 35 c0 d4 93 a4 bf b4 98 79 bf 44 49 54 3f
       -2.833718 -1.2857614 -0.9749863 0.82924294
000330 cf 34 24 3f ce 8f 8a bf 41 9c 15 bf 25 1d cf 3f
       0.6414308 -1.0825136 -0.5844155 1.6180769
000340 d6 c0 82 3d 9c 47 39 bf ee 6d 8e bf 59 e4 ba bf
       0.06384437 -0.7237489 -1.1127298 -1.4600936
000350 6e d7 f6 be b9 0a 7f be 0e 49 8c 3e 0a 8a 66 bf
       -0.48211235 -0.24906434 0.27399486 -0.9005438
000360 6d f5 c9 bf c9 6b f2 be 76 28 8f bf 3e 9a 5e bb
       -1.5778023 -0.4734786 -1.1184223 -0.0033966447
000370 35 40 93 bf 22 7a 83 bf ae 28 c0 bf 3e e8 b3 bf
       -1.150397 -1.0271647 -1.5012414 -1.405525
000380 be 7e e6 3e 03 5e f8 3f 7a 4c 0a 40 dc e8 eb 3e
       0.45018572 1.940369 2.1609178 0.46076095
000390 2e 37 59 3f f5 91 96 bf 6c d1 b4 be c5 9d 8d bf
       0.8484982 -1.1763293 -0.35316026 -1.1063772
0003a0 d7 cc 3a 40 f7 5e 56 bf 16 7d 67 bf 67 b5 7c bf
       2.9187524 -0.83738655 -0.9042524 -0.987143
0003b0 1d 9e 96 3f 29 1d 2f 3d 88 d9 3f bf f3 a0 0f c0
       1.1767002 0.04275242 -0.749413 -2.2441986
0003c0 1a 9a 64 bd 45 8f 8c 3f f6 67 ab bf 51 3c 92 3e
       -0.055811025 1.0981222 -1.3391101 0.28561643
0003d0 34 39 5e 3f c2 22 06 c0 ca 05 de be ed b6 c8 bf
       0.86806035 -2.0958714 -0.43363792 -1.5680825
0003e0 c9 ec b4 be 17 a0 57 bf 5f 77 c2 3e 3d 34 86 bf
       -0.35336903 -0.8422865 0.37981698 -1.0484692
0003f0 a3 67 7f 3f 92 cf 35 3e 5a ac c5 bf 75 39 c2 3c
       0.9976751 0.17754963 -1.5443223 0.023709038

linear_sigmoid_stack.2.weight f4 [160, 320]
000000 51 d8 0f c0 58 34 15 3f e9 b0 8b bf b9 17 16 3f
       -2.247578 0.58282995 -1.0913364 0.5862995
000010 9e c2 58 3d a9 7e a3 bf 4e b0 f3 bf 3e 8e a1 3f
       0.052919976 -1.2773029 -1.9038179 1.2621534
000020 74 9d f1 3f ab 37 0d bf ff 09 12 bf 0b 93 0b bf
       1.8876176 -0.5516307 -0.570465 -0.54521245
000030 32 f7 5c 3e 54 11 8d bf 0a 8b 09 3f 49 61 79 bf
       0.21578673 -1.1020913 0.5372778 -0.9741407
000040 d3 35 96 3e fb 53 d0 3d 5f 10 6c be 74 a8 1e 3f
       0.2933794 0.10172268 -0.2305312 0.6197579
000050 1a 41 07 3f 52 3a 62 bf d9 3c 1e 3e 1d 83 59 3f
       0.5283371 -0.8837024 0.15452899 0.8496569
000060 4f 3e 19 3f c4 c1 f4 be 35 f5 40 3f c2 a6 51 bf
       0.598607 -0.4780408 0.75374156 -0.8189508
000070 36 0d 5f 3f f2 7b 82 3f 23 28 75 bf 4e bc 18 bf
       0.87129533 1.0194075 -0.9576437 -0.5966233
000080 6a 07 9b bd ee af f4 3d 23 09 97 3e aa 78 b5 3b
       -0.075697735 0.119476184 0.29499158 0.005538066
000090 aa cd 76 bf d9 bf a8 3e e1 9d cb bf b7 6d 73 3e
       -0.9640757 0.32958868 -1.5907556 0.23772322
0000a0 49 05 dd 3f ae 2e 81 3f 62 a7 fb 3e d1 55 19 40
       1.7267238 1.009237 0.4915114 2.3958628
0000b0 6f ce 92 be 11 5c 69 3f 23 0b 5c 3f 9a a5 8a 3b
       -0.2867312 0.9115611 0.85954493 0.004231167
0000c0 2e fa 72 be 3b 8e ed 3c b2 48 44 bf a1 4e 5d c0
       -0.23728248 0.028998485 -0.76673424 -3.4579241
0000d0 c0 b9 ab 3f ec 18 5a 3f e5 55 02 bf 11 17 38 bf
       1.3416061 0.8519428 -0.50912315 -0.71910197
0000e0 95 5d 82 3e 0d 53 63 bf 21 f8 92 3f c5 ff 17 bf
       0.25462022 -0.887986 1.1481973 -0.5937465
0000f0 b7 72 84 bd 00 be a6 40 9f 1d 91 bd 8e f6 8d 3f
       -0.064671926 5.2106934 -0.07085728 1.1090868
000100 5b f9 83 3f 07 02 fe bc 7a af 92 be 82 1e ed be
       1.0310472 -0.031006826 -0.28649503 -0.46312338
000110 00 60 43 3e b3 9f f5 3c 32 6d c8 3e 48 bb 20 bf
       0.1907959 0.029983377 0.3914581 -0.6278577
000120 85 3f f3 be 7a 63 e2 bd 49 2a b9 3f 5f fe d7 3d
       -0.475094 -0.1105413 1.446603 0.10546564
000130 a0 1f d0 bd 84 2f 28 bf 3a 3e 94 3b 5c 23 3a 3c
       -0.10162282 -0.65697503 0.0045240195 0.011360969
000140 73 66 22 3d 54 74 0d 3f 78 7f b6 bd 38 89 20 40
       0.039648484 0.5525563 -0.089110315 2.5083752
000150 97 fb eb 3f cc dd 81 be 80 c1 bb 3e 35 9a 49 3f
       1.8436154 -0.2536453 0.36671066 0.78750926
000160 ec 6c 38 bf 4f 5a 75 3f 5e 44 2c bf c0 ae 50 be
       -0.720412 0.95840925 -0.6729182 -0.20379162
000170 75 1d 64 bf 79 52 99 3d 74 91 6f be ea d8 5a c0
       -0.8910745 0.074864335 -0.2339533 -3.4194894
000180 5a 1c 04 bf 0b f7 22 bf 25 56 85 be 85 55 57 3e
       -0.5160576 -0.6365821 -0.26042286 0.21028717
000190 e1 11 4c 3e 41 87 81 3e ec 55 b2 3f a6 48 15 bf
       0.19928695 0.25298503 1.3932471 -0.5831398
0001a0 1f ab 12 3f 45 0d 22 3f 05 a1 89 3f 3e ad 09 be
       0.5729236 0.633015 1.0752264 -0.13444993
0001b0 17 eb 9d be 5a 42 e0 3d de e4 09 bf 4c 9b 32 40
       -0.30843422 0.109501556 -0.5386485 2.7907286
0001c0 93 aa 2d 3f 98 cc 87 bf 36 1a eb 3f a8 66 0a 3f
       0.678384 -1.0609312 1.8367374 0.5406289
0001d0 a6 d7 0b be 37 4f 9a c0 df f5 8a be b1 42 9c be
       -0.13656482 -4.82217 -0.2714071 -0.30519632
0001e0 99 7e f3 3e a0 52 fb be f3 9c bd 3e 11 47 0b 3f
       0.47557524 -0.49086475 0.37033805 0.54405314
0001f0 bd 5b 03 3f b4 07 ce 3d 6d 6f 97 3e ca 53 36 3f
       0.51311857 0.10060063 0.295772 0.712216
000200 dc 98 6a bf 8c 82 70 3e 1c d4 42 3f 82 96 c7 be
       -0.91639495 0.234873 0.76104903 -0.38982016
000210 8b 0c f3 be 0f 41 72 bf df 2a 14 3f f4 d7 85 bf
       -0.47470507 -0.9463052 0.57877916 -1.0456529
000220 1e e9 58 3f 6f be ca bf 35 f0 67 3e cf ad 4e c0
       0.8473071 -1.5839366 0.22650225 -3.2293584
000230 e1 32 8f bf ed 06 69 3f 3c d8 35 3e 8d 34 7b bf
       -1.1187402 0.9102619 0.17758268 -0.9812706
000240 db 06 11 3f b5 12 ba bd 0a de c3 3c 7e a6 bb bf
       0.56651086 -0.09085599 0.023909587 -1.4660184
000250 6f 8a f0 3c 4c 51 b5 be 73 b1 09 be 73 23 53 bf
       0.029362885 -0.35413587 -0.13446598 -0.82475966
000260 d3 d6 43 3f 28 b8 34 3f 3b fa 03 bd b7 f9 70 3f
       0.7649967 0.705935 -0.03222106 0.94131035
000270 98 73 bf be 93 45 da be 63 44 7a 3d ca 65 89 3f
       -0.3739288 -0.42631206 0.061100375 1.0734189
000280 38 07 aa 3f e0 2c 0a 3f d3 46 78 be a1 34 2a 3f
       1.3283453 0.53974724 -0.24245767 0.66486555
000290 27 cb 59 3f f4 5a 8a bf 17 ae 6b be 8e 45 e3 bf
       0.8507561 -1.0809007 -0.23015629 -1.7755601
0002a0 6c b8 03 bf 6b 0a 70 3b 36 16 2e be 7b b6 97 bd
       -0.5145328 0.0036627303 -0.1700066 -0.07407852
0002b0 35 21 5e 3d 38 fa 04 3f 1d 8f 84 3e 26 79 5d 3e
       0.054230887 0.51944304 0.25890437 0.21628246
0002c0 2c 7f e4 bd 4c 24 80 3f 07 a3 77 3e 68 0d 29 3f
       -0.111570686 1.0011077 0.24183284 0.6603608
0002d0 9d 52 df be 8b 46 8b be c0 ac 5c 3e 2a 45 b0 bd
       -0.43617716 -0.27202258 0.21550274 -0.08606942
0002e0 2b 91 98 3e e0 42 06 40 3b 84 5d 3f 28 bf 06 3f
       0.29798254 2.0978317 0.8652989 0.5263543
0002f0 2f ee db be b1 e0 db bf 43 84 0c bf d1 e1 5d be
       -0.42955157 -1.7177945 -0.54889315 -0.21668173
000300 78 23 a6 3e 24 0b 06 3f 08 8d e3 bf a0 89 59 bf
       0.32448936 0.5236075 -1.7777414 -0.84975624
000310 26 6e 6a 3f c9 ec e9 bc 91 b9 cc bd e6 9b 12 3f
       0.91574323 -0.02855529 -0.099963315 0.5726913
000320 6a 73 2c 3f 72 7b 13 be 53 bb 19 3f 1c 2f 44 be
       0.6736361 -0.1440256 0.6005146 -0.19158596
000330 fa 18 c6 bf 13 09 71 be 85 92 e4 3f 35 b8 c5 3e
       -1.5476372 -0.23538618 1.7857214 0.386171
000340 7d 68 9c 3e 94 e4 fc bd 48 a8 38 3e 8b bb a7 be
       0.30548468 -0.12348285 0.18032944 -0.3276027
000350 27 77 fc bd 9d 10 73 bd ae 45 16 bf d4 a7 82 3e
       -0.12327414 -0.059342016 -0.5870007 0.25518668
000360 3b 3a 94 3c 21 1b 24 3f ae 1c 96 bf 8c 22 5a 3f
       0.018094173 0.64103895 -1.1727502 0.85208964
000370 7e 83 a7 3e 17 e8 bc 3d 37 2d 90 3e fb aa 6c be
       0.32717508 0.09223955 0.28159496 -0.23112099
000380 7f cb 0b 3f 02 96 44 3f 07 70 c0 be 2c d2 71 3f
       0.54607385 0.76791394 -0.3758547 0.9446132
000390 c8 ab 48 bf ad ae 6c bf a5 00 ed 3d db a8 fe bf
       -0.7838712 -0.92454034 0.115723886 -1.9895281
0003a0 3f 7f ce 3d b2 63 ae 3e 00 9c 8e bf 5a 18 18 be
       0.10082864 0.34060436 -1.1141357 -0.1485304
0003b0 80 64 99 bf 5d 18 ad 3f d2 ce 4c c0 c6 54 d1 3e
       -1.1983795 1.352306 -3.2001233 0.4088499
0003c0 0d 7c 5b 3f 05 f2 66 c0 2e d1 b4 bd fc ea 9c 3f
       0.8573616 -3.6085217 -0.0882896 1.2259212
0003d0 80 eb b3 3e bd 94 b9 bf 16 e1 20 bd fd 73 69 3f
       0.3514061 -1.4498516 -0.03927716 0.9119261
0003e0 02 15 92 bf b4 7f 63 3e 20 38 65 3e 6e 5f 19 bc
       -1.1412661 0.22216684 0.22384691 -0.009361131
0003f0 8d 4b 9f 3d b6 18 07 3f b0 49 78 be f5 a0 61 3f
       0.07778082 0.5277208 -0.2424686 0.88136226

linear_sigmoid_stack.2.bias f4 [160]
000000 a0 b3 d3 bd 65 55 e6 be 2b cd 83 be ca f0 15 bf
       -0.10336995 -0.44987026 -0.25742468 -0.5857054
000010 20 d1 dd be 27 3f fd 3e 79 89 64 be 50 70 91 be
       -0.43323612 0.49462244 -0.22318067 -0.28406
000020 cf a4 5b be f6 66 b5 be 5f 98 54 be 3e c5 0e bf
       -0.21449588 -0.35430115 -0.2076125 -0.5576972
000030 a9 8f 03 be 9c 76 1c be fc 54 1c 3e bf 41 0a bd
       -0.12847771 -0.15279621 0.15266794 -0.033754107
000040 ec 7b 9d 3e a1 e6 02 3e e3 aa b5 3d 9a 79 be 3e
       0.30758607 0.1278329 0.08870485 0.3720215
000050 a0 a7 be 3e aa 60 90 be 33 8d 93 3c 8d 30 bd 3d
       0.37237263 -0.2819875 0.018011665 0.09237776
000060 43 fc 77 be bf db 08 3e 7c dc 3c be 18 8a d7 3d
       -0.24217324 0.13365076 -0.18443483 0.10524386
000070 9d fc b9 3d 9d d2 5b bd de fc c2 3e e8 29 6d be
       0.09081385 -0.053667653 0.38083547 -0.23160517
000080 75 ef d6 be 3e 5d 37 be 0a 40 89 3e 80 5f 68 be
       -0.41979566 -0.17906663 0.2680667 -0.2269268
000090 fd 6b c8 be 0e cb 3d 3d cc 52 e9 3e d5 38 ae be
       -0.3914489 0.046336226 0.45570982 -0.34027734
0000a0 92 c0 9e be 76 3b a4 3d 89 5e 68 be c0 e1 28 bf
       -0.31006294 0.08019154 -0.22692312 -0.6596947
0000b0 43 54 3d be f1 8d 8c bc 82 66 d7 be 3b 24 ed bd
       -0.18489175 -0.017157527 -0.42070395 -0.11579176
0000c0 3f 90 4d 3e bb 5b 38 3e c3 84 de bd db 86 2b 3f
       0.20074557 0.18003742 -0.10865166 0.6700265
0000d0 41 e2 f1 3d ec 57 76 3c 27 82 07 3f cb 6a 5b bd
       0.11810733 0.015035611 0.5293297 -0.053568643
0000e0 12 24 21 3b be e2 ca bd 0e c4 38 3e e8 8a 1a 3e
       0.002458815 -0.09906529 0.18043539 0.15092051
0000f0 07 ee ca 3e c1 c3 42 3e e8 0e c9 be 28 49 93 3d
       0.39634725 0.19019987 -0.39269185 0.07191688
000100 ee 42 3a bd 3b 22 5d be 32 34 a5 bd 3f 5b 44 be
       -0.045473985 -0.21595089 -0.08066596 -0.19175433
000110 fb d1 a8 3e 83 24 04 3f 5e cb f1 bd dc aa 1f bf
       0.32972702 0.5161821 -0.11806367 -0.62370086
000120 1b 6c 90 3d 96 df 47 be ae 65 29 be de 19 b9 be
       0.070518695 -0.19518885 -0.16542694 -0.36152548
000130 d8 33 b3 be ba 3d 9e be 80 e1 e3 be ff 7c f6 bd
       -0.3500049 -0.3090647 -0.4450798 -0.1203556
000140 22 6e a7 bd 14 72 16 bf a1 9b 1d bd e0 bb 83 be
       -0.08175303 -0.5876782 -0.038478497 -0.25729275
000150 a5 6e 02 be 5c 08 c4 bd 55 cb 5b 3d 87 fa 09 be
       -0.1273752 -0.09571907 0.05366071 -0.13474475
000160 63 ff 21 bc 59 f5 30 be 46 45 80 be ba e5 a9 bd
       -0.009887549 -0.17281093 -0.2505285 -0.0829577
000170 d0 45 be be 96 0a 1b 3d 20 15 ac bc 71 c8 b8 be
       -0.37162638 0.037851892 -0.021006167 -0.36090425
000180 3e a3 61 3e 87 25 04 3e fa 87 c9 3d bf 01 8b be
       0.22034928 0.1290494 0.098403886 -0.2714977
000190 f4 de 30 be 9a 3a bf be 8b f6 98 be e6 02 9f bc
       -0.1727255 -0.37349397 -0.29875597 -0.019410562
0001a0 1d 50 bf bd b6 a6 88 3d ab ba 54 bf 02 26 f0 3d
       -0.09341452 0.066724226 -0.8309733 0.117259994
0001b0 d0 9c 24 3e 48 e8 3e bd c7 15 45 bf 1e 17 4a bd
       0.16075444 -0.04660824 -0.76986355 -0.049338453
0001c0 a0 b1 59 3d 54 74 69 bd 7e 5b a3 be f2 e0 b3 3e
       0.053147912 -0.056995705 -0.3190574 0.35132557
0001d0 63 39 b2 3e b2 b6 ea be eb 04 45 3e 4e 85 91 be
       0.34809408 -0.4584251 0.19240157 -0.28422016
0001e0 a0 99 88 3e 94 8b 5a 3d 48 02 f0 3e 5d 1a d5 bd
       0.26679707 0.05335577 0.4687674 -0.10405419
0001f0 2e 97 2d 3f 4c 4b 26 3e 37 17 1f 3e 59 b0 a1 be
       0.67808807 0.16239661 0.155362 -0.31579855
000200 11 86 59 3e 0f 89 77 be 61 b5 05 bf 71 cb 69 be
       0.21242549 -0.24173377 -0.5222989 -0.22831513
000210 e2 72 a4 3e 90 fd 4f bd 3e 4c de 3d 6c 0e 1e bf
       0.321189 -0.050778925 0.10854386 -0.61740756
000220 ad 41 ed 3c fe 94 0f bf 04 fd 98 be d7 21 22 be
       0.02896198 -0.5608672 -0.29880536 -0.15833221
000230 f3 06 aa bd 3b 90 11 3c a2 5d 37 be b9 87 0d 3e
       -0.08302107 0.008884485 -0.17906812 0.13821305
000240 b4 23 7d 3e 12 41 79 be fb 56 93 be 0e cb 8c 3d
       0.24720651 -0.24341229 -0.28777298 0.06874667
000250 40 56 1c be ff 78 5b 3e d0 03 7b be 76 20 b1 3e
       -0.15267277 0.21432875 -0.24513173 0.34595078
000260 27 79 bb 3e 76 71 bb 3c 9b f9 05 3e 26 fd 23 be
       0.3661587 0.02288125 0.13083498 -0.16014537
000270 d6 22 f6 bd 14 fe e4 be fe d5 ee 3e 4c 5c 0f 3e
       -0.12018363 -0.44725096 0.46647638 0.14000052

linear_sigmoid_stack.4.weight f4 [80, 160]
000000 d3 24 20 3c bd 6f 13 40 6a 90 37 c0 27 58 e3 3e
       0.009774405 2.303695 -2.8681893 0.44403192
000010 0b f9 a1 bd 09 88 b4 bd 53 d5 96 3e 2f 10 f9 3d
       -0.07908829 -0.08815009 0.29459628 0.1216129
000020 de e4 b6 3e 4f b5 95 3d 96 7b a7 3d 80 1d d2 3d
       0.35721487 0.073099725 0.08177869 0.10259533
000030 e5 e5 5b 3f ca 49 2c bf b2 e3 13 3e a3 49 ec 3d
       0.85897666 -0.67300093 0.14442328 0.115374826
000040 a1 28 2b 3e 57 5e f2 3d 6b 05 a5 bd 29 42 3a bc
       0.16714717 0.118344 -0.08057674 -0.011368313
000050 fb 49 57 be f3 80 f7 bf a7 a5 ff 40 83 79 3b be
       -0.21024315 -1.9336227 7.988971 -0.18308072
000060 c0 48 af 3f d9 88 e6 3d eb 3d 63 3d 12 13 3a be
       1.3694077 0.1125657 0.05547897 -0.18171337
000070 7b 58 96 3d da 72 85 3d 27 d7 a3 3b f7 8f cc be
       0.07341095 0.06516047 0.0050000134 -0.39953586
000080 f2 43 1c c0 3b e3 09 be 77 69 91 3d e1 47 dc bd
       -2.441647 -0.13465588 0.07100194 -0.10755897
000090 6c d4 dd 3d 21 30 5a be fe 51 26 be a8 0c 8c 3d
       0.10831532 -0.21307422 -0.16242215 0.068383515
0000a0 c1 3c 57 3d 48 05 17 3d a8 fe 54 be 87 06 90 bd
       0.052548174 0.03687027 -0.20800269 -0.07032495
0000b0 b0 29 80 bf a8 57 f3 3e a2 eb b4 3c ae d9 87 40
       -1.0012722 0.47527814 0.022085015 4.245322
0000c0 1e 32 a2 bd 16 d8 ad 3d ac 10 9c be 59 79 78 bd
       -0.07919715 0.08488481 -0.3048147 -0.0606626
0000d0 50 c0 9a 3f ac 38 9b bd b4 c3 ad 3d d3 8a 4e be
       1.2089939 -0.07579169 0.08484593 -0.20170145
0000e0 3d 06 2a 3e 65 f2 1f 3e c6 56 4a bd d0 40 4f 3d
       0.16603942 0.1561981 -0.04939916 0.05059892
0000f0 3c d4 72 3e 0e 1c bc 3e d6 68 e3 3d 74 a7 56 be
       0.23713773 0.36740154 0.1110398 -0.20962316
000100 db 79 89 bd f4 3e 61 bd 8f 3a 1b 3e a5 53 9d be
       -0.06712695 -0.054991677 0.15159057 -0.30727878
000110 0c 97 84 3d 21 e3 e9 3d ad 47 27 3e 54 d8 30 bc
       0.064741224 0.114202745 0.16335936 -0.010793764
000120 19 95 2d b9 e2 0d 1e 3d 38 69 fa 40 7e 09 ba 3d
       -0.00016554109 0.03858746 7.825344 0.09083842
000130 51 29 ec bd 8b a2 dd 3d 95 7f 3e 3b 4e be f5 be
       -0.11531318 0.10822018 0.0029067744 -0.47996753
000140 74 4e 58 3d 2e 90 8b 3e 96 c8 ba be fc fa fa 3d
       0.052809194 0.27258438 -0.3648116 0.12254903
000150 e2 7b 52 3e 9c 46 1b c0 7f 11 e9 be ad bf ca be
       0.2055507 -2.4261847 -0.4552116 -0.39599362
000160 2c e7 f0 3a 01 1a 55 bd 5b d9 6d 3d 39 a7 50 be
       0.0018379441 -0.052026752 0.058068614 -0.2037629
000170 6b fa 2e bf b4 c9 dc 3d 16 12 90 3e 16 e7 b3 bd
       -0.6835086 0.10780659 0.28138798 -0.087843105
000180 73 99 b8 3e 28 9d ba 3c b2 e5 13 bb 6b 83 82 3e
       0.36054572 0.022780016 -0.002256733 0.2549089
000190 24 61 b4 3d 82 c2 2b 3e a0 e7 06 be ce 15 08 40
       0.088075906 0.16773418 -0.13174295 2.1263309
0001a0 b4 65 4f 40 76 20 12 3f 89 a1 92 bb 57 45 49 bd
       3.2405825 0.5708078 -0.004474823 -0.049138393
0001b0 8a 38 83 bd b8 3b e6 bd 72 04 02 3f e4 f9 a7 be
       -0.06407268 -0.11241859 0.50788033 -0.3280784
0001c0 61 66 06 3e b9 a2 09 bf 93 2a 44 be 7a 80 14 3e
       0.13124992 -0.5376392 -0.19156866 0.14502135
0001d0 d3 0a f2 3a 48 05 d6 bb fa bf af be 5f bf de 3e
       0.0018466361 -0.0065313913 -0.34326154 0.4350538
0001e0 83 c8 17 3e c2 d8 7c bc c7 19 4b 3e 10 0e 1d 40
       0.14822583 -0.015432538 0.19834052 2.4539833
0001f0 20 f8 31 3e 29 9a 4a bd 23 85 de bc d5 86 1c be
       0.17379808 -0.049463425 -0.027163094 -0.1528581
000200 5e 6c 78 be 1b 01 71 40 7a da e5 bd 3d 8f f2 3d
       -0.24260089 3.7656925 -0.11223312 0.11843727
000210 75 45 38 bd 3f e7 d3 3d d4 29 eb 3c 41 48 12 be
       -0.044988114 0.10346841 0.028706469 -0.14285375
000220 19 47 92 3d a7 56 bf be 5f b1 27 be 17 52 e4 3e
       0.07142467 -0.37370798 -0.16376255 0.4459388
000230 98 e9 03 3e 8a 58 ba be 26 91 dc 3d 58 23 e0 3e
       0.12882078 -0.36395675 0.10769872 0.43776965
000240 f1 32 ba 3f ed 9a 48 3c d9 7b 17 3f 1e 9d 03 3d
       1.4546796 0.012243968 0.5917335 0.03213226
000250 43 77 a1 bd ae 61 d6 3c 01 fe f6 bd 28 be 6f be
       -0.078840755 0.026169624 -0.12060166 -0.23412383
000260 b0 54 e1 3d 13 53 82 bd ef 17 85 3e 7a 52 b1 3f
       0.11002481 -0.063635014 0.25994822 1.3853295
000270 25 78 c5 3c 35 5a 97 be f7 25 6b 3e 55 8c aa bc
       0.024105141 -0.2956101 0.22963701 -0.020818869
000280 75 28 8e bf fc 1f 2f be 9a 21 1e 3e 69 91 41 be
       -1.1106097 -0.17102045 0.15442505 -0.18903126
000290 bc bf 66 3e 48 12 cc be f2 e3 c3 3f ed 38 b9 be
       0.22534078 -0.39857697 1.5303938 -0.36176243
0002a0 09 fc 2a be fa 00 18 be c4 96 5d bd 18 73 4a bf
       -0.16697706 -0.14844123 -0.05409886 -0.7908187
0002b0 a5 41 ae 3c 52 ea 4c 3d 67 f5 fd 3e 62 2d b6 3d
       0.021271536 0.050028153 0.4960129 0.08895375
0002c0 b1 64 2c 3e 75 21 8d be df d3 0c bc ab f6 ff be
       0.16835286 -0.27564588 -0.008595436 -0.4999288
0002d0 da 9f c0 be f0 9d a2 3e 3d 76 61 be 9e 2f 35 3e
       -0.37621957 0.31761122 -0.2201776 0.17693946
0002e0 40 d5 44 bd 37 cf 9b be d1 24 be 3e 18 2d 2e 3f
       -0.048054934 -0.3043153 0.37137464 0.6803756
0002f0 e0 39 7f 3e be 02 87 be 13 26 6b 3e a9 ba 43 3d
       0.24924421 -0.2636928 0.22963743 0.047785435
000300 80 0c 8b 3f ba 55 0c bf f5 cb d1 be 1a 53 29 be
       1.086319 -0.5481831 -0.4097592 -0.16535607
000310 dd e5 da 3e 12 c0 48 be 3d 8e ba 3e 77 71 36 bf
       0.42753497 -0.19604519 0.36436644 -0.71266884
000320 88 8e d2 be 38 70 a2 bd 25 ac 5d bf 0b 2a 4e 3e
       -0.41124368 -0.0793156 -0.86590797 0.20133226
000330 15 a1 eb 3c f8 7c 35 3f 2d d8 60 3d 5b 2a 51 40
       0.028763333 0.7089381 0.05489366 3.2682102
000340 e6 45 4c be ba 11 7c 3e ee a6 82 3e 2e e1 6c 3f
       -0.19948539 0.24616137 0.25517982 0.92531097
000350 89 55 7f bf ee 17 00 40 a0 65 5e be 09 f3 e4 bd
       -0.9973989 2.0014606 -0.21718454 -0.11179168
000360 d6 7f ba 3e 43 e9 0d be 0e c5 4b 3e 6f 7d 69 3f
       0.36425656 -0.13858514 0.19899389 0.9120702
000370 83 66 a9 3f 38 7f 0e be ea d0 92 bd 77 7a 8b bd
       1.3234409 -0.13915718 -0.071687534 -0.06810468
000380 38 ce 0e bf e9 5d 87 c0 68 21 8d 3d 53 5a 97 be
       -0.55783415 -4.2302136 0.06891137 -0.295611
000390 e6 20 c0 3d 91 49 a1 3d 60 97 e0 be 60 28 c5 be
       0.09381275 0.0787536 -0.4386549 -0.38507366
0003a0 35 6b c5 be 67 a9 e4 be 63 6a 2c bf 6b 9c 91 bf
       -0.38558355 -0.44660494 -0.67349833 -1.137586
0003b0 6e 9e 44 be c2 71 ea 3c 99 24 db be 27 fb f9 bc
       -0.19201061 0.028618697 -0.4280136 -0.030515267
0003c0 59 e4 86 bd 4a 97 d8 bf c0 cd 1f 3f a1 32 0f be
       -0.065865226 -1.692117 0.62423325 -0.13984157
0003d0 11 19 6f be 47 14 b1 3e dd af a4 3e ae 16 a3 c0
       -0.23349406 0.34585783 0.32165423 -5.0965185
0003e0 fb 0b 4a be 6e e3 12 3c d2 bb 8a bf 3b 6c 9e 3c
       -0.19731133 0.008965356 -1.0838568 0.019338718
0003f0 9c 92 89 be e7 bd 83 3e 3d 63 97 be 1f ee d6 3e
       -0.26869667 0.25730821 -0.295679 0.41978547

linear_sigmoid_stack.4.bias f4 [80]
000000 d3 57 fa 3d 94 f4 21 be 9e a8 da 3d a4 d1 91 be
       0.122237824 -0.15815955 0.106766924 -0.28480256
000010 26 0d 72 be 14 41 81 bf 0c c6 bc 3c 2d 44 fa bd
       -0.23637828 -1.0097985 0.023043655 -0.12220035
000020 bb 2f f0 be 35 a7 3d be 84 f4 64 be d6 04 e7 be
       -0.46911415 -0.18520816 -0.223589 -0.45120877
000030 1d 0b c5 3d 6f 99 7e 3c 41 fe 9b 3d 28 0a d5 3e
       0.0962126 0.015539511 0.076168545 0.4160931
000040 f9 85 cc bc e4 13 23 be 0f 54 72 be 01 da f4 be
       -0.024966227 -0.15925556 -0.23664878 -0.47822574
000050 3c 84 a2 be 40 19 89 3e 5b 5e 48 bd 15 ae c5 be
       -0.31741512 0.26777077 -0.04891811 -0.38609377
000060 e9 35 ba bf fb 92 fd bb e3 8f 84 be 77 ec 08 3e
       -1.4547702 -0.0077384687 -0.25891027 0.13371454
000070 bd a6 f0 be 82 fd 5b bf 93 2c 5b be 15 7b 9a be
       -0.4700221 -0.859337 -0.21403722 -0.3017203
000080 2a 23 dc 3e 22 e6 0d bf ab 16 68 bf 60 f1 88 3c
       0.42995578 -0.5542928 -0.9065959 0.01671666
000090 e9 96 01 bf 0e eb 2d 3f 0f ee af be 8a 78 11 bd
       -0.50620896 0.6793679 -0.34361312 -0.035515346
0000a0 54 dc 7c be 33 4f 30 be 4a d2 18 bd c5 6a 8a 3d
       -0.24693424 -0.17217712 -0.037309922 0.06758646
0000b0 66 56 ae be f7 95 36 bd 87 2e 0d 3e f7 1e 00 bf
       -0.34050292 -0.04457661 0.1378728 -0.5004725
0000c0 6b 44 1b be 09 3a 3c 3f 77 5e ac be 9b 89 19 3e
       -0.15162818 0.73526055 -0.3366582 0.14993899
0000d0 e7 fa 8f be cf 01 74 be e5 15 9c be 9e e9 e9 be
       -0.2812111 -0.23828815 -0.30485454 -0.45686048
0000e0 db 27 68 be c7 7f dd 3c 6f 06 21 be 75 f4 13 3e
       -0.22671454 0.027038468 -0.1572511 0.14448722
0000f0 42 b8 19 bd 03 eb 74 bf a4 de 1a bf c4 98 de be
       -0.037529238 -0.956711 -0.6049597 -0.43475926
000100 cf 15 02 bd 24 e0 7c bd de ce 00 3f 76 a6 66 3e
       -0.03175908 -0.061737195 0.50315654 0.22524437
000110 36 98 be 3e ee ca 93 be 08 61 df be 56 15 68 be
       0.37225503 -0.2886576 -0.43628716 -0.22664389
000120 d7 e2 c9 bd 97 e4 9a bc 6c 6b 57 be 39 04 9d 3e
       -0.098577194 -0.018907828 -0.21037072 0.30667284
000130 bf 2c 49 3e a8 a6 3c bd 3a 94 a3 be 51 1e c9 be
       0.19645976 -0.046057373 -0.31949025 -0.39280942

linear_sigmoid_stack.6.weight f4 [60, 80]
000000 80 05 6f 3e b7 85 32 bf 13 7c de be d7 96 4f 3e
       0.23341942 -0.6973528 -0.43454036 0.20272385
000010 b2 39 ec be 91 5b 96 39 ef be 12 bd 22 5f 37 3e
       -0.46137768 0.00028678452 -0.03582662 0.17907384
000020 9f 0b d2 be bf 18 bb be f1 bf 11 bf 32 19 65 bf
       -0.4102449 -0.36542317 -0.56933504 -0.8949157
000030 d2 2e d9 3e ea a1 2a be 66 45 4a bf 0c 52 47 3c
       0.42418534 -0.16663328 -0.79012144 0.012165558
000040 4a d0 55 bf d1 e8 11 3f 95 64 61 bf 3b 47 26 bf
       -0.8352095 0.56995875 -0.880441 -0.6495244
000050 5c 65 64 3e 9e 03 64 be 4e 9e 66 bd 1c 2d 33 3f
       0.2230429 -0.22267005 -0.056303315 0.69990706
000060 f2 59 a3 bf 54 89 3e be 97 b6 b6 3d 9e 21 d0 3e
       -1.2761824 -0.18607074 0.08921545 0.40650648
000070 34 8f 17 c0 6a fd 10 bf ae 89 af bd d4 1c d6 3d
       -2.3681154 -0.5663668 -0.08571182 0.10454717
000080 20 65 d1 3e 06 91 8d 3e f3 19 82 bf a7 f6 bc 3e
       0.40897465 0.27649707 -1.0164169 0.3690693
000090 d5 52 3f be 51 59 bd bf 47 af 37 bf 72 0e 6f be
       -0.18683942 -1.4792882 -0.71751827 -0.23345354
0000a0 72 c7 49 3f 82 cc 00 3f 0b 08 17 3f 20 1b e6 be
       0.78819954 0.50312054 0.5899665 -0.4494257
0000b0 30 45 19 3f 31 73 ad 3e 70 66 98 bf 92 74 86 be
       0.59871197 0.33876947 -1.1906261 -0.2626081
0000c0 0b ce 40 3e 87 4a 50 be c4 0e 0b 3f d3 5b 3e 3d
       0.18828599 -0.2034093 0.54319406 0.04647429
0000d0 d3 dd d0 3e 7e c8 d1 3a ec 74 28 bd 77 5c 98 3d
       0.40794238 0.0016005186 -0.04112713 0.07439511
0000e0 8e b7 b4 3e b9 1c aa 3f c1 5c 98 bf 31 fb a7 be
       0.3529629 1.3290015 -1.1903306 -0.3280883
0000f0 bc 6e 57 3f 90 50 0a bf d0 d5 25 40 fe e2 70 3e
       0.8415334 -0.5402918 2.591175 0.2352409
000100 82 e5 10 bf 2d 19 21 bf a8 40 9f bf 8b e8 7f 3f
       -0.566002 -0.6292904 -1.2441607 0.9996421
000110 ee dc f5 bd 3a 1f b8 3d f7 c7 e3 be 8a b8 09 be
       -0.120050296 0.08990331 -0.444885 -0.13449302
000120 4f f2 37 be 8e 2e de be e5 85 1b 3e a4 1e c9 be
       -0.17963527 -0.43394893 0.15187795 -0.3928119
000130 17 99 27 bd eb 94 29 c0 76 10 e6 3e 5a 1f 50 3e
       -0.040917482 -2.6497142 0.44934434 0.2032446
000140 46 52 24 bd aa ec 10 3f da 66 a1 3e 09 d6 9b 3d
       -0.040117525 0.5661112 0.31523782 0.07609183
000150 0e d6 bb 3f 51 33 b5 3f b3 83 02 40 fa 65 fa 3e
       1.4674699 1.4156286 2.0392883 0.48905927
000160 8f ca 9d 3d 1b fd 8c bd cc 9a 63 3f 59 84 3b c0
       0.077046506 -0.068842135 0.88908076 -2.9299529
000170 68 6e 78 bf 48 ff 08 bf c6 1a bc be 0a 27 bf bf
       -0.97043467 -0.5351453 -0.36739177 -1.4933789
000180 d3 d9 b9 3e ed 45 b4 3e 3f 33 90 3f 45 c1 a9 3e
       0.36299 0.352096 1.1265639 0.33155265
000190 aa 97 52 3f d3 92 0a bf 6c 5c 30 be a4 00 db bf
       0.8226267 -0.54130286 -0.17222756 -1.710957
0001a0 4f 05 2c c0 dc 1f 7d be 38 8b 70 3f 85 26 07 be
       -2.687824 -0.24719185 0.9396243 -0.13198288
0001b0 18 47 3e 40 a3 fb 65 3f 52 9c 73 be e3 83 05 bf
       2.9730892 0.8983709 -0.237901 -0.5215437
0001c0 df 5d f7 be c1 06 89 3f 50 e5 4b c0 5c 2c ba 3e
       -0.48313805 1.0705186 -3.1858711 0.3636197
0001d0 e4 ef a8 be 58 1f 41 bf 1b b2 76 bf 47 ea 37 3f
       -0.32995522 -0.7543845 -0.9636552 0.71841854
0001e0 4a b1 d9 bd 8d f7 5e be 72 16 7c 3f d3 3f ac be
       -0.10629518 -0.2177412 0.9847175 -0.33642444
0001f0 84 aa 89 bf bc e1 79 3d 28 f2 2a c0 e5 3c 66 c0
       -1.0755162 0.061006293 -2.67103 -3.5974667
000200 65 35 a8 be 9e 01 3c bf 24 c2 80 bf d8 8d 10 bf
       -0.32853237 -0.7343997 -1.0059247 -0.56466436
000210 60 3e 8d 3f 47 71 cd 3e e8 10 cd 3e 8e 73 84 be
       1.103466 0.40125486 0.4005196 -0.2586941
000220 16 98 58 3e 7a 4b cd 3f 6b 50 2d bf df 9f 05 3e
       0.21151766 1.6038659 -0.67700833 0.13049267
000230 fe 81 3a be 23 40 5a be d8 9a de c0 bf ee 67 3e
       -0.1821365 -0.21313529 -6.956402 0.22649668
000240 9b d2 c1 be e6 e4 1f bf 00 e4 14 3e ad 1d b4 bd
       -0.37855992 -0.62458646 0.145401 -0.08794723
000250 23 85 d4 be 60 48 50 3e d9 9e 1b 3e 7f 3d 3a be
       -0.41507825 0.20340109 0.15197314 -0.18187521
000260 9a b0 36 c1 cb 24 ce 3e 42 de 00 bd 43 99 9a be
       -11.418116 0.40262446 -0.03146196 -0.30195054
000270 8f bc 2a 3f bd 84 57 c0 8e 3b fc c0 27 34 47 be
       0.6669397 -3.3674767 -7.88227 -0.19453488
000280 cd ae 07 3e b0 8e 99 3c 90 72 a3 be c1 b8 c8 bc
       0.13250275 0.018744797 -0.31923342 -0.02450216
000290 2e f1 c6 bc 41 b9 ce 3f d2 aa 81 be 47 be f8 3c
       -0.024284925 1.6150285 -0.25325638 0.030364169
0002a0 cf 05 7f 3d ac 7b f7 bf 37 c5 b2 bc fa 3f 4d 3b
       0.0622614 -1.9334617 -0.021822555 0.003131865
0002b0 80 1b 01 be 9c f0 9e bd 34 20 e0 3b 6f bc f1 be
       -0.12608147 -0.07760736 0.0068397764 -0.47214076
0002c0 a9 46 22 bf c2 41 93 bd 12 f1 0a 3f d1 4b f0 be
       -0.6338907 -0.07190277 0.54274094 -0.46932843
0002d0 2c 99 0c 3e aa 90 0a bf fd ad dc bc ca 13 48 3c
       0.13730305 -0.5412699 -0.026938433 0.012211749
0002e0 cc 61 13 3b a2 17 ca 3d 3c 0f 8c bd 69 8f 95 bc
       0.0022488711 0.09867789 -0.06838843 -0.01825686
0002f0 ad 4f 54 bd c3 97 0d be ef af a0 be 53 7e 0c bc
       -0.051833797 -0.13827424 -0.31384227 -0.00857504
000300 95 d2 b1 c0 87 9d 02 3e 9d 1a 0a bf db c8 fa 3d
       -5.556956 0.12755404 -0.5394686 0.122453414
000310 a5 69 05 3d 27 13 32 bf e4 0d 84 3e fd 4f db 3f
       0.032571454 -0.69560474 0.25791848 1.7133785
000320 61 07 dc bd 85 c6 9c 3e 61 21 5c bf 17 c4 18 bf
       -0.10743595 0.30620208 -0.8598843 -0.5967421
000330 a7 e6 c4 3d 89 ae 26 bd 3b b3 a1 be 5b d4 d4 3d
       0.09614306 -0.040693793 -0.31582054 0.10392066
000340 76 70 15 bf 26 f5 53 bf fc 17 47 bf ff 7c 61 c0
       -0.58374727 -0.8279594 -0.7777097 -3.5232542
000350 5b 7e 8f bf 4d 0d d9 bc 44 fc 2c be 84 40 e4 3b
       -1.1210436 -0.0264956 -0.16893107 0.0069656987
000360 8a aa 9f bf 41 6f a1 bd d9 1e a4 be 2c 84 3b c0
       -1.2473919 -0.07882548 -0.32054785 -2.9299421
000370 58 53 55 3c d4 f6 79 be ad 84 82 bf a9 9c c7 be
       0.013020359 -0.24410564 -1.019674 -0.3898671
000380 ec ca 87 be cd 0a 0a 3e 18 31 02 be 79 b2 bc bd
       -0.26522005 0.13480683 -0.1271404 -0.092137285
000390 6e 1c c6 be 88 32 2e 3d 19 64 d5 be 4e 18 52 3e
       -0.38693565 0.04252866 -0.4167793 0.20517084
0003a0 34 2c db c0 8e c8 16 3e f2 4f 66 bb b2 c5 68 c0
       -6.849146 0.14724943 -0.0035142866 -3.6370664
0003b0 8c 95 c6 be 53 91 6f bf 63 bb 4d 3f b5 bc ca 3d
       -0.3878597 -0.9358112 0.80364054 0.09899274
0003c0 27 98 1d be dd d4 84 3e 58 e4 97 c0 f1 b5 43 be
       -0.15390073 0.25943652 -4.746624 -0.19112374
0003d0 95 2e 51 c0 20 f3 09 3f db 3e 16 bb 34 73 86 3d
       -3.2684681 0.53886604 -0.0022925648 0.06564942
0003e0 84 95 81 be 9f c4 19 c0 95 72 73 bd 57 0a 20 be
       -0.25309384 -2.4026258 -0.059435446 -0.15628944
0003f0 0b 6a 7f 3c 49 72 8d bd 08 89 e6 be 37 15 68 bf
       0.015589247 -0.06906564 -0.45026422 -0.9065737

linear_sigmoid_stack.6.bias f4 [60]
000000 b5 17 25 bf 6e 23 2c bf c3 d0 12 bf 87 4b 0f be
       -0.644893 -0.6724156 -0.57349795 -0.13993655
000010 e4 49 15 bf 9a 9c 13 bf b4 de 6c bf d2 fe d9 be
       -0.58315873 -0.5766083 -0.9252732 -0.42577225
000020 11 47 3a bf 67 37 44 bf 6c 9a 01 3d de 5b 47 bf
       -0.7276469 -0.7664704 0.03164141 -0.77874553
000030 bd c2 61 be a9 cc b9 be 90 b0 86 be 3a b2 52 bf
       -0.22046943 -0.36288956 -0.26306581 -0.823032
000040 7d 8c 46 bf 33 f2 93 bf 8d 79 bd be 91 b1 d7 be
       -0.7755812 -1.1558288 -0.37006798 -0.4212766
000050 3a 92 3e bf 4e 45 7a bf 96 dc 89 bf d1 7b 34 bf
       -0.74441874 -0.97762 -1.0770442 -0.7050143
000060 db 75 84 bf 74 4a 00 be ed 14 48 bf 8a 3a 89 be
       -1.0348467 -0.12528402 -0.7815693 -0.26802474
000070 38 ba 74 bf d0 11 0f bf be a6 1b be 55 b2 ec be
       -0.9559665 -0.55886555 -0.15200326 -0.46229807
000080 4d 5f d1 bf d4 a9 c9 be 62 20 75 bf 03 2a 4f bf
       -1.6357208 -0.3938738 -0.9575254 -0.8092348
000090 af a7 e8 be d6 60 25 bf 21 37 3b bf bc 64 93 bf
       -0.45440432 -0.64600885 -0.73130995 -1.1515117
0000a0 4f 93 fd be e4 dd e3 bd ce 2f 56 bf 55 0e e9 be
       -0.4952645 -0.11126307 -0.83666694 -0.45518747
0000b0 3a 56 4c bf b5 c6 63 bf f0 84 53 bf 5c ac 72 bf
       -0.7981907 -0.8897508 -0.8262472 -0.9479425
0000c0 d2 cb 23 3e 31 bd 95 3d b3 18 1b bf 39 69 ff be
       0.1599572 0.07311476 -0.60584563 -0.49884966
0000d0 85 5d 07 be d1 c4 82 bf 76 c9 5c bf 61 e3 21 bf
       -0.13219269 -1.0216314 -0.86244905 -0.6323758
0000e0 5c fc 50 bf fc b6 8d be 0d c6 c3 be c7 f0 65 bf
       -0.8163507 -0.27678668 -0.38237038 -0.8982052
