python/pytorch/MATLAB_net_1p_SD.pt (torch_old, 581988 bytes, 14 tensors)

c1.weight f4 [2, 1, 32]
000000 ea 11 ba bf 0a 66 c4 bf da 14 ae bf c8 d7 a4 bf
       -1.4536717 -1.534364 -1.3600113 -1.2878351
000010 f0 50 7c bf f5 de 37 bf 12 08 d1 be 00 83 e9 be
       -0.98561 -0.7182458 -0.4082647 -0.45607758
000020 44 2e ac be 52 54 82 be ff 99 26 3d 68 ae 6c 3e
       -0.33629048 -0.25454956 0.040674206 0.23113406
000030 b4 66 1a 3f 67 45 51 3f d2 96 4e 3f fa 52 90 3f
       0.6031296 0.81746525 0.80698884 1.1275322
000040 01 55 c5 3f 59 21 f1 3f 2d f9 b8 3f b3 eb 8d 3f
       1.5416566 1.8838302 1.4451042 1.1087555
000050 a4 c8 81 3f ae 02 5f 3f 7b 86 55 3f d9 d1 4b 3f
       1.0139356 0.87113464 0.83408326 0.7961708
000060 9d c9 11 3f f0 37 0d 3f fe cf bb 3e 8c 2c 8b 3d
       0.5694826 0.5516348 0.36682123 0.06795606
000070 a8 76 74 be 89 d9 f3 be bc a4 4a bf 5b 88 38 bf
       -0.23873389 -0.47626904 -0.79157615 -0.7208306
000080 9a 39 54 40 0d 2d 85 40 50 e0 56 40 14 9b 24 40
       3.3160157 4.1617494 3.357441 2.5719652
000090 ff 3f 1f 40 56 df d8 3f 48 fa 17 40 6b 4a 10 40
       2.488281 1.6943157 2.374651 2.254542
0000a0 f2 59 f4 3f 43 44 7b 3f 75 25 ed 3f 39 95 0d 40
       1.9089949 0.98151034 1.8527056 2.2122328
0000b0 fd cb 9a 3f 14 e4 88 3e 18 a5 07 3e e7 c1 dd be
       1.2093502 0.2673651 0.13246572 -0.43311998
0000c0 40 04 dd be bf 91 82 be a8 47 92 be 0f 59 85 be
       -0.43167305 -0.2550182 -0.28570294 -0.2604451
0000d0 52 13 e4 be e1 66 9e be ac 60 a3 3e d6 c1 8b 3f
       -0.4454599 -0.30937865 0.31909692 1.0918529
0000e0 ab c5 91 3f a9 59 aa 3f 98 a1 e3 3f 88 78 14 40
       1.1388448 1.3308612 1.778369 2.3198566
0000f0 f6 64 24 40 8b 27 56 40 41 a3 53 40 fc 97 44 40
       2.5686622 3.3461635 3.3068392 3.0717764

c1.bias f4 [2]
000000 a0 8b d9 bf d5 7b e2 be
       -1.6995735 -0.442351

c2.weight f4 [2, 2, 16]
000000 90 3e 9d 3f 45 d5 9a 3f 18 fb af 3f 48 5f 02 40
       1.2284718 1.2096335 1.3748503 2.0370655
000010 3a 3a 10 40 c6 f4 0c 40 d0 b7 00 40 5d 97 ed 3f
       2.2535539 2.2024398 2.011219 1.8561817
000020 f1 2c 88 3f 68 1d ef 3e 3d ce af be 66 3b 80 bf
       1.0638715 0.46702123 -0.34337035 -1.0018127
000030 98 97 b5 bf d3 43 b8 bf 84 e9 a5 bf a0 76 91 bf
       -1.4186888 -1.4395698 -1.2961888 -1.1364326
000040 37 da 87 be 48 cd ef bd f5 9d 9e be 3a bf 71 be
       -0.26533672 -0.11709076 -0.30979887 -0.23608103
000050 50 08 2b be e5 4e b0 bd 07 08 1d 3e e0 a5 87 3e
       -0.1670239 -0.08608798 0.15335093 0.2649374
000060 05 22 f0 3e 3c bc bf 3e 58 77 1f 3f 7a 8b 41 3f
       0.46900955 0.374483 0.6229148 0.7560345
000070 e6 6f 08 3f b4 2e f7 3e 08 80 78 3e d3 7b d0 3e
       0.53295743 0.4827782 0.2426759 0.4071947
000080 29 d8 76 3f 17 dc 96 3f 41 bf a7 3f 96 27 21 3f
       0.96423584 1.1785916 1.3105241 0.6295103
000090 ae 44 55 be 86 d4 66 bf f8 e6 48 bf f5 c9 e7 3e
       -0.2082698 -0.90168035 -0.7847743 0.45271268
0000a0 b8 4d a1 3f 3b b9 78 3f 87 86 ca be 39 04 b1 bf
       1.2601843 0.9715764 -0.3955576 -1.3829414
0000b0 d9 cf 91 bf 4a 9f 21 3f 25 41 c5 3f e0 13 91 3f
       -1.1391555 0.6313368 1.5410506 1.133419
0000c0 c1 f5 d4 be 6b 1a 49 be b3 ce 81 be 7c e7 cd be
       -0.41593745 -0.19638984 -0.2535301 -0.4021567
0000d0 fc 2b 97 be 1d 61 ec bb ec 28 17 3f de ef 2e 3f
       -0.29525745 -0.0072137252 0.59046817 0.6833476
0000e0 8a 7a 38 3f c3 2a 84 3f 89 7f 2f 3f 9f 0b da 3e
       0.7206198 1.032555 0.6855398 0.4258699
0000f0 d8 f6 7f be df 86 9e be 16 3c ee be f5 3f ec be
       -0.24996507 -0.30962273 -0.46530217 -0.46142545

c2.bias f4 [2]
000000 9a 59 be c0 41 a5 af c0
       -5.9484377 -5.4889226

linear_sigmoid_stack.0.weight f4 [320, 234]
000000 57 03 1d bf ce 59 c0 be c4 95 05 bf 26 8d 84 be
       -0.6133322 -0.37568516 -0.5218165 -0.25888938
000010 66 76 cd be 0a 94 85 be 03 c7 8c bd b5 9c ef be
       -0.40129393 -0.26089507 -0.06873896 -0.46799245
000020 3a 0f 1f bf 1d 78 1c bf 13 5d 44 bf 96 d1 47 bf
       -0.6213261 -0.6112078 -0.7670452 -0.7805418
000030 e1 a3 95 bf 76 3b 8f bf ee ca a6 bf a1 dd a7 bf
       -1.1690637 -1.1190021 -1.3030679 -1.3114511
000040 1f 5f 97 bf 3a 58 72 bf 6e fa 36 bf 74 5c 10 bf
       -1.1825904 -0.94665873 -0.71475875 -0.5639107
000050 2c d7 94 be bd bc 6d bd 0b ab e1 3d bc 9f b3 3d
       -0.29070413 -0.058041323 0.11018952 0.08770701
000060 df 85 70 3e 69 14 c0 3e f4 22 52 3f 30 55 46 3f
       0.23488568 0.37515572 0.82084584 0.77473736
000070 fc d5 06 3f d3 15 c3 3e f7 45 8d 3e d1 f6 ac 3d
       0.52670264 0.38102588 0.2759244 0.08445514
000080 16 cc 61 3d 3d d8 7a 3e d7 b7 8d 3e ea c4 86 3e
       0.055126272 0.24496551 0.2767932 0.26322109
000090 db 4f ac 3e ca 5e b4 3e c5 af 13 3e a2 3d ab 3d
       0.33654675 0.35228568 0.1442252 0.08361365
0000a0 0f d3 af 3d 9b 47 cb 3d 30 ef f1 3d 68 a5 ac 3e
       0.08585178 0.09925767 0.118131995 0.33719945
0000b0 bb 91 df bd 99 b0 e2 bc a3 9a 54 bd f9 6d 1b be
       -0.10916468 -0.027672099 -0.051905286 -0.1517867
0000c0 b8 43 42 be 39 70 ae be 86 75 1e bf 5c 9b 52 bf
       -0.18971145 -0.34069994 -0.61898077 -0.8226831
0000d0 0f 47 51 bf 6e 70 7a bf 54 46 8f bf 1a 74 87 bf
       -0.8174905 -0.97827804 -1.1193337 -1.0582306
0000e0 c0 b3 6f bf 68 87 2f bf aa 42 2e bf 95 b1 2e bf
       -0.9363365 -0.6856599 -0.6807047 -0.6823972
0000f0 58 29 28 bf e2 47 c8 be 68 5b 6a be 55 a8 61 3d
       -0.65688086 -0.39117342 -0.22886431 0.055092175
000100 7b 7e 04 be d1 07 3c bc d6 f5 6e be 91 09 e2 be
       -0.12938873 -0.011476473 -0.23335966 -0.44147924
000110 c4 05 a8 be 30 f4 5a be d7 a7 10 bf 8a 19 dc be
       -0.328169 -0.21382213 -0.56506103 -0.42988235
000120 89 3f fe be 3c 00 25 bf 3b 4a 79 be ec f7 c6 be
       -0.49657848 -0.6445348 -0.24344723 -0.38861024
000130 66 d5 ab be 75 22 41 bd e5 6b 75 be c7 0f b5 be
       -0.33561248 -0.047152 -0.2396694 -0.353636
000140 87 87 ba be 86 00 b4 be 0c 3d 0b bf ac 17 33 bf
       -0.36431524 -0.3515665 -0.54390025 -0.69957995
000150 ca 99 16 bf b4 18 0a bf 7e 98 19 bf b4 d4 36 bf
       -0.58828413 -0.53943944 -0.5999831 -0.7141831
000160 f1 ba 06 bf e2 c5 35 bf c4 0e e8 be 30 d1 ec be
       -0.52629 -0.7100507 -0.45323765 -0.46253347
000170 d4 33 28 bf 47 49 0f bf 49 31 90 be a7 ca 2b be
       -0.65704083 -0.5597119 -0.28162602 -0.16776524
000180 e7 2a de be d5 3e 3b bf b9 27 af be 17 16 00 bf
       -0.43392107 -0.7314275 -0.34209993 -0.50033706
000190 40 b5 51 bf 0b f9 f8 be 51 53 a1 be a1 30 41 3e
       -0.8191719 -0.48627505 -0.31508878 0.18866207
0001a0 ec a0 88 3f 73 07 de 3f 1a 19 2f 40 b8 c3 55 40
       1.067411 1.7346023 2.735907 3.3400707
0001b0 b3 7d 69 40 f0 3e 73 40 a3 13 66 40 1c 53 5f 40
       3.648297 3.8007164 3.5949485 3.4894476
0001c0 8e 71 58 40 ca a2 58 40 13 d2 50 40 7f 95 4e 40
       3.3819308 3.3849359 3.262822 3.2278745
0001d0 19 66 4b 40 c6 02 43 40 73 56 31 40 a7 48 20 40
       3.1781065 3.0470443 2.7709014 2.5044343
0001e0 88 ec 0d 40 e2 db 03 40 2d f0 fb 3f 99 08 ee 3f
       2.2175617 2.0602956 1.9682671 1.8596374
0001f0 61 3f dd 3f a2 e6 cf 3f 16 47 ca 3f 86 8d c3 3f
       1.7284967 1.6242259 1.5802944 1.5277565
000200 a5 9f cc 3f 14 0f c3 3f ce c0 a1 3f ce 38 91 3f
       1.598622 1.5238976 1.2636964 1.134546
000210 c4 97 87 3f 97 7d 8d 3f ff da 93 3f 65 e6 92 3f
       1.059319 1.1053952 1.1551207 1.1476561
000220 67 0f 8f 3f d7 fc 87 3f aa d7 75 3f 3d 98 68 3f
       1.1176575 1.0624036 0.960322 0.908573
000230 36 3c 41 3f 29 f7 1e 3f 63 24 eb 3e f0 fe 5e 3e
       0.754825 0.62095886 0.45926198 0.21776938
000240 67 0b 89 3e 7b 63 a2 3e 45 70 f4 3e 79 b3 de 3e
       0.26766512 0.31716523 0.47741905 0.43496302
000250 20 f5 d1 3e cb 57 97 3e e6 fd 41 3e e5 4e db 3d
       0.41007328 0.29559168 0.18944511 0.10708407
000260 29 a2 f0 3d 18 de 5b 3e b6 67 01 3e 8a 9b 90 3d
       0.117496796 0.21471441 0.12637219 0.07060917
000270 96 a3 ed 3d 2b b9 73 3e c2 46 b2 3e e8 26 a5 3e
       0.11603467 0.23801105 0.3481961 0.32256246
000280 25 ea fb 3e b6 93 a2 3e d7 21 aa 3e ef af 9c 3e
       0.49202076 0.3175332 0.33228943 0.30602977
000290 b8 78 ba 3e 3d 0a a0 3e 5f 87 14 3e 76 a6 04 3e
       0.36420226 0.3125781 0.14504765 0.12954125
0002a0 d2 01 e4 3d 61 ed 21 3e b4 79 93 3e fa 42 ef 3e
       0.1113316 0.15813209 0.2880379 0.46730787
0002b0 74 76 1e 3e f8 73 ba 3d 93 ab b1 3d c2 8d 52 3d
       0.15474874 0.091041505 0.08675303 0.051404722
0002c0 c9 f5 1a 3c 20 d3 86 3e 18 00 d7 3e 19 35 f5 3e
       0.009458014 0.2633295 0.4199226 0.47892073
0002d0 09 23 c1 3e 27 11 6c 3e f9 a1 c7 bc 6b 66 0a 3e
       0.37722042 0.23053418 -0.024369227 0.13515632
0002e0 19 f4 ad 3e 47 2b f5 3e 6d 61 09 3f 79 bc 01 3f
       0.33975294 0.4788458 0.53664285 0.5067821
0002f0 bf c0 95 3e ba 87 80 3e 9c d3 74 3e 84 bb 3c 3e
       0.29248616 0.2510355 0.23908848 0.18430907
000300 1f 96 d9 3d 1d 7a 40 bd 2b 68 c7 3d dc ce c0 3e
       0.106243365 -0.046991456 0.09736665 0.3765782
000310 77 1c 2f 3e ba 94 b6 3e 55 94 d3 3d 7f d8 dc bd
       0.17100702 0.35660344 0.103310265 -0.10783481
000320 e5 91 18 3d 4d 2b 78 3e fb f5 ad 3e 7f e0 04 3e
       0.03724851 0.24235268 0.3397673 0.12976263
000330 1d b5 9f 3e 16 b9 be 3d ad ee 25 3e ec 4b 6a 3e
       0.31192866 0.09312646 0.16204329 0.22880524
000340 82 41 00 3f f6 ee e2 3e 05 bf eb 3e 4f 08 13 3f
       0.50099957 0.44322938 0.46044174 0.5743455
000350 37 51 2a 3f 78 5f 34 3f 7e 30 46 3f 76 df 4d 3f
       0.66530174 0.70458174 0.77417743 0.804191
000360 68 be 19 3f 76 1d 1e 3f 69 79 25 3f 11 f7 05 3f
       0.6005616 0.61763704 0.6463838 0.5233012
000370 27 7b 13 3f c8 44 2c 3f 57 1e 4e 3f c9 84 56 3f
       0.5760979 0.6729245 0.80515045 0.83796364
000380 1d f1 2c 3f 24 45 93 3d ac 62 3b 3d b7 f6 0c 3e
       0.6755541 0.07190922 0.045748398 0.13765989
000390 27 cc 48 3e f2 a1 fb 3e cf 15 e5 3e 00 66 05 bf
       0.19609128 0.49146992 0.447432 -0.52108765
0003a0 11 8f bc be 0c 6e d0 3e a7 40 0f c0 45 2d af bf
       -0.368279 0.4070896 -2.238321 -1.368569
0003b0 ed e6 d8 bf 9f 6f 96 bf 26 66 79 bf e3 a2 76 bf
       -1.6945473 -1.1752814 -0.9742149 -0.96342295
0003c0 29 1d 8b bf e9 f4 98 bf f3 02 a3 bf 54 1c aa bf
       -1.0868274 -1.1949741 -1.2735275 -1.3289895
0003d0 15 eb 97 bf 06 a1 81 bf fa 23 78 bf 16 de 8e bf
       -1.1868616 -1.0127265 -0.96929896 -1.1161525
0003e0 93 d4 a3 bf c5 22 a6 bf 6c c4 95 bf 95 e6 8f bf
       -1.2799248 -1.2979361 -1.1700568 -1.1242243
0003f0 e0 45 61 bf 1a 8e 54 bf 1b ab 36 bf bd 57 0d bf
       -0.87997246 -0.8302933 -0.71354836 -0.55212003

linear_sigmoid_stack.0.bias f4 [320]
000000 cb 02 82 bc 70 50 79 be fb 29 12 bf 3d d7 83 be
       -0.015870472 -0.2434709 -0.5709531 -0.2575015
000010 e7 d1 e2 3e 19 7b 7b bf b2 fc 82 be 46 1f 9c 3e
       0.44300768 -0.9823471 -0.25583416 0.3049261
000020 bf c0 08 be 1f 5a c5 bf 28 bf 33 bf 5c fd 52 bf
       -0.13354777 -1.5418128 -0.70213556 -0.82417846
000030 3f bc 76 3e fa 2e 50 be 98 5a 97 be e1 55 6b be
       0.24095248 -0.2033042 -0.29561305 -0.22981979
000040 83 4e 86 bf a6 0a 98 3d f2 99 c6 3e d3 59 84 bf
       -1.049271 0.07423906 0.38789326 -1.0339912
000050 32 9f d0 bf 88 72 5c bf df 07 04 bf a9 a1 6c bf
       -1.6298583 -0.8611226 -0.5157451 -0.92434174
000060 0d e1 60 3e 1e 7e cd be 78 fd b1 be c7 4b 18 bf
       0.2196085 -0.40135282 -0.34763694 -0.5949063
000070 3b 98 1a bf 2b fc e6 bf 97 03 11 3f 38 b3 fd 3d
       -0.60388535 -1.8045706 0.566461 0.12387699
000080 89 63 61 3e ca fa 69 3f ce 3c 8e be e1 b8 e7 be
       0.22010626 0.913983 -0.27780765 -0.4525824
000090 3e 7c 5f be 03 09 7c bf 52 1b b9 3c 3d b1 9d be
       -0.21824738 -0.9845125 0.022596035 -0.30799285
0000a0 af 65 cd 3f 03 9d 20 3e 25 9d a8 bf 97 71 91 3e
       1.6046656 0.15684895 -1.3172957 0.28406975
0000b0 a0 fc 3a bf ba d9 26 3f 1e 3e ba be 0d 29 7a bf
       -0.73041725 0.65175974 -0.36375517 -0.9771889
0000c0 5c 4a 4b 3d 45 d5 83 be 6e 67 44 3f e7 7a c0 be
       0.04963146 -0.2574865 0.7672032 -0.37593767
0000d0 85 c6 c1 bf e1 4f 44 bf 56 fd c5 3e 68 55 64 be
       -1.5138708 -0.76684386 0.38669842 -0.22298205
0000e0 25 9b 83 3e 23 c6 a5 bf 10 84 48 3d fc 7c 38 bf
       0.25704303 -1.2951092 0.04895407 -0.7206571
0000f0 4b bc c5 bf f6 2b ba bd 8b d5 4c bf 7b ce a7 3d
       -1.5448087 -0.09090416 -0.8001334 0.0819368
000100 c1 21 c7 be 50 cb c2 3e d2 59 30 bf 41 a6 9b 3c
       -0.3889294 0.3804574 -0.68887055 0.019000174
000110 75 50 c6 bf 18 6a 9a 3e 20 b9 c0 bf 6a 9e d8 bd
       -1.5493304 0.30159068 -1.5056496 -0.1057709
000120 7a fb 0b 40 fb 38 1b be f6 7f 98 3c 27 0e 1d 3d
       2.187224 -0.15158455 0.018615704 0.038343575
000130 80 72 0a bd 60 49 28 bf bd 48 d4 3f 71 41 d4 bd
       -0.033800602 -0.6573696 1.6584698 -0.103640445
000140 0a b2 0c be 65 9a 8d bf ed 76 c5 bd 80 07 8d bf
       -0.13739792 -1.1062742 -0.09641824 -1.1017914
000150 19 7e 16 3e e2 a2 2f 3f 05 99 b2 be c5 71 5c bf
       0.1469654 0.68607914 -0.3488237 -0.861111
000160 c8 98 04 bf 6d 39 97 3e 76 5e 13 bf 41 6f df 3e
       -0.51795626 0.29536 -0.5756601 0.43639567
000170 47 8b 81 3e 56 9b 73 bd b8 89 ee be d4 fa 5c c0
       0.25301573 -0.05947431 -0.46589446 -3.4528093
000180 95 d7 13 3f 32 18 ab 3e c7 9d 04 bb 8f 8f cd be
       0.5775083 0.33416897 -0.0020235644 -0.4014859
000190 48 b0 8a be f9 ec 60 bf 03 1c 8c 3e 23 f5 9f bf
       -0.27087617 -0.8786159 0.2736512 -1.2496685
0001a0 72 df cb bf b4 ea 57 bf d5 ef 4e 40 98 df 83 be
       -1.5927565 -0.84342504 3.2333882 -0.25756526
0001b0 44 74 c8 3e 27 31 ed 3e 5d 5a 83 bf 62 ee 6a 3d
       0.39151204 0.46326563 -1.0261952 0.057356246
0001c0 d8 50 94 3f c1 8b 26 3e 97 2d fe 3e a5 07 8a 3e
       1.1587172 0.1626425 0.49644157 0.26958957
0001d0 f8 6f b3 be ea b1 61 bf 09 d6 6b bf f4 56 cc 3e
       -0.35046363 -0.881621 -0.92123467 0.3991009
0001e0 cd 69 63 bf ab ff 6a be 2c a9 09 bd 26 d0 2f bf
       -0.88833314 -0.22949092 -0.0336086 -0.68676984
0001f0 01 d8 54 bf 06 0f d2 3e 88 f2 3c bf 0f 61 33 be
       -0.83142096 0.41027087 -0.73807573 -0.17517494
000200 13 44 83 3d d1 73 89 be 93 8f 92 be 8a 1b 5b c0
       0.064094685 -0.26846173 -0.28625163 -3.4235559
000210 42 d7 7e be 4c 42 44 c0 34 6c 3e 3e 1a 98 c6 bf
       -0.24886802 -3.0665464 0.18595964 -1.5515168
000220 81 00 ce bd e7 19 a0 bf d2 fa 08 bf 06 48 00 bf
       -0.1005869 -1.2507905 -0.5350772 -0.501099
000230 9b ec fe be 56 29 5b bf 0b 9d a8 3d c8 2c bc bf
       -0.4978989 -0.8560995 0.082330786 -1.4701166
000240 d9 58 1a be 54 d5 86 bf 01 fd 28 bf ba 35 3a bf
       -0.15072955 -1.0533853 -0.66011053 -0.7273823
000250 f1 28 a8 3e fc 2e ae 3f 53 ef e2 bf 55 cd 7e 3e
       0.32843736 1.3608088 -1.7729286 0.24883015
000260 fa 6e e4 bf c5 e1 a1 3e 45 13 be 3e 12 3d e8 3e
       -1.7846367 0.3161756 0.37124076 0.45359093
000270 d4 6d 8c 3e 65 d8 74 bf 73 ed 01 bf af 49 5f bf
       0.27427542 -0.9564269 -0.50752944 -0.8722181
000280 70 fc 53 3e 9c a1 3e bf 61 76 99 3e c9 40 16 be
       0.20701766 -0.74465346 0.29973128 -0.14673151
000290 6b 3a 36 be 59 75 c4 3d 1f 5c 6d bf 6d 70 01 3e
       -0.17795722 0.09592695 -0.9271869 0.12640543
0002a0 d8 a5 1d bf 86 85 89 3e 5b 1b 25 bf 6b 03 27 bf
       -0.6158118 0.26859683 -0.64494866 -0.6523959
0002b0 22 53 bd be 54 2a 8c 3e 0d 91 25 bf 88 9a 83 bf
       -0.36977488 0.27376044 -0.64674455 -1.0281534
0002c0 54 94 8d 3f dd 1a 43 bf 05 9d 00 3e 4c f6 85 be
       1.1060891 -0.76212865 0.12559898 -0.26164472
0002d0 14 78 31 3e 14 55 f8 bf 82 49 be 3e 3c bc 96 be
       0.17330962 -1.9400964 0.37165457 -0.29440486
0002e0 01 5f 30 be 2a 26 c0 be 2d 84 7a 3d ac b6 e7 be
       -0.17223741 -0.37529117 0.06116121 -0.45256555
0002f0 97 76 c9 be 75 e6 19 bf c8 e3 8b bc eb 37 4e be
       -0.3934829 -0.60117275 -0.017076388 -0.20138519
000300 23 01 e4 be c4 e0 bd 3e 44 76 77 be 04 17 ea bd
       -0.44532117 0.37085545 -0.24166209 -0.11430171
000310 57 0b 89 bf c9 3d b5 be ab 64 0f 3c 27 41 c4 be
       -1.0706586 -0.353987 0.008752028 -0.38330957
000320 56 58 b4 be ac b5 e0 bf f1 6f a2 be 83 36 b2 bf
       -0.35223645 -1.7555442 -0.3172603 -1.3922886
000330 4f 59 8c be fd eb 19 3f 14 fc 1b be f7 6b d3 be
       -0.27411887 0.60125715 -0.15232879 -0.41293308
000340 e1 39 fd be 99 60 12 bf b7 87 05 3e c2 12 58 bd
       -0.4945822 -0.57178646 0.13040052 -0.052752264
000350 20 e3 99 3e 79 6e 9f bf f4 b0 5a bf dd b7 c9 bc
       0.30056095 -1.2455589 -0.8542626 -0.024623806
000360 08 97 e7 3d 7b 03 9d 3e 82 00 84 3d 9b d8 d2 3d
       0.11308104 0.30666718 0.06445409 0.102952205
000370 79 0e 05 c0 1a 35 61 bf 00 11 ac bf e3 64 d0 bb
       -2.0790083 -0.8797165 -1.3442688 -0.006359683
000380 42 7e 8b bd bc ac bf bd 52 a4 47 be 27 82 35 3f
       -0.06811191 -0.09359118 -0.19496277 0.7090172
000390 e8 f2 e3 3e 2e b3 a5 bf 50 0b 1b 3f 36 67 25 3e
       0.4452126 -1.2945306 0.60564137 0.16152653
0003a0 1c ea 0d c0 21 5d 02 c0 64 b8 b3 be df 86 1f bf
       -2.217414 -2.0369341 -0.35101616 -0.6231517
0003b0 43 e5 04 be a8 22 2e bf 44 86 35 be db 89 37 be
       -0.12978081 -0.6802163 -0.17727 -0.17923681
0003c0 a7 db 8b be 7b 72 e9 be a8 1b 46 bf a4 a8 a9 bf
       -0.2731602 -0.45595154 -0.7738595 -1.325459
0003d0 0b 2b e1 be 64 fa 34 bf fb d7 5d bf 2c 2d 01 3d
       -0.43978152 -0.70694566 -0.86657685 0.03153722
0003e0 fe 06 ea bd d6 b9 e3 3d ed e6 f1 bf 98 10 c9 3f
       -0.11427115 0.1111943 -1.8898598 1.5708189
0003f0 e4 2e 59 3e da 2b 6d be c8 e0 bf be 40 a7 46 bf
       0.21209294 -0.2316126 -0.37476182 -0.77598953

linear_sigmoid_stack.2.weight f4 [160, 320]
000000 59 d4 bd be e1 55 95 be d4 d6 55 3f 8a 8e 59 3e
       -0.3707607 -0.29167083 0.83530927 0.2124578
000010 d0 7a ba bf 1e 37 ce bf 07 d7 f8 3e dd d5 83 3d
       -1.4568729 -1.611057 0.48601553 0.064372756
000020 95 cb d5 bf e4 58 96 40 a2 78 86 bd 8a 7c ac 3d
       -1.6702753 4.698351 -0.06565978 0.084221914
000030 23 c4 1b 3e 05 6b 45 3f 07 89 d2 be a5 18 1b 3c
       0.15211539 0.77116424 -0.4112017 0.009466325
000040 d8 0a 38 c0 fb ec 63 c0 3e 38 e0 bc d5 91 90 bf
       -2.8756618 -3.5613391 -0.027370568 -1.1294504
000050 1f f6 81 bd d3 e8 04 40 82 06 6f 3f 51 68 29 3f
       -0.06345772 2.0767105 0.93369305 0.661748
000060 67 f7 2d be 2b fb 21 bf 08 9d c2 be 22 13 99 be
       -0.16988908 -0.63273877 -0.3801043 -0.2989741
000070 3b 9a b0 bd 91 77 e1 bb 89 a1 07 40 52 b5 93 3e
       -0.08623167 -0.0068807085 2.1192343 0.28849274
000080 fa 1e 5b bf b3 d4 b4 40 b2 a6 9a 3f ad f8 75 3e
       -0.8559414 5.6509643 1.2082121 0.24020644
000090 1d 3f 90 3d db 09 33 c1 41 9f 03 3e b9 34 66 be
       0.07043288 -11.189906 0.1285372 -0.2248105
0000a0 f6 92 15 3f d5 ef 31 3e bd be 26 bf 7d 05 b3 3f
       0.5842737 0.17376645 -0.65134794 1.398605
0000b0 39 0d e8 3e b0 a8 9e be 61 b0 3a 3f 2c 69 c5 3e
       0.45322588 -0.30988073 0.7292538 0.38556802
0000c0 ea 37 47 be e5 22 d2 bd 08 81 ac 3f 8c d6 94 be
       -0.19454923 -0.10260562 1.3476877 -0.29069936
0000d0 d1 9b c8 bd e9 8f 19 c0 57 aa c7 3f 8f ee 3d 3f
       -0.097953446 -2.3994086 1.5598859 0.74192137
0000e0 f4 47 f3 3c 61 f6 b2 3e a9 55 05 3f db ff 02 c0
       0.029697396 0.34953597 0.5208383 -2.0468662
0000f0 1f 9d c1 3e ff 27 90 be f5 21 c7 3f 1b 2f ad be
       0.37815186 -0.28155515 1.5557238 -0.33825
000100 8a 42 0e 40 46 df 43 be 82 48 8d bf a4 48 cb 3e
       2.2228112 -0.19128141 -1.1037753 0.39703858
000110 41 ea 03 40 90 1d 96 bd 60 78 59 3f 95 d0 e6 be
       2.0611727 -0.07329857 0.849493 -0.4508101
000120 d8 b5 8b c0 ae e5 d9 be 1f 79 fa be fa 01 b7 be
       -4.3659477 -0.42558044 -0.48920533 -0.35743695
000130 68 70 9e bd 50 4b 0a 3f 21 6e f4 3e 40 07 4f 3f
       -0.077362835 0.5402117 0.47740272 0.8087044
000140 b0 69 0e bf 0e cf 8a 3f 3a e1 a8 3e d1 b5 cb 3e
       -0.55630016 1.0844438 0.32984334 0.39787152
000150 dd 2c 37 3f 11 af 06 3d 88 2b 87 3f df d8 aa bf
       0.7155283 0.0328818 1.056016 -1.3347434
000160 3a c2 73 bf 5b a0 9e bf 00 a0 a5 c0 d9 84 2e 3f
       -0.9521824 -1.2392687 -5.1757812 0.6817146
000170 7d 6b b4 3f 66 4a d4 3e 79 f4 3a 3e c1 ee 09 40
       1.4095303 0.41463012 0.18257321 2.1551974
000180 83 18 a5 3f c8 5c b2 bf 8a 4b 99 3e d3 71 8a 3f
       1.2898105 -1.3934565 0.29940444 1.0815986
000190 ed 00 db bf 3c 6e 64 bf 65 89 e0 3f b0 4f 9d bf
       -1.7109658 -0.89230704 1.754193 -1.2289944
0001a0 de 5b d6 be 01 fa 00 c1 86 65 b2 c0 bb 19 43 c0
       -0.41866964 -8.061036 -5.574893 -3.0484455
0001b0 b5 b5 88 be 6a 9b 59 40 4b d1 e4 3f c1 19 c7 be
       -0.2670113 3.4001107 1.7876371 -0.38886836
0001c0 31 d3 78 bf 49 2b 02 c1 a1 ab 02 c0 e5 e8 07 c0
       -0.9719725 -8.135568 -2.0417254 -2.1235898
0001d0 ad 17 1f c0 4f 0c 40 be 99 0d 35 3f 94 20 c4 3f
       -2.48582 -0.18754695 0.70723873 1.5322442
0001e0 01 ad 1f bf 1d 0c 8e 40 58 09 af be cf c3 07 bf
       -0.6237336 4.4389787 -0.34186816 -0.53033155
0001f0 00 ca 03 3f 7b ae 76 3e 6f 73 f2 3d 16 de 53 be
       0.514801 0.24089997 0.118384235 -0.20690188
000200 db e5 24 bf 85 7a 26 be 4a 5c f9 be bb 96 4b 40
       -0.6441323 -0.16257675 -0.48703223 3.1810749
000210 cc f3 d6 bf 52 f6 9d 3f 17 f8 0e c0 6a 03 69 bf
       -1.6793151 1.2340796 -2.2338922 -0.91020834
000220 7a 01 62 3e c3 69 68 3f b7 76 13 c0 f3 a6 f7 bd
       0.22070876 0.9078638 -2.3041208 -0.1209239
000230 78 c3 96 3d 7d 2a 4b 3f 4f 11 63 3c 52 48 06 40
       0.073615015 0.79361707 0.013859107 2.098164
000240 65 09 c4 bf 93 c7 bd 3d 88 b7 73 be 8b f2 22 be
       -1.5315367 0.092665814 -0.2380048 -0.15912835
000250 5b d2 e8 3e 52 97 bb 3e 61 69 28 3d bd 74 51 3f
       0.45472988 0.36638886 0.041116122 0.81818753
000260 ab 16 b3 be 4b 73 50 3e bc 45 12 c0 31 9d 29 be
       -0.34978232 0.20356481 -2.2855062 -0.1656387
000270 42 9d 15 bf 8b c7 85 3f 9b fd 9c 3f 7a b8 a5 3e
       -0.5844308 1.0451521 1.2264894 0.32367307
000280 b9 5b 93 3e f4 53 05 40 e5 e8 0d bf 41 61 05 40
       0.28780916 2.083249 -0.55433494 2.084061
000290 df 6e 02 bf 4e f0 a0 be 19 5e 60 3f b6 33 e7 be
       -0.50950426 -0.31433338 0.8764358 -0.4515664
0002a0 8b 30 a6 bf 8e c5 23 40 dd b5 8d 3e 89 7c 8f c0
       -1.2983564 2.5589328 0.27677813 -4.483952
0002b0 c8 73 4f bf e3 eb 47 bf a9 da 9e 3c 20 e7 1b 3f
       -0.81036043 -0.7809431 0.019391375 0.60899544
0002c0 d7 24 af 3f 2a 40 bb c0 db 87 ab 3e ce 55 0d 3f
       1.3683118 -5.8515825 0.33502087 0.5520905
0002d0 ac cf d4 3e 6b ad c4 be 5d 91 28 be d2 66 a7 3d
       0.4156469 -0.38413557 -0.16461702 0.08173908
0002e0 5c aa d4 3b b7 3d 81 be 24 48 3d 40 40 8f 8f bf
       0.006490035 -0.25242397 2.957528 -1.1215591
0002f0 26 72 9e be de 2c 00 3f a7 80 0b 3f 89 2a b8 bf
       -0.30946463 0.5006846 0.5449318 -1.4387981
000300 b6 6c 4f 3f 4a 6a 6b be d8 66 34 c0 89 9c 3b 3f
       0.81025255 -0.22989765 -2.818777 0.7328573
000310 36 ae a3 bd 00 a8 06 bf d2 28 b5 bd ef e9 00 3e
       -0.079922125 -0.526001 -0.088456765 0.12589239
000320 5d 1d f6 be 0d ff d3 3f 0d 01 ac 3e 87 79 eb be
       -0.48069277 1.656221 0.33594552 -0.45991156
000330 07 a6 b4 bf 14 18 b9 bf ff 61 3f be 43 e3 7a be
       -1.4113168 -1.4460473 -0.18689726 -0.24500756
000340 05 7d bb 3f 6b 8c 0c 3f da 1d 99 be d6 77 24 bd
       1.4647528 0.5490176 -0.29905587 -0.040153347
000350 03 14 61 be e6 c9 90 3f c5 5d 94 bf 95 f0 84 40
       -0.2198029 1.1311615 -1.1591116 4.154368
000360 b6 4b a4 bf 04 97 87 be d9 93 e2 be e9 d2 3f 40
       -1.2835605 -0.26482403 -0.44253424 2.997248
000370 3f 94 b2 c0 22 76 3b 3f 1c 3d e7 3e 34 16 83 3e
       -5.5805964 0.7322713 0.4516381 0.25602877
000380 4c b2 1a 3d 59 b2 54 3f 56 93 56 3f 32 2c f6 3f
       0.037767693 0.83084637 0.83818567 1.9232237
000390 b6 25 0b bf 67 76 7f 3e e4 64 1a 3f b5 f2 82 be
       -0.5435442 0.2494751 0.60310197 -0.25575796
0003a0 4f d6 02 3d 3c dc 5c bf e4 38 6e 3f c5 a6 e6 3f
       0.03194266 -0.8627355 0.9305556 1.8019644
0003b0 88 1b 67 bf c8 f0 23 3e a6 f9 5f c0 c9 f1 2e bf
       -0.90276384 0.1600982 -3.4996123 -0.68337685
0003c0 fb 39 22 bf e7 9b 86 bf b7 20 5b 3f ea c6 5a 3e
       -0.6336972 -1.0516328 0.85596794 0.21364942
0003d0 96 78 e0 bf 2c 22 26 3f dc 9f a6 3f 1b c4 d4 3e
       -1.75368 0.6489589 1.3017535 0.41555867
0003e0 2f 3d c4 be 66 a2 f8 be e5 6b c1 bf c1 a8 87 3f
       -0.3832793 -0.485614 -1.5111052 1.0598375
0003f0 0d 84 cc bd b9 6c dd 3f 50 46 0d 40 48 3e 57 bd
       -0.09986124 1.7298805 2.2074165 -0.05254963

linear_sigmoid_stack.2.bias f4 [160]
000000 b6 da 27 bf 43 1c 18 3f df 1f 14 be cc 92 3d 3e
       -0.655681 0.59418124 -0.14465283 0.1851303
000010 13 06 dd bd 1c 5c 42 bd ec 9d 02 3e 2d 2c a2 be
       -0.10792174 -0.047451124 0.12755555 -0.31674328
000020 a3 36 9b be 9d af 2a 3e dd 16 62 be f4 e2 17 3e
       -0.30315122 0.16668554 -0.22079034 0.1483267
000030 8a 82 91 be 9a 9b 57 bd 55 82 16 3e d6 fd a5 be
       -0.28419906 -0.052638628 0.14698155 -0.32420224
000040 b7 7d 04 3f 44 eb d9 bf 57 f2 d0 bd fe 7e d5 3e
       0.51754326 -1.7024922 -0.10202473 0.4169845
000050 66 ac 50 3d 28 1d 97 3d 29 4e 79 3e 9c 33 e1 bd
       0.050945662 0.07378608 0.24346222 -0.10996172
000060 61 9c 40 3e 20 60 88 bc 1b 7b ce bd 5e df fe be
       0.18809654 -0.016647398 -0.10082074 -0.4977979
000070 d7 fa bf bd 01 bf d9 3d 59 7e 8c 3e c1 fa 6d 3f
       -0.09374016 0.10632134 0.27440146 0.92960745
000080 97 5a 41 3e c5 fa 3b bf 04 97 71 3d fc 0c 8d bc
       0.18882214 -0.7342952 0.05898191 -0.017218105
000090 02 5d b1 be 5b bf b6 be 32 e4 b6 3e 30 51 59 be
       -0.34641272 -0.35692868 0.35720974 -0.21222377
0000a0 ff 96 9a 3e 65 67 a1 be 74 84 56 be f3 f8 7d 3e
       0.30193326 -0.31524196 -0.20948964 0.24801998
0000b0 e3 7a c3 bd cd ed 3d 3e 5e 3d c9 3d e4 5b fb be
       -0.09544923 0.18547745 0.09826158 -0.49093544
0000c0 a1 34 74 3f c7 29 99 be c8 55 00 3e 21 fb c4 3e
       0.95392805 -0.29914686 0.12532723 0.38472846
0000d0 18 bd 9f be 27 65 13 bf 0d 32 08 be 22 e9 a8 3e
       -0.31198955 -0.5757622 -0.13300343 0.32990366
0000e0 10 d9 ef 3e 83 47 10 3e 06 0c a2 3d 82 b4 90 3e
       0.46845293 0.1408978 0.079124495 0.28262717
0000f0 07 5f 96 3d 87 4b 00 be 7e 44 6c bd 26 89 8a be
       0.07342344 -0.12528811 -0.057682507 -0.2705776
000100 d7 e0 4a 3e 73 f3 80 bd 05 80 97 3e 1e ab d9 bc
       0.19812332 -0.06296434 0.2958986 -0.026570853
000110 a3 6c 2a be 28 5a 74 be f3 d9 26 bd 5f e1 81 3e
       -0.16643004 -0.23862517 -0.040735196 0.25367257
000120 29 e3 5c be a4 55 b6 be 5e f5 1e bf 55 3e 61 bf
       -0.2157103 -0.35612214 -0.6209315 -0.87985736
000130 9f 0c 28 bd cd 8e 0d bb eb 1b 69 3e 59 53 0d be
       -0.04102766 -0.0021600008 0.22764556 -0.13801326
000140 1f a1 2a bd d1 92 6d be 68 89 2f 3e 6d 6f 4d 3e
       -0.041657563 -0.23200537 0.1714226 0.20062037
000150 b3 49 97 be ec 5b 8e 3d 0c 6b 4f bf 70 18 1b 3d
       -0.29548416 0.069511265 -0.81022716 0.037865102
000160 61 47 14 3e 70 ab 62 3d f3 69 0e 3e 8e ad 26 3e
       0.14480354 0.055339277 0.13907604 0.16277143
000170 37 4a 00 bd e5 94 f9 3d 6f 4a bb bd d4 0e c4 be
       -0.031320777 0.121866025 -0.091450565 -0.38292563
000180 08 dd dd 3d 99 a8 a3 be d3 18 47 3e f0 0d 4b bd
       0.10833174 -0.31964567 0.19443063 -0.04957384
000190 6b 95 4b be 73 f0 6b be 14 a0 11 be a7 97 40 be
       -0.19881217 -0.23040943 -0.14221221 -0.18807851
0001a0 38 01 2b 3d 5a f0 fd 3d 75 15 e5 3d 97 10 40 be
       0.04174921 0.12399359 0.11185733 -0.18756329
0001b0 34 60 42 3c 34 7d 86 3e ec 5e a3 3e f2 d3 39 bd
       0.011863757 0.26267397 0.31908357 -0.045368142
0001c0 95 02 a2 be 36 91 4a 3d d8 f1 ee be ce 74 da 3d
       -0.31642595 0.04945489 -0.46668887 0.1066681
0001d0 de b4 87 bd 96 4a 6e bd c9 1a 07 3d 79 a7 be 3b
       -0.066262946 -0.0581766 0.03298453 0.005818304
0001e0 32 40 c7 bd 4a c1 7f 3d 1b e2 d2 be 34 22 3a 3e
       -0.09729041 0.062440194 -0.4118813 0.1817711
0001f0 36 51 51 bc de f2 ff bc ad bd 35 bc 28 ea 95 3e
       -0.01277571 -0.031243738 -0.0110925855 0.2928021
000200 f9 bb 45 3e 84 89 aa 3e a9 7d 21 be 10 32 b2 3d
       0.19309987 0.3330804 -0.15770592 0.08700955
000210 85 f3 5b 3c 62 a5 28 3e 0c e4 5e bf 39 70 16 3f
       0.013424759 0.16469339 -0.8706672 0.5876499
000220 ad dd 28 be b9 c5 08 bd 69 3d 92 bd 46 89 84 3d
       -0.16490813 -0.033391688 -0.07140619 0.06471495
000230 b4 5c 21 3e 3b 18 44 3e 99 80 14 3e 16 7b 9d bd
       0.1575802 0.19149868 0.14502181 -0.076894924
000240 b8 ec 3b 3e 83 56 51 3e 30 43 fc 3d 5c bc 10 be
       0.1835202 0.20443158 0.123175025 -0.14134353
000250 c5 ee 83 bd fe 99 c4 bf 16 a7 c9 3e f6 d4 2e bd
       -0.06442026 -1.5359495 0.3938529 -0.042683564
000260 65 e3 f9 3e 4d 29 73 bd 73 09 8c 3a 79 ee 40 be
       0.488063 -0.05936556 0.0010683968 -0.1884097
000270 08 e1 16 3e 54 de 47 3e a7 75 8d bd bc 00 bf bd
       0.1473428 0.19518405 -0.06907206 -0.09326312

linear_sigmoid_stack.4.weight f4 [80, 160]
000000 4a 85 da 3e b8 0c 3e bd 8f 54 65 3f a1 9e a4 be
       0.42679816 -0.04639885 0.8958215 -0.32152274
000010 87 30 c7 bd 28 07 b9 3e be 63 47 bf 10 0b 8b be
       -0.09726053 0.36138272 -0.7788657 -0.27156878
000020 93 76 66 be 6c 2d 59 be 44 b5 de bf e3 de f0 3d
       -0.2250617 -0.21208733 -1.7399068 0.11761262
000030 8e 05 2e 3f f4 fa 90 be 51 e8 42 3f 37 2e 11 3e
       0.67977226 -0.28316462 0.76135737 0.14177786
000040 6b aa e8 bd 0e 85 cc 3e a0 59 b7 3c ed 39 ca be
       -0.1136063 0.39945263 0.022381604 -0.3949732
000050 5f 0a 99 bf 5a c8 e1 be ba 6b a5 3e 9c 4c 88 be
       -1.195629 -0.4409817 0.3230875 -0.26620948
000060 5d 3d 67 bf a7 63 fd 3e 7e e8 75 bf 3b 65 9b be
       -0.9032801 0.4949009 -0.9605788 -0.3035067
000070 ce 09 46 bf 6e 5d 14 3f b1 b7 59 bf d3 1b 00 3f
       -0.7735871 0.5795506 -0.85045916 0.50042456
000080 d3 3c a0 bf 17 a6 b2 3f bd 68 09 bf 9a 0b c1 be
       -1.2518562 1.3956937 -0.5367544 -0.37704164
000090 8d 59 0b 3f 5b a2 3f 3d 58 62 02 be 51 ac 84 bb
       0.5443352 0.046785694 -0.12732828 -0.004048862
0000a0 57 f0 1e bf 7d 3f 1c bf 6e f7 89 3e b0 70 34 be
       -0.6208548 -0.61034375 0.26946586 -0.17621112
0000b0 1c 8c 66 bd 91 86 e0 be c7 98 ef be 35 f6 02 3f
       -0.056285962 -0.43852666 -0.46796247 0.5115693
0000c0 bb b3 67 be 41 87 18 be 23 4c 4f be b4 be 0c bf
       -0.22627155 -0.14895345 -0.20243888 -0.5497849
0000d0 10 cc af bf e6 b8 0b bf 95 1c b8 be a3 c8 54 be
       -1.373415 -0.5457901 -0.35959306 -0.20779662
0000e0 13 9e 1a 3f 37 0b 1d 40 68 54 14 40 7c 79 bc be
       0.6039745 2.4538095 2.3176517 -0.36811435
0000f0 59 ee 17 3e e0 a0 32 be 69 f0 9d bd 0d 85 dd 3d
       0.14837016 -0.17444181 -0.0771187 0.10816393
000100 2c 84 03 be ab c3 ac be a1 9f dd 3d f5 b5 98 be
       -0.12843388 -0.33743033 0.108214624 -0.29826322
000110 c6 83 ec 3e 70 0f 8c 3e ae af 97 c0 da 96 a7 be
       0.46194285 0.27355528 -4.7401953 -0.32732278
000120 29 d6 e6 be f3 b5 82 3f fd 38 1d be 4a 38 2c 3f
       -0.45085266 1.0211776 -0.1535377 0.6727339
000130 ed 2e b9 3f 9e b8 a8 3e 36 c8 15 be 18 6e 35 3f
       1.4467446 0.32953352 -0.14627156 0.70871115
000140 83 b6 db bf 75 f5 f4 3d cc 9d fb be 6d e9 76 be
       -1.7165073 0.1196088 -0.49143827 -0.24112482
000150 bf b0 a1 3d 02 9d cc bd 7c c0 62 be 63 1e b7 be
       0.0789504 -0.09990884 -0.2214374 -0.3576537
000160 e2 0e b4 be 29 44 44 be bf fe 0d 3f f5 63 00 3d
       -0.35167605 -0.19166626 0.55466837 0.031345326
000170 c5 b6 68 c0 09 af 92 3e e1 1f 89 bf 62 dc ef be
       -3.6361554 0.28649166 -1.0712854 -0.46847826
000180 24 be 25 bf 8f b8 e1 be 2d fa 98 bf 77 51 15 3e
       -0.64743257 -0.4408612 -1.1951348 0.14581858
000190 4e 0e 6e 3e f1 7f b9 bd f2 e7 19 3f 8e e2 83 3e
       0.23247644 -0.09057606 0.60119545 0.25758785
0001a0 70 a2 25 3f 5a f9 49 3f ae 8d b3 3e ff ef c5 be
       0.64700985 0.78896105 0.3506903 -0.38659665
0001b0 7e fa 17 bf ea 85 b3 bd 41 cd 9a bf a2 29 24 c0
       -0.59366596 -0.087657765 -1.2093889 -2.565041
0001c0 23 88 8d bd ff b2 8f bf 76 87 15 bf 87 1e 84 be
       -0.06910732 -1.12265 -0.5840982 -0.2580454
0001d0 90 8f fa 3e 23 04 9a 3f 37 b8 88 bf 3a 98 bf 3d
       0.48937654 1.2032512 -1.0681218 0.09355207
0001e0 b0 46 06 3f cd 74 57 be 7d 15 a8 bd c0 eb e2 3e
       0.5245161 -0.2104065 -0.082072236 0.44320488
0001f0 cc 0d 6e bc 4e 71 92 be 31 b1 a7 bd cb 5b 87 bd
       -0.014529657 -0.2860207 -0.081880935 -0.06609305
000200 67 67 ee be 3a ec 6f be 3e 75 10 3e ce 0b 0b be
       -0.46563265 -0.23429957 0.14107224 -0.13578722
000210 bd 4c 42 bf 79 fe 46 bf 5b e3 35 be 99 3e 11 3f
       -0.75898343 -0.77732044 -0.1776251 0.5673614
000220 65 7b a8 3e 98 3a 0c bf 71 86 d8 3e b4 23 23 3f
       0.32906643 -0.54776907 0.4229007 0.63726354
000230 73 63 39 bf fe 7e 33 3e 0e 84 c6 bf 77 45 41 be
       -0.7241737 0.17528912 -1.550905 -0.18874155
000240 fb 29 0e 3e a4 7a d1 bf 57 6b 9b 3f a0 d6 45 be
       0.13883202 -1.6365552 1.2142133 -0.19320154
000250 71 38 ad 3f ae 78 c7 3d 10 ee 4e bf 69 4d 2d be
       1.353285 0.09739815 -0.80832005 -0.16924061
000260 75 ed 41 3f 69 e5 f6 bc 67 af 4e bf 85 1f 31 be
       0.75752956 -0.030138688 -0.8073639 -0.1729718
000270 9b 60 05 3e 5b aa bf 3f 20 a6 8f 3d c8 b3 93 3e
       0.13025133 1.4973863 0.07014108 0.288481
000280 9a 64 1e c1 aa 2c 9d 3f a8 e3 9f bf 44 a8 fb 3e
       -9.899561 1.2279255 -1.249135 0.49151814
000290 ff 83 1d c0 5f d1 3e be b7 88 76 c0 65 3b 6a bf
       -2.4611814 -0.18634556 -3.8520944 -0.9149688
0002a0 cc 06 e6 3e 2e a3 42 3f 7b 63 63 bf 8b 90 00 3f
       0.4492706 0.7603024 -0.8882367 0.50220555
0002b0 62 0c c3 be b1 97 da bf b0 7c 34 3f 06 99 e1 bf
       -0.38095385 -1.7077543 0.7050276 -1.7624824
0002c0 c7 68 83 3f d4 ba 9c c0 01 f8 88 be 29 e1 12 3f
       1.026635 -4.897806 -0.26751712 0.5737482
0002d0 f0 3b 82 3e 9d 20 81 3f e1 79 af 3e 98 74 ca be
       0.25436354 1.0088078 0.34272674 -0.3954208
0002e0 87 e0 2c 3e 75 f1 a9 be b2 e7 77 be 0c 1b 85 bf
       0.16882525 -0.3319203 -0.24209478 -1.0398879
0002f0 4c d6 18 bf b3 5b b9 3e 91 0e cf 3e f5 a4 13 40
       -0.5970199 0.36202773 0.404408 2.3069432
000300 92 46 99 bf 92 7e ce bf 95 04 49 3e 66 61 c8 be
       -1.1974661 -1.6132376 0.19630654 -0.3913681
000310 4f db 5d be 40 b2 8c bd 9d 1d 84 3f 9f 0b 3e c0
       -0.21665691 -0.06869936 1.0321537 -2.9694593
000320 3a 40 cb 3e 3a d8 78 bf a4 23 47 3e 2c 18 8e bf
       0.39697438 -0.97204936 0.1944719 -1.1101127
000330 b0 cf 38 3e a7 cd 27 3b d6 48 53 bf 36 6d e2 bf
       0.18047976 0.0025604756 -0.82533014 -1.7689579
000340 4e 9a a2 3e 47 ab 98 bf 7a 8b 64 3f ba 2a 54 3f
       0.3175835 -1.192727 0.89275324 0.82877696
000350 25 75 73 bf 26 71 96 bf 6a ee 35 bf c5 02 4b 3f
       -0.95100623 -1.175328 -0.71066916 0.793011
000360 6d de 10 3f c7 b6 8f bf 1e 32 b9 3f 14 3d 3a bf
       0.56589395 -1.1227654 1.446842 -0.7274945
000370 98 91 4e 3e 77 e7 8c 3e c3 1e 6b be 2d df 1f be
       0.20172727 0.27520344 -0.22960953 -0.15612479
000380 95 62 1b be 19 79 d6 be 12 b7 01 bf 2a 46 9a be
       -0.15174325 -0.41889265 -0.5066997 -0.30131656
000390 0f 15 ad 3f a0 68 b8 3e c6 4b 0a be cf f4 af 3d
       1.3522052 0.36017323 -0.13505468 0.085916154
0003a0 1e b9 cf 3e 3f 95 79 bd 7c a5 41 c0 9f 08 42 3e
       0.4057092 -0.060933348 -3.0257254 0.18948601
0003b0 f0 ec 83 bf e7 34 06 bd 6a 1c 95 be b8 95 fb 3e
       -1.0306683 -0.032765295 -0.2912324 0.49137664
0003c0 59 d9 51 bc 1c b7 cf bd e5 f2 c4 be 06 e9 dc 3e
       -0.012808167 -0.10142347 -0.38466564 0.43146533
0003d0 d2 2c 87 3e d8 08 08 3f 0d d6 a3 bf 8b 1c 46 3e
       0.26401383 0.53138494 -1.2799698 0.19346826
0003e0 9f 86 2c be 12 9c 69 3f e1 5d 74 bf a2 1e c4 bd
       -0.16848229 0.9125377 -0.9545575 -0.09576155
0003f0 db b4 67 bf 55 67 a1 be a0 7a 83 bf 03 a4 82 bf
       -0.9051034 -0.3152415 -1.0271797 -1.0206302

linear_sigmoid_stack.4.bias f4 [80]
000000 c1 17 59 bf 15 68 aa 3d 18 72 60 be 34 f0 4a 3e
       -0.8480187 0.08320633 -0.21918523 0.19818193
000010 bc 19 b4 3e e7 27 83 3d c9 3e a1 3e 70 e3 46 3e
       0.35175884 0.06404095 0.31493214 0.19422698
000020 9f 9f 33 3e cb 97 19 bf 6c 16 09 3e 03 9c dd be
       0.1754136 -0.5999724 0.1338746 -0.4328309
000030 4c b3 9f 3e 84 c0 03 3f 69 d2 4c 3e 9e e1 50 be
       0.3119148 0.5146563 0.2000214 -0.20398566
000040 e9 ed 5d be d7 7f 0d 3f 80 b0 32 3d 9f e8 a6 be
       -0.21672787 0.55273193 0.043625355 -0.3259935
000050 06 e1 10 3f 3f 2c 1b 3c cb d5 cd 3e c3 65 65 bf
       0.5659336 0.009470998 0.40202174 -0.896084
000060 3a 8e 98 3e d8 e5 09 bd a0 b1 97 be 30 9a cc be
       0.2979601 -0.03366646 -0.29627705 -0.39961386
000070 c2 61 3c 3e f1 be b6 3e fe 94 2a be 13 c1 9a bd
       0.18396667 0.35692552 -0.16658399 -0.07556357
000080 4a 56 ac be 61 30 a3 bd 12 a8 90 3e 33 79 f7 3e
       -0.33659583 -0.07968212 0.28253227 0.48334655
000090 ff ee 29 be 1f 21 1d 3d fd 33 84 3e fd ad 3e be
       -0.16595076 0.038361665 0.25820914 -0.18621059
0000a0 98 9c a8 be 6b 35 bb 3c 3b 3b e4 be 5f e5 6e be
       -0.32931972 0.02285262 -0.4457644 -0.23329686
0000b0 62 2c ad bd 08 b1 69 3b 50 5f 3e be c9 cf 33 be
       -0.08455731 0.0035658497 -0.18591046 -0.17559732
0000c0 ab d1 52 3f 51 15 bf 3e 4d 27 c9 3e 78 d1 cb 3e
       0.8235118 0.3732095 0.39287797 0.3980825
0000d0 5c 4c eb 3e 58 47 74 3f 93 d9 85 be ba 60 fd bd
       0.45956695 0.9542136 -0.26142558 -0.12371965
0000e0 60 61 4a 3e be 6f 38 3f fc d9 48 be d2 27 17 bf
       0.19763708 0.72045505 -0.19614404 -0.59045136
0000f0 5a 99 06 bf 91 72 7f bf 29 86 20 bf d2 51 0f bd
       -0.52577746 -0.9978419 -0.6270471 -0.03499014
000100 c1 c9 e7 3e bf 79 8d bd 1a fc 20 bf df 7e 65 3d
       0.45271114 -0.06907987 -0.62884676 0.056029197
000110 3c da f1 bd 21 dc 1f be 1c cc 47 bd de 03 24 be
       -0.11809203 -0.15611316 -0.04877864 -0.160171
000120 23 9b 13 3f 28 25 f5 3d b2 45 d3 be 02 95 26 3f
       0.57658595 0.119699776 -0.4126411 0.6507112
000130 5e 52 b3 be f4 93 1d bd 06 6f 3f 3d 16 a6 27 be
       -0.3502378 -0.038471177 0.04673674 -0.1637195

linear_sigmoid_stack.6.weight f4 [60, 80]
000000 41 fc 26 bf 86 5d d1 be 40 bc 05 c2 ef c7 a3 be
       -0.6522866 -0.40891665 -33.433838 -0.31988475
000010 9a bd ce 3d af 1d 47 be 89 a1 70 bb 2a e9 04 be
       0.100947574 -0.19444917 -0.0036717376 -0.1297957
000020 79 dd f0 be df 1b a7 3e 6c 97 d9 3d 60 d1 b3 3d
       -0.4704397 0.3263845 0.106245846 0.087801695
000030 cf ea 3c be 7f 3d a5 be 68 e5 25 c1 b4 e9 9b bf
       -0.18448947 -0.3227348 -10.368507 -1.2180696
000040 e2 29 b9 3f 19 9a 06 bf 48 5d 9b be 5f b6 c1 3e
       1.4465907 -0.52578884 -0.30344605 0.3783445
000050 bd f6 02 bf df 8d 49 3f e9 6f 14 3e ec 80 1b c1
       -0.5115774 0.78732103 0.14495815 -9.718975
000060 6c 1f f9 bc 1d d0 80 be 92 78 f1 3b be ae 51 be
       -0.03041049 -0.25158778 0.0073691094 -0.20476815
000070 7d 18 13 bf fe 2e 18 3e ee e6 93 be 4c d8 3f 3e
       -0.5745924 0.14861676 -0.28887123 0.18734854
000080 ba 7c 99 bf 22 b9 c0 c0 44 74 7e be 2d 5a 41 bc
       -1.1991189 -6.022599 -0.2484904 -0.011801285
000090 5d ca df bf 98 be 1e bf 63 14 52 3e 11 70 28 3d
       -1.7483631 -0.62009573 0.2051559 0.0411225
0000a0 ab cb 95 be 4c be a3 3e d0 fa c8 3f 91 82 8f bf
       -0.2925695 0.31981122 1.5701542 -1.1211721
0000b0 8c 5f 5d bf a0 06 9d be 18 9f 37 bf 93 a6 0c be
       -0.8647392 -0.30669117 -0.7172713 -0.13735418
0000c0 8a a9 ea be 6e 68 a7 3e 00 be d7 bd 05 ff 30 be
       -0.45832473 0.3269686 -0.105342865 -0.17284782
0000d0 c8 6f ce 3d a6 72 9b be 22 6a e3 bc d1 98 66 be
       0.10079914 -0.30360907 -0.027760569 -0.22519232
0000e0 a0 0b 39 be 07 5c cc bd d6 70 50 be 62 da 30 3f
       -0.18070841 -0.0997849 -0.20355543 0.69083226
0000f0 5a 2d 26 3d 19 e7 9d bf 60 d6 cb be 26 e0 4c 3e
       0.040570594 -1.233615 -0.39811993 0.20007381
000100 d2 42 88 bd 8e 81 3d be d5 3b 90 be 8b 53 91 3e
       -0.0665337 -0.18506452 -0.28170648 0.2838405
000110 b8 dd d3 bd e6 0b c1 3f e4 99 6d 3b 07 b2 c0 be
       -0.10345024 1.5081756 0.0036255056 -0.37635824
000120 c9 7f 5c bc 56 72 c8 bd 1d 5a 22 bf 79 f6 d2 bd
       -0.013458201 -0.09787433 -0.6341875 -0.10300917
000130 16 09 d2 3b b3 cc a2 bf 38 a5 b7 be 53 74 19 3f
       0.0064097745 -1.2718719 -0.3586824 0.5994312
000140 21 6d 6c 3f 5c 72 33 c0 64 78 df bd f8 eb 7c bd
       0.9235402 -2.803855 -0.109116346 -0.061748475
000150 30 8d bb 3e 40 60 55 bf 4a ed a1 bd 90 e0 0a bf
       0.36631155 -0.8334999 -0.079065874 -0.54248905
000160 31 7d 2a bd 41 d9 d1 bf 54 40 80 3e 5b 7b 8f 3f
       -0.041623298 -1.6394426 0.25049078 1.120952
000170 7e 7e cc 3d a9 44 00 be ce 25 38 bb 2a 64 05 bd
       0.09985064 -0.12526192 -0.0028098705 -0.032566227
000180 2e bc 12 3e fd 42 5d bd 69 7f c0 bf 6d 73 0b c0
       0.14329597 -0.054018963 -1.5038882 -2.17892
000190 70 7e 6b bd 31 42 b8 3c 63 12 13 bf bf c2 4e bf
       -0.057493627 0.0224925 -0.5744993 -0.8076591
0001a0 33 14 3a 3e 59 3b 3f be af 57 f2 bf 29 7f 52 40
       0.18171768 -0.18674983 -1.8933009 3.2890112
0001b0 00 a2 4f 3e 5c e2 3a 3e 77 17 8b 3d b0 53 51 3d
       0.20276642 0.18250412 0.06791585 0.0511052
0001c0 ff b1 00 3f a7 31 55 3d 4d e5 14 be ab 69 8b bd
       0.502716 0.052049305 -0.14540596 -0.06807264
0001d0 6a cc cd bd 9e 1a 12 bd 8b b1 d6 bc cb 04 af 3d
       -0.100487545 -0.035669915 -0.026207706 0.08545836
0001e0 13 ba fa be 90 54 6f be 92 2a a7 3f 13 19 7d bf
       -0.48970088 -0.23372102 1.3059866 -0.98866385
0001f0 17 9b 5d c0 6e 6f e7 3e 77 b6 bb bc 7c 2a 8d c0
       -3.462591 0.45202202 -0.022914154 -4.411436
000200 52 e3 26 3c b4 ff 51 be 40 d9 5f 3d f8 f4 c2 be
       0.010186033 -0.20507699 0.054650545 -0.3807752
000210 9a c5 bc 3c 56 07 29 3e bc e0 2a c0 6c 34 fe bc
       0.023043443 0.16506705 -2.6699667 -0.031030856
000220 98 2b 1e be a7 f5 ac 3d 62 4f 9a 3d 6d e2 04 40
       -0.15446317 0.08445292 0.07534672 2.07632
000230 65 f7 0b c0 fb 99 f7 bf 89 d3 1d bf f5 aa 56 c0
       -2.1869748 -1.9343866 -0.616509 -3.3541844
000240 5d 76 39 3b c8 99 b2 be db ab 28 40 a9 88 ce 3e
       0.002829931 -0.3488295 2.6354892 0.40338638
000250 60 b0 4e bf 6c d0 48 be 8e 42 e8 bf 46 61 9a bf
       -0.80737877 -0.19610757 -1.8145311 -1.2060935
000260 11 76 00 be fe 36 a8 be 2c 47 b6 3f 95 f2 90 3c
       -0.12545039 -0.32854456 1.424047 0.017693797
000270 77 68 41 c0 ad 83 04 3d c2 e8 a2 3d c3 98 6a bf
       -3.022001 0.03235214 0.07954551 -0.91639346
000280 15 45 96 3e e3 1b dc be 5b a8 b3 3f 6f 08 ad 3e
       0.2934958 -0.42990026 1.4035753 0.33795497
000290 45 e3 58 3e 52 d0 04 3f 24 02 91 3e ac 18 8c be
       0.21180446 0.5188037 0.28321946 -0.27362573
0002a0 71 e8 c7 bc e0 3e 23 c0 b4 e4 b7 be fd d1 d9 3d
       -0.024402829 -2.5507126 -0.35916674 0.10635755
0002b0 90 25 99 be d2 ca 1d be fa 4c ad bf 26 50 f3 3f
       -0.2991147 -0.15409401 -1.3539116 1.9008834
0002c0 87 4c cd 3e 47 fb bd 3d 53 6b 66 bf 2b 4f ba 3f
       0.40097448 0.09276443 -0.90007514 1.455541
0002d0 72 4e 78 3f 97 a7 01 bf 1f a6 15 be 94 03 e4 3e
       0.969947 -0.50646347 -0.14614151 0.4453398
0002e0 78 65 e7 be ff 08 6a bf 8f df 34 bf b6 ae 44 bf
       -0.45194602 -0.91419977 -0.70653623 -0.7682909
0002f0 8d a3 07 be 76 82 2a bf eb 2a 77 bf 30 90 04 3e
       -0.13245983 -0.6660532 -0.9654986 0.12945628
000300 94 c4 d1 3d 23 cf b4 3e e9 45 a7 3c 76 76 48 c0
       0.102425724 0.35314283 0.020419078 -3.1322303
000310 9e ac 81 3f 7a 5a c0 be 0e c3 96 3e cc 67 89 be
       1.0130804 -0.37569028 0.2944569 -0.26837003
000320 89 f7 ec 3d ca 43 b9 3f c1 f7 c7 3e 2a ed a7 be
       0.11570651 1.4473813 0.3905621 -0.3279813
000330 f2 8d 81 bf 94 db 5f be 1a 86 cf bf 39 3e d4 bf
       -1.0121443 -0.21861106 -1.62128 -1.6581489
000340 ab 8f f9 be 1c ca 83 bf d2 aa 3b bf b7 9d 60 3d
       -0.48742422 -1.0296054 -0.73307526 0.05483791
000350 7f 35 d2 be ff fe 55 bf db 35 be c0 59 0b c7 3e
       -0.4105644 -0.8359222 -5.944074 0.38875845
000360 d1 a0 a7 bf 8f 34 cb 3c 78 53 02 bf 7c f3 18 3f
       -1.3095952 0.024805335 -0.50908613 0.5974653
000370 57 91 d7 3f 92 c1 0e c1 a9 34 a8 3e 23 30 df 3d
       1.6841229 -8.922258 0.32852677 0.10897853
000380 e9 0f 4d 3e 03 38 04 3c 79 3a 93 bd ff 53 c2 be
       0.200256 0.008069995 -0.07188887 -0.3795471
000390 c8 28 2c be 3b d2 2e c1 d9 d1 d0 bd f2 5c 8a 3f
       -0.16812432 -10.926326 -0.10196275 1.0809615
0003a0 03 7c df be f4 ac 1c bf cc 24 5a bd f2 12 a1 bf
       -0.436493 -0.61201406 -0.05325775 -1.2583907
0003b0 d7 39 b5 be a0 de 3c bf ad b5 c6 be cd 3a 5b 3f
       -0.3539569 -0.737772 -0.38810483 0.856366
0003c0 38 3c b9 be 35 8f 8f 3e ad 59 d2 c0 1c a2 03 3d
       -0.36178756 0.28038946 -6.5734468 0.03213702
0003d0 b3 78 51 3e 71 4c 86 3d d9 26 37 3e f0 17 69 3e
       0.204562 0.06557549 0.17885913 0.22763038
0003e0 2a ee 5a be cf 98 c5 3e 18 f5 57 3d 04 74 27 c1
       -0.21379915 0.38593146 0.052723974 -10.465824
0003f0 fa 1f 6c be 16 e2 35 be 16 95 ca bf 2e bc f8 bf
       -0.23059073 -0.17762026 -1.5826747 -1.9432428

linear_sigmoid_stack.6.bias f4 [60]
000000 c6 45 41 bf 8c 34 c2 3d f3 29 00 bf e4 1c 86 bf
       -0.7549709 0.09482679 -0.5006401 -1.0477567
000010 2e c8 16 bf d7 80 da be 33 99 76 bf 7e 68 89 bf
       -0.588992 -0.42676422 -0.96327513 -1.0735013
000020 b0 e9 a8 bf 7d c6 cd bf 0e e1 b9 bf 57 9a 83 bf
       -1.3196316 -1.6076199 -1.4521806 -1.0281476
000030 d7 31 ca bf 68 eb 2a bf 12 39 93 bf 96 f7 88 bf
       -1.579646 -0.6676545 -1.1501791 -1.0700557
000040 91 1a a5 bf 76 25 02 bf 18 c0 b0 bf 4e 8b 5a bf
       -1.2898732 -0.5083841 -1.3808622 -0.8536881
000050 d7 db 9d bf 05 61 99 bf b8 6b 02 bf 47 40 ab be
       -1.2332715 -1.1982733 -0.50945616 -0.33447477
000060 ab dc 6a bf d9 63 56 bf ac 90 96 bf 72 88 b4 bf
       -0.9174296 -0.83746105 -1.17629 -1.410414
000070 74 71 39 bf 63 49 c8 bf 52 c4 34 bf d8 f1 6b bf
       -0.7243874 -1.5647396 -0.7061206 -0.921659
000080 35 73 8c bf dc dc 97 bf bb 1f 67 bf 4b 94 80 bf
       -1.0972658 -1.1864276 -0.9028279 -1.0045255
000090 e8 ac 93 bf 51 64 4b bf 38 4d 4b bf d3 78 b2 bf
       -1.1537142 -0.79449946 -0.794147 -1.3943123
0000a0 93 6a a7 bf 10 71 98 bf ea 1c 1e bf bb ec d4 be
       -1.3079399 -1.1909504 -0.6176287 -0.4158686
0000b0 fc 66 0b bf a3 0d 07 bf fd ab fd be 57 d9 9b 3b
       -0.54454017 -0.52755183 -0.4954528 0.0047561335
0000c0 a7 52 97 bf 7c 2a 1e bf bf f3 e5 be b6 94 eb be
       -1.1822098 -0.61783576 -0.44912526 -0.46011895
0000d0 28 cc ce bf e3 82 aa be b6 66 b7 bf eb 00 14 bd
       -1.6156054 -0.33302984 -1.432822 -0.036133688
0000e0 38 83 13 bf c2 a6 a2 bf e7 b6 1a bf c0 d6 a9 bf
       -0.576221 -1.270714 -0.60435337 -1.3268661
